Train0002/30e/weights.pth (torch, 974674 bytes, 176 tensors)

classifier.weight f4 [10, 784]
00000000: 0030 8cb9 b5f2 9c3c accc f0bc 9350 d7bc
00000010: ce5e 61bc 0ee9 1c3c 257f 39ba 11fa e73c
00000020: 37b6 4fbb 0ed6 1a3c 7cd6 30bc a509 e6bb
00000030: fcc0 0bbd ccc3 c1bc 9c35 71bc 0168 ad3a
00000040: dc53 673c ae8c af3c a158 c6bc d8ce 7ebc
00000050: ae88 543c a3f2 f23c 53d8 f0bb 45ef da3c
00000060: 6ea1 bcbb 5caa 773b 4f75 043d 76b4 07bd
00000070: 512f b8bc 4a23 14bc b316 64bc 2ec8 fc3c
00000080: 8ca3 bdbc 25ae 86bc fa66 ccbc 6801 09bd
00000090: 2ac9 aabc 6c7e fb3c fe8c 823c 25cd 8d3c
000000a0: 4a30 f63a 1eff 95bc 93fe c53b 1296 08bd
000000b0: fa66 d3bc 50d4 96bc 2c98 b83c 758a ab3c
000000c0: 05c1 81bc 25e8 a8ba 011e bb3c 6f6d 113d
000000d0: 983b 683c e518 9e3b 472a c43c 4a44 acbc
000000e0: 6513 da3b 0ed5 e2bc f7c6 cabc 3a23 97bc
000000f0: 7561 843c 4152 6b3c 314e adbc 9cc6 303c
00000100: 109d a03c dcb5 93bb b7bb b23a 9394 073c
00000110: 2581 b53c 7376 0c3d 6376 e1bc ea6f 56bc
00000120: 8af7 653c ee68 f23c 0a99 fe3c 8213 013d
00000130: 65e7 e83b 416a febc a550 573b c508 b7bc
00000140: e354 08bd 48f9 013d a575 de3c 92ec 11bd
00000150: 770b db3b 7725 c5bb 6595 c0bb 35ed 85bc
00000160: 3305 613c 854a adbc 2182 563c acf4 933c
00000170: 8e71 d13c 9cca 5a3c bdc8 10bd 4aca bdbc
00000180: d715 923c 41f1 f43b f53a e4bc e577 a8bc
00000190: 429e 093d ce23 c53c 1323 7fbc 8545 13bc
000001a0: fc59 0bbd 6e47 28ba d352 dcbc 4cad e1bc
000001b0: eef6 00bb 6eb6 af3b 3ca2 6fbc f79a ad3c
000001c0: 8a0a b2bc 3cbc 043d ca7f c83c 73b8 f6bc
000001d0: 05a2 11bc b739 d33a f7be aa3b e5c7 0a3c
000001e0: 6aa0 653c 5c33 0c3b 07c1 8ebc 0c71 8a3c
000001f0: 0d53 0cbd b768 adbc 8e7a 12bc f583 8ebc
00000200: d7b3 4cbc 43cc efbc 01f0 f8bb f827 fa3b
00000210: ac99 bebc b83b f0ba 0170 d13c 819c 70bb
00000220: 6e19 823a 25eb 49bb 13d8 ec3b 4a07 ba3c
00000230: 8f91 0a3d 9acc b93c bae2 0a3d 2546 29bb
00000240: 5f69 03bd 93b3 8abc a336 c73c 6ec3 72b9
00000250: ec6b 91bc 7133 e0bc dce6 08bd c5ee f6bc
00000260: 8160 edbb ac72 a03c 172d 9e3c 2615 0dbd
00000270: 3580 b63c 9ef0 e4bc 1369 f7bb 6a42 6dbc
00000280: 386a e1bb eec6 e5bb fd44 03bd 059e fcbc
00000290: 2e20 b7bb 4a26 f239 6ae8 84bc 416c 5c3c
000002a0: 6baa 03bd 6ef5 1dbb 82a5 003d d3ac 6ebc
000002b0: b218 043d 65e9 533c 6404 04bd f31b b93c
000002c0: 650b 87bb 1c9b 82bc aaf4 e93c f36c ecbc
000002d0: a527 7b3b 6e05 f5bb d1ed d03c e556 233c
000002e0: 0795 8c3c 01a6 4e3c 4ab6 0cbc 131e f6bb
000002f0: 4a1a f1bc 3387 9e3c 9a4b e83c 452f c83c
00000300: a15f cebc 4ac7 d03a 5c3e cebc 530e a1bc
00000310: a57b aabc 3cf8 473c e158 aebc 4a42 4cba
00000320: 4aed c43a 2a99 bc3c 1e29 ddbc 97da c8bc
00000330: 8ee2 a9bc d1c7 cc3c a156 52bc dcc7 f63c
00000340: 9397 533c 4a30 943b dc62 8bb9 0a58 e7bb
00000350: dcd4 923b 409d 05bc 2591 83b9 0052 953b
00000360: d3d9 e4bc 8c58 99bc d33f ec3c 756f edbc
00000370: 4a11 28bb 25b6 103d 1360 533c 9389 843a
00000380: 9a8b fdbc f5ee 903c 9c64 d0bc e519 26bc
00000390: 3353 44bc f74d adbb 93d0 cc39 ac50 f13c
000003a0: dc18 923b ee06 033d 37f8 b23c bef7 b8bc
000003b0: 3038 833c 4ed1 cebc 8eff 77bc 931a 2c3c
000003c0: a535 413c cc7e db3c e55d 3cbc b8cd 6f38
000003d0: 679f 963c c678 0dbd 0386 d33c 13ef f1bc
000003e0: 2509 013a dcf7 c6bb e716 9abc 8aad 9a3b
000003f0: ccee f13c 770c 2bbc acb2 adbc 9768 58bc
-0.00026738644 0.0191587 -0.02939447 -0.026283538 -0.013755513 0.009577049 -0.0007076136 0.028317483
-0.0031694302 0.009450449 -0.010793325 -0.0070201927 -0.03411959 -0.023652934 -0.014722254 0.0013229848
0.014119115 0.021429386 -0.024212183 -0.015552245 0.01297204 0.029656714 -0.0073500066 0.02672542
-0.0057565486 0.003779075 0.032338437 -0.033131085 -0.0224835 -0.009041617 -0.013921428 0.030857172
-0.023149274 -0.01644046 -0.024951447 -0.033448607 -0.020847876 0.030699931 0.015936371 0.017309735
0.0018782702 -0.018310126 0.0060423105 -0.033346243 -0.025805939 -0.018411785 0.022533499 0.020940045
-0.01583911 -0.0012886567 0.022841455 0.035504755 0.0141743645 0.004824745 0.02394594 -0.021028657
0.006655144 -0.027689483 -0.024753077 -0.018449415 0.016159752 0.014362873 -0.021155449 0.01078954
0.019606143 -0.0045077633 0.0013636266 0.008275169 0.022156307 0.03429265 -0.027522271 -0.013088206
0.014036069 0.02959105 0.031078834 0.031512745 0.0071076625 -0.031056525 0.0032854464 -0.022343049
-0.03328408 0.031731874 0.027155707 -0.035626 0.0066847163 -0.006016429 -0.005877184 -0.01634846
0.01373415 -0.021153698 0.013092549 0.018061005 0.025566842 0.01335397 -0.03534769 -0.023167748
0.01783268 0.007475049 -0.027860144 -0.020564983 0.033598192 0.024064925 -0.015572327 -0.008988743
-0.034021363 -0.0006419335 -0.026894962 -0.027548455 -0.0019678432 0.0053623235 -0.014626082 0.021192057
-0.021733541 0.032406077 0.024474997 -0.03011725 -0.008888726 0.0016115223 0.005210753 0.00847051
0.0140152965 0.0021392917 -0.017426027 0.016899608 -0.03425889 -0.021168096 -0.008940352 -0.017396906
-0.012494049 -0.029272204 -0.00759697 0.007634159 -0.023266636 -0.0018328344 0.025566103 -0.0036714377
0.0009925792 -0.0030810323 0.0072279065 0.022708554 0.03383022 0.02268057 0.03390763 -0.0025829163
-0.03208291 -0.01693133 0.024318045 -0.00023151722 -0.017751656 -0.02736828 -0.03342329 -0.030143151
-0.00724417 0.01958593 0.01930861 -0.034443997 0.02227793 -0.027946766 -0.0075503676 -0.014481166
-0.0068791173 -0.0070122397 -0.032048214 -0.030837068 -0.005588553 0.00046186364 -0.016224105 0.013453544
-0.032144945 -0.0024102586 0.03140784 -0.014567572 0.032250114 0.012934064 -0.03223075 0.022596335
-0.0041212314 -0.015943103 0.028559048 -0.028860545 0.003832319 -0.007477454 0.025504025 0.009969448
0.017160906 0.012612821 -0.008588383 -0.0075109093 -0.02943148 0.019351577 0.028356362 0.024436602
-0.025192084 0.0015928533 -0.02517622 -0.01966015 -0.020810911 0.01220518 -0.021282615 -0.000779186
0.0015024331 0.023022253 -0.026997145 -0.024518294 -0.020737913 0.024997624 -0.012838037 0.030124597
0.012914556 0.004522358 -0.00026585802 -0.0070600556 0.004480941 -0.008155167 -0.00025094408 0.0045568943
-0.027935898 -0.01871898 0.028839028 -0.02898381 -0.002564507 0.035329957 0.012901324 0.0010111801
-0.030950356 0.017692069 -0.0254386 -0.01013801 -0.011982727 -0.005288835 0.00039065312 0.029457413
0.00445853 0.03198903 0.021846874 -0.02257907 0.016018003 -0.025246289 -0.015136613 0.010504383
0.011792575 0.02679386 -0.011496996 5.717363e-05 0.018386556 -0.034539007 0.025820738 -0.029532945
0.0004922322 -0.0060720276 -0.018809749 0.0047203945 0.029532813 -0.010439984 -0.021203361 -0.01320853

classifier.bias f4 [10]
00000000: 20fd 15bc fa3d e33c 7c9e 34bc 6c4d 09bd
00000010: 612d e7bc dcc1 44bc 5d5c 0a3d f3e5 753c
00000020: 1544 fc3c a746 943c
-0.009154588 0.027739514 -0.011024114 -0.0335211 -0.02821988 -0.01200911 0.03377949 0.015008437
0.030794183 0.018100096

encoder.linear_mapper.weight f4 [32, 16]
00000000: 8532 253c c2fa 03be 1f74 47be 1e08 bfbd
00000010: c86c b9bd c4da 533e 338d 8abd 4d7b dabc
00000020: 3f21 3c3d 2764 463e 9856 95bc aa14 193e
00000030: cd81 28be 9559 58be 8ccb b8bb 1dcc f93d
00000040: dae3 073e 24ba bb3d 4be1 353e bfac e2bd
00000050: 78f3 883d d005 4b3e f412 fbbd 8a8a 5e3e
00000060: 2b9f 33be 6ecd 1f3e f9eb 123e bc37 463e
00000070: 18a0 a6bb c006 533c fa67 fbbd 7e09 6b3e
00000080: 402c 523c a312 33bd 1b07 123d 638d 1c3e
00000090: 8752 c8bd c8cb 22be b706 54bd 6d92 8c3d
000000a0: 2efa 413d 82ff 2ebd 0cef 433d 0f40 3c3c
000000b0: e9da 513e c3b1 f5bd 10c0 663e 0e35 333c
000000c0: 71c7 213e 9631 dc3d 72c5 2bbe 3059 2b3e
000000d0: 7ad6 b2bd cfa8 27be fc2d e33d 14d9 723d
000000e0: 819e 0bbe 14c2 08be 631f 473e 8be7 72be
000000f0: 4a9b a9ba 7b58 09bc 4d6c 41be f63f c03d
00000100: b2bc 64be f618 3c3c f730 86bd 5bce 0c3e
00000110: 48b5 94bd ac92 75be 7b0a 38bd 4a44 3b3e
00000120: c382 2abe c762 433e 056a e13d 7225 cfbc
00000130: c5a0 abbc 0685 583e 2d73 b93c f064 863d
00000140: 6b0b 543c c8ed 633c 9437 2ebe 0d3e 06be
00000150: befb 7c3e dca1 1f3e 36aa 543d 4083 873e
00000160: 15ec 6abd 4e93 013e 3abb c9bd 3dda 5e3e
00000170: 9e28 0b3e 66b1 a53d bb19 823a 862b 2b3e
00000180: edfd 133e d97b 1c3e dcc6 84bd 5c01 613d
00000190: e7e5 24bd 900a 0bbe 6f79 7a3d 4dbd 853e
000001a0: 8d07 273e 72ff 1cbd 5665 253e 85d2 30bb
000001b0: 11bc 653e 9d68 4fbe 6e02 d83d 91aa 7fbe
000001c0: a70b 0c3e fb4d 263e ba28 223e 6866 5ebd
000001d0: 65e5 933d 47a9 0f3e 19f5 fbbc dc0a 903e
000001e0: 67e9 503e 247b 3b3e e941 62bd 2b45 4f3e
000001f0: 7699 b3bd f72c 2bbe 1e30 b1bd 5971 e3bc
00000200: 5039 053e 5618 a63d caa8 be3d 024f 64bd
00000210: fa4c 723e ee33 8b3e f0e4 3bbe 9050 7f3e
00000220: 1711 c13d a821 d23d 16d5 be3d 2666 223e
00000230: 1dfe 903b 69d6 adbd aec9 ffbd c667 4ebe
00000240: 2d42 773d 6cd1 d2bd b5a8 233e 0e4f 3ebe
00000250: f3f0 643e 3fbb 76be eb3b 483e 270b 483d
00000260: 3723 78be 449a 633d e10b 17be 797d 1cbe
00000270: 3083 6e3c ede0 4bbd 8105 c93d 7447 7c3e
00000280: b257 89be 41d9 383e ecea 38be 9b68 d8bd
00000290: 3779 df3d 7cb9 15be d046 21be d4fa bcbd
000002a0: 1ef2 1f3d 1ff2 47bd bf4d 433e c622 bf3d
000002b0: d81b 94be a16b 78be f367 d7bc c394 e0bc
000002c0: db39 8abd 4ee0 ee3d b902 eb3d ce73 16be
000002d0: b264 3abd c6d9 733d 50c3 803d a868 d2bc
000002e0: 2a75 d53d 8e38 5e3d 02e8 81be 3ef2 78be
000002f0: 8faa 3fbc 75b5 8d3d 4b17 43be d75e 1bbe
00000300: e9ed 86be 161b 253d b09c 533e aecc 8a3e
00000310: e934 48be 3481 423e 3dda 96bd fa4d 59be
00000320: 58f7 373e a400 433e a97d 093d efc0 81bd
00000330: 5fb6 e13d 9d07 1e3e b7a2 4d3e 595b a9bd
00000340: 5947 8dbc e498 e53c 8f8a df3c 0fcf c43d
00000350: f538 923d 56cc a23d bca8 2c3e d6bd 66bd
00000360: c0df 453e 9600 69bd c9c9 38be 68bd 323e
00000370: 21a6 4ebe 6208 83be 7c12 283b ced0 703e
00000380: 8532 e8bd c8da e43d 1c01 44be c3f0 523d
00000390: 5329 0e3e 7825 7dbd 61d5 7cbe 8af4 56be
000003a0: b8bf 3ebe 4436 dbbd 4b45 fbbd f72e 003e
000003b0: 112d 363d 5399 43be 43cd 6d3d 08b0 28be
000003c0: 14c4 6d3e 5280 1f3d c22c 843e 045d 603e
000003d0: b5db 1dbe 8c29 123e 1b14 78be 5de9 4dbe
000003e0: ba0e fb3d 852b 30be 74e9 5fbe 8d59 66be
000003f0: 650d 5cbe fc1a 88be ccca f6bc f442 97be
0.010082846 -0.12888625 -0.1947789 -0.0932772 -0.090539515 0.20688921 -0.06765213 -0.026670123
0.045930143 0.19374143 -0.018229768 0.14949289 -0.16455765 -0.21127923 -0.005639499 0.12197135
0.13270512 0.09166363 0.17761724 -0.11068105 0.06687063 0.19826436 -0.122594744 0.21732536
-0.17541187 0.15605709 0.14347829 0.19357198 -0.0050850026 0.012880027 -0.12275691 0.2295284
0.012827933 -0.043718945 0.035651308 0.1528831 -0.09781366 -0.15898049 -0.051764216 0.06863866
0.04735773 -0.04272414 0.047835395 0.011489882 0.20493664 -0.11996796 0.22534204 0.010937942
0.15798737 0.10751645 -0.16774538 0.16733241 -0.087323144 -0.16372989 0.11092755 0.059289053
-0.13634683 -0.13355285 0.19445567 -0.23721139 -0.0012939957 -0.008382912 -0.1888897 0.093871996
-0.22337607 0.0114805605 -0.06552308 0.13750593 -0.07261139 -0.23981732 -0.04493187 0.18287769
-0.16651444 0.1908065 0.1100655 -0.02528641 -0.020950684 0.21144494 0.022637928 0.06562221
0.012942175 0.013911672 -0.17013389 -0.13109608 0.24705407 0.15589088 0.05192014 0.26467323
-0.05735405 0.12653849 -0.09850164 0.21762939 0.13589713 0.08090477 0.0009925881 0.16715822
0.14452334 0.15281619 -0.06483242 0.054932937 -0.040258314 -0.13578248 0.061150964 0.26120988
0.16311474 -0.03832955 0.16151938 -0.0026980948 0.22435023 -0.2025475 0.105473384 -0.2496741
0.1367632 0.16240685 0.15835848 -0.05429688 0.07221488 0.14029418 -0.03075652 0.28133285
0.20401536 0.18308693 -0.055238638 0.20241229 -0.08769505 -0.16716371 -0.08651756 -0.02776401
0.13010144 0.081101105 0.09309538 -0.05573941 0.23662177 0.27188057 -0.18349051 0.24933076
0.09427088 0.10260326 0.09317987 0.15859279 0.004424824 -0.08488161 -0.12489639 -0.20156774
0.060365845 -0.1029385 0.15982325 -0.18584844 0.2235754 -0.24094866 0.19554107 0.04883876
-0.24232183 0.05556704 -0.14750625 -0.15282239 0.014557645 -0.049775053 0.09815503 0.24636632
-0.2682472 0.18051626 -0.18058366 -0.10566827 0.10911792 -0.14621538 -0.15749669 -0.09227529
0.03904926 -0.04881489 0.19072627 0.093328044 -0.28927493 -0.24259807 -0.026294684 -0.027414685
-0.06749316 0.116638765 0.11475129 -0.14692613 -0.045506187 0.059533857 0.06287253 -0.02568467
0.10422738 0.054253154 -0.2537232 -0.24311158 -0.011698379 0.06919376 -0.19051854 -0.15172897
-0.26353386 0.040309034 0.2066524 0.27109283 -0.19551434 0.189946 -0.073658444 -0.21221152
0.17965448 0.19043213 0.033567104 -0.06335627 0.11021113 0.15432592 0.20081602 -0.08269376
-0.017245935 0.028027005 0.02728775 0.09609806 0.0713977 0.0794913 0.16861242 -0.056333385
0.19323635 -0.056885324 -0.18045725 0.17455065 -0.2018056 -0.25592333 0.0025645783 0.23517153
-0.11337761 0.11174542 -0.19141048 0.05149914 0.13882951 -0.06180331 -0.24690773 -0.20991722
-0.18627822 -0.1070371 -0.12269076 0.12517916 0.044476572 -0.19101457 0.05805708 -0.164734
0.23219329 0.038940735 0.25815398 0.21910483 -0.15415843 0.14273661 -0.2422642 -0.20108552
0.12258668 -0.17204101 -0.21866399 -0.22495098 -0.21489485 -0.26583087 -0.030125998 -0.2954327

encoder.linear_mapper.bias f4 [32]
00000000: d14b 5ebe 4129 ce3d dbe1 48be f180 123d
00000010: 8692 283e 99ec da3d 0155 6d3e 3db0 773e
00000020: f3f8 5fbe 64e1 543c 020c 933d fc84 46bd
00000030: b8cf 0cbe d8ef 6f3e 70b5 14be b861 70be
00000040: c669 69be 6a4a 0ebe d7a3 0e3d 0797 0a3e
00000050: 6104 36bc cfae 4ebe 9923 3f3e 219d 3bbd
00000060: ac09 96bd a981 8cbc c67b e63d b248 04bd
00000070: 5d88 c13d 763a b03d 976b 27be 8d61 473e
-0.21708609 0.10066462 -0.19617407 0.0357675 0.16462144 0.10689659 0.23176958 0.24188323
-0.2187231 0.01299319 0.07180025 -0.048466668 -0.13751113 0.23431337 -0.14522338 -0.23474777
-0.22794256 -0.13895574 0.03482422 0.13534175 -0.011109442 -0.20183872 0.18665923 -0.045804147
-0.073260635 -0.01715167 0.11254077 -0.03229589 0.09449837 0.086049005 -0.16349636 0.19470806

encoder.blocks.0.norm1.weight f4 [32]
00000000: 7c10 843f cf27 813f 5fd3 813f 9672 863f
00000010: bcd3 823f e99c 823f ae39 873f 05a1 883f
00000020: 2e6e 7f3f a264 803f 57ef 823f 7727 813f
00000030: 86b2 7f3f cd39 803f 287f 813f 13b7 823f
00000040: 2eb7 813f afa7 823f 8684 803f 798c 813f
00000050: c9d7 7d3f 1147 823f f07e 803f 86a8 803f
00000060: d801 813f 5301 803f 234b 813f 7882 833f
00000070: 5a19 813f 77c3 7e3f d891 823f 5a3f 803f
1.0317531 1.0090274 1.014263 1.0503719 1.0220866 1.0204135 1.0564477 1.0674139
0.99777496 1.0030711 1.0229291 1.0090169 0.9988178 1.0017639 1.011693 1.021212
1.0134027 1.0207423 1.0040443 1.0120994 0.99157387 1.0177938 1.0038738 1.0051429
1.0078688 1.0000404 1.0101055 1.0274191 1.0085862 0.99517006 1.0200758 1.0019333

encoder.blocks.0.norm1.bias f4 [32]
00000000: 7bc7 95bb b332 14bc 21ba 03bc 682a 18bc
00000010: 6b46 723b 8fcb 94b9 8ce5 80bc cf91 04bb
00000020: 195b 063c c4b8 01bb 0144 f03a 12d4 06bc
00000030: 2943 dabb 374c 44bb 0286 a4ba 0428 f23a
00000040: f851 abba 4098 323c 0253 863c 249d c43b
00000050: f539 9d3b a945 753c 6b43 72bb 12d4 23bb
00000060: 22ba 81bb 8090 b5bb 1a32 1aba 824b c73c
00000070: e5fb 3dbc 19fa c5bb 2a2b 71bc 82a2 b63a
-0.004570899 -0.009045291 -0.008039982 -0.009287454 0.0036968242 -0.00028380423 -0.015734456 -0.002022851
0.00820043 -0.0019793967 0.0018330814 -0.008229272 -0.006660838 -0.0029952654 -0.0012552144 0.001847506
-0.0013070693 0.010900557 0.016397003 0.006000178 0.004798169 0.014970222 -0.0036966454 -0.002499823
-0.0039589563 -0.0055409074 -0.00058820995 0.024327997 -0.011595701 -0.006041777 -0.014719764 0.0013933929

encoder.blocks.0.mhsa.W_q.weight f4 [32, 32]
00000000: 3abb d73d faab 733b dc4f e33d b45d 18bd
00000010: dcf8 74bd ee2c 893d b944 30be b3dc 4ebd
00000020: ec31 f4bd e822 0dbc f9cb 78bd 4d2b 30bd
00000030: bb9f 17bd 7961 093e f1af 743d 25cc 48be
00000040: 4861 01be 18b2 11bc 5caf 943d aa91 db3d
00000050: fa90 2f3e c194 07be 9b82 473e 5a95 e43d
00000060: 12de 02be 04f0 0dbe 8678 1ebe 2f43 0c3c
00000070: 5d1d e5bc b32c 37be fffd 5bbd 638c db3d
00000080: eed2 54bc 00e5 1dbe 538a 08be bdf1 8e3d
00000090: 7d7c 9e3d 2855 93bd 4d87 8cbd 6bab 4b3d
000000a0: e04d f0bd 3137 2ebe 30cd 303e f0db 3a3d
000000b0: c5c4 dcbc e1dc 1b3d 9083 053e 0cc6 11be
000000c0: 0c58 80bd 56ff 36bd 5a05 50be 71e8 2e3e
000000d0: 9dae 41be 533a 52bd 25f4 823d 9ecd 3a3e
000000e0: 443d 8dbd e0ad 273e 6fde b8bc 4413 13be
000000f0: ce05 3ebe 7f11 83bd 1ea2 abbc 6f5f 263e
00000100: 6985 bbbd 5d4f aabd f800 e03d 10bc 79bd
00000110: 28ea 963d 9a1f 71bc 4cf1 5bbd fa5c 07be
00000120: 86b3 1e3e 731d ffbd 1d9f 673d 5ffb e63c
00000130: 8765 2e3d f7df b03c dec5 7fbd 4552 86bc
00000140: 7e20 a03c 4ae4 ddbb 28ed 9fbc edb6 f43d
00000150: 0fc8 d03c a4d8 5ebd cbd3 26be 4e55 a9bc
00000160: 0393 bf3c 9fd3 533d 7a6c 1b3e ca26 163e
00000170: 1215 e1bd 166c 243e d39a 10be 1e5f 0abd
00000180: fe5d f23d d669 29be 06f3 80bd 9792 32be
00000190: a7d6 9e3d 56fb ea3d 83c9 443e 1c0b 23bd
000001a0: f9e6 1dbe f54a 6f3d 14a7 acbd fd23 c7bd
000001b0: c950 05be 3921 2d3e b262 3dbd 8f99 9d3d
000001c0: df0e afbc 288d 743d b99a 11be ae5b 513e
000001d0: d605 49be 31be 4e3c 722b 19be 808d b1bd
000001e0: a3a0 6f3d 5b1d 213e e9f2 943d b519 a33d
000001f0: df46 b13d d929 043e 0c16 a5bd 3920 3abd
00000200: 9517 1a3d 5e36 c93d 5915 d63d 2302 bcbc
00000210: b310 213e 5e6c 43be ba52 9d3d d068 6b3e
00000220: 3b88 37bd 2a57 b63d 5870 323e 413c 2fbe
00000230: 440f 173e 20e5 b23d 7bdd e63d cb77 053e
00000240: 4d2d ae3d 0a6f 9f3d c761 953d a529 15be
00000250: 9eb4 37be 4871 e53d e51b 2b3e 973a 25bd
00000260: 3581 023e 2403 29bb 4402 b33d f172 493a
00000270: a812 9d3d 902c 73bd b069 27be b77e d73d
00000280: 6556 bfbd 7cf3 ed3d 9136 693c ce1e babd
00000290: 0905 283e 4e26 003e 7c01 a1bd dcfb e63d
000002a0: 15f1 183d f8ed e2bd 47fd c63c 7fa2 1dbe
000002b0: aaa1 c73c 558f 17be d0d3 173e da01 cb3d
000002c0: 3c2a ff3d 19be 303d 39d5 90bd 9ae6 d13d
000002d0: 4211 9d3d eebd e43d bfb7 05bd 8da5 423e
000002e0: aeb2 eebd f41a 16be 10ef 0d3d a48b 2d3e
000002f0: 595f 593c 6a1f 31bd b5c7 26be 92c6 043e
00000300: 6831 3fbe 757c b5bd 8aa5 a53d fe0d e3bd
00000310: a453 03be ae97 c0bd 5b11 e83d c6b3 48bd
00000320: d026 18bd 85d0 6ebd 312a d73d 7d85 0e3e
00000330: b5b4 003d 4623 9c3c c5b6 54bd 33d5 b53d
00000340: 080c f93d d793 423d c654 d33d abb4 33bd
00000350: 9245 ddbc c93c 03be 6a5f 5f3d 7719 a3bd
00000360: dc29 43bd f5eb 2abe d751 ac3b ce42 8c3d
00000370: c336 c43d 1c32 a9bc 9270 9e3b 9045 3b3e
00000380: 23ea 363d 1ed2 233e 41a1 4f3e 84d3 3c3e
00000390: 0ae5 013e 1747 113e 0fd0 263e 66d4 b4bd
000003a0: 21e0 0f3e 2acc 48bd a17d 97bd adb2 c13d
000003b0: 40d9 27be dde7 c9bd 9d56 513d 3de2 5b3c
000003c0: bf6f df3c 9726 2cbd 7210 3e3d e0c5 163e
000003d0: a788 2cbd f9c8 813d 68cb 8b3d eef3 b33d
000003e0: 8c0b 2c3e e0ab 14bd bb25 2fbc be67 c0bd
000003f0: 282b 00bd 92b7 cebd 1b66 f2bc 13e8 983d
0.105337575 0.0037181363 0.11099216 -0.037198737 -0.059807643 0.06698023 -0.17213716 -0.050503444
-0.11923584 -0.008614279 -0.0607414 -0.043010045 -0.037017565 0.13416089 0.059738103 -0.19609125
-0.12634766 -0.0088925585 0.0726001 0.107211426 0.17145148 -0.13240339 0.19483416 0.11161299
-0.12780026 -0.1386109 -0.15475664 0.00856094 -0.027968103 -0.17888145 -0.053709026 0.10720136
-0.012989743 -0.15419388 -0.13334017 0.06979702 0.07738588 -0.07193977 -0.06861744 0.049724024
-0.117336035 -0.17013241 0.17265773 0.045619905 -0.026949296 0.038052443 0.13038468 -0.14235705
-0.062667936 -0.0446771 -0.20314541 0.17080857 -0.18914266 -0.051325154 0.06394223 0.18242499
-0.06896451 0.16374922 -0.022567002 -0.14362818 -0.18556902 -0.063998215 -0.020951327 0.16247343
-0.09156305 -0.083159186 0.10937685 -0.060970366 0.073688805 -0.014717007 -0.053696916 -0.13219061
0.1549817 -0.12456789 0.056548227 0.028196035 0.042577293 0.02159117 -0.06244456 -0.016396651
0.019546743 -0.006771599 -0.019522265 0.11948953 0.02548602 -0.054405823 -0.1629173 -0.02067056
0.02338553 0.05171549 0.151781 0.14663234 -0.10990347 0.16056857 -0.14121561 -0.033782117
0.11834334 -0.1654428 -0.06296353 -0.17438732 0.077557854 0.1147372 0.19217496 -0.039805517
-0.1542014 0.058421094 -0.08430305 -0.09723661 -0.13019098 0.16907205 -0.0462367 0.076953046
-0.021369396 0.05970493 -0.14219178 0.2044513 -0.19631132 0.012618587 -0.1495798 -0.08669567
0.058502804 0.15733854 0.07272894 0.079638876 0.08656096 0.12906589 -0.08060846 -0.045440886
0.037620146 0.09824823 0.104532905 -0.022950238 0.15729026 -0.19084308 0.076817945 0.22989202
-0.044807654 0.08903344 0.17425668 -0.17112829 0.14751917 0.087351084 0.11272713 0.13033979
0.08504734 0.07784851 0.0729404 -0.14566667 -0.17939994 0.11203247 0.1670986 -0.04033908
0.12744601 -0.0025789225 0.087406665 0.0007684669 0.07669574 -0.05936867 -0.1634891 0.10522216
-0.0934265 0.116187066 0.014234201 -0.09087907 0.16408171 0.12514612 -0.07861611 0.11278507
0.03733929 -0.11080545 0.024290694 -0.15394019 0.02436908 -0.1480077 0.14826894 0.099124625
0.124592274 0.04315004 -0.07071919 0.10249062 0.07669307 0.11169039 -0.032645937 0.19008465
-0.11655174 -0.1465872 0.034651816 0.169478 0.013267362 -0.04324285 -0.1628712 0.12966374
-0.1867119 -0.08861629 0.08088215 -0.11086653 -0.12824875 -0.094039306 0.11331435 -0.04899957
-0.03714639 -0.05830433 0.10506094 0.13918109 0.031422336 0.019059788 -0.051932115 0.08878555
0.12160498 0.047504272 0.103189036 -0.04387347 -0.027010713 -0.12816156 0.054534353 -0.079638414
-0.047647342 -0.16691573 0.0052587795 0.068486795 0.095807575 -0.020653777 0.004835197 0.18288255
0.044656884 0.15998122 0.20276357 0.18440062 0.12685028 0.14187275 0.16290306 -0.08829574
0.14050342 -0.04902283 -0.07397009 0.09457908 -0.16391468 -0.098586775 0.05110799 0.013420639
0.027274964 -0.04202899 0.046402402 0.14723921 -0.04212251 0.063371606 0.06825906 0.0878676
0.1680128 -0.036296725 -0.010690148 -0.09394787 -0.031291157 -0.10093607 -0.029589703 0.0746614

encoder.blocks.0.mhsa.W_q.bias f4 [32]
00000000: a023 01be 8ac9 97bc 8047 dc3d ac99 0a3e
00000010: 7f58 143e 878a a9bd 7f09 69bd e6c1 8e3d
00000020: a207 4e3d 1ebf 14bd 5570 8cbd 013f 13bd
00000030: 6c57 1d3e c375 9abd 2d91 82bc 5176 b63d
00000040: a98f 05be 3f55 07be e1ec 6bbc a3f1 0dbd
00000050: 917b 5e3e a026 1b3d 0d94 cd3d 942e 383d
00000060: eece a93d 2c40 813e 9ef1 53bd d5c3 22be
00000070: eab8 25bd 9c38 203d cf01 c6bd bab2 823d
-0.12611246 -0.018528719 0.10755825 0.13535184 0.14486884 -0.08278375 -0.05689382 0.06970577
0.050300248 -0.036315076 -0.06857363 -0.035948757 0.1536538 -0.075419925 -0.015938366 0.08909286
-0.13043083 -0.13216113 -0.014399738 -0.03465427 0.21726824 0.037878633 0.10038004 0.044966295
0.08291422 0.25244272 -0.051744096 -0.15895016 -0.04045955 0.039116487 -0.09668314 0.06381746

encoder.blocks.0.mhsa.W_k.weight f4 [32, 32]
00000000: ca52 c6bd 66cb 513d d15b 16be 214a 463b
00000010: 66ac 883d fc9b 753d dd22 76bd bc2c babd
00000020: 728d 433d 3f9d e1bd ce77 2fbe fe69 58bc
00000030: 6eb0 18be 01aa db3c 8ed3 f6bd 9082 de3d
00000040: 7169 fb3d ef50 e83d de06 b3bd 6bc6 133d
00000050: fe1b 293e 37a7 953a 3a8a 403d 6d4c 323e
00000060: 8afc 063b 64b5 9fbd 9737 843d 44d4 2b3d
00000070: 3db7 2ebe 09b7 12be 3f15 07be 1720 edbd
00000080: 5e40 0a3e b078 013e 86f2 18be ed7a 3abe
00000090: ecc5 1ebe 64b2 a73d f44a 003e 9465 56bc
000000a0: 96d6 8ebd 4f07 1bbe c453 233d 4384 de3d
000000b0: 4048 c43d 6e39 3fbd 533c 7dbd 04e9 1c3e
000000c0: f992 893d 5414 223e be7e 10bd 24b2 583d
000000d0: 976a 1f3e 66ac 393d 3a76 fabb a55b d23c
000000e0: b2af 9c3c ed9b 243e 0fe5 d23d 94ca 333d
000000f0: 9bec 17be 5203 953e b7b7 a6bd aa7e 71bd
00000100: 2080 943d a4e2 133d f4f9 acbd dd10 64bc
00000110: 25c2 12be f418 b7bd b186 6bbd e1e7 033c
00000120: f2f0 6abd ad29 cd3d c456 5c3d 2a8c e0bd
00000130: 46c4 653d a803 0dbd cb47 133e 9c30 093e
00000140: 864b f73d 0ba4 543e 5405 d73d 18dc 95bc
00000150: 85bd 343e 42ae 933d 0a1e d03d 9f39 21be
00000160: c323 04be ac37 e1bd 8e71 2dbe 5280 28bd
00000170: f01c 1bbe 5fd1 ad3e 803e 46be 4a99 c03d
00000180: 3a7d 5b3d 7d18 f6bd faad e83d 154d 2d3d
00000190: 1705 08bd 8fbd 133e 3587 32be fde8 153e
000001a0: 30d7 e0bc 00a3 81bc 6ebd 093e a0c1 9ebd
000001b0: 62c2 b93c 3569 193e d7b7 b43d c0a2 693e
000001c0: ac8b 1f3e 1bfe b4bd c8ff bfbd f130 aa3d
000001d0: 25a1 0dbd 4dd8 963d 9e01 da3d e177 79be
000001e0: 855e 98ba 1f3c 2e3e 17c8 e8bb aaa5 20be
000001f0: 03cc 0cbe 6421 833e f176 8abd e216 32be
00000200: 313e 403e f578 0abe 6632 f6bd d0e6 123e
00000210: 8b85 3d3e 6b4c 933d 3128 203e a9ea 2a3c
00000220: a934 f13d 4a25 c2bd 6e9c 1bbe 3088 9b3c
00000230: 7688 14be 0efa aeba e392 49bc 87ca 123e
00000240: f93a 54bd c00e 29bd ad03 89be 0119 13be
00000250: 1ae4 733d 4ecb 003e 5647 153e aaa2 afbc
00000260: ccef 49bd 0f9e 933d f4c3 a33d e09c 9c3b
00000270: 1055 d53c d7bc 31bc c5f8 bfbc 07d9 54be
00000280: 1a46 00bd f49a 34be dede 753b 65bd 853b
00000290: 3fa7 473d f0ca efbd dfe5 533d 6b71 4fbd
000002a0: 9799 cabd 1632 1b3e 5985 2cbe d964 0a3e
000002b0: 9674 a1bd 26fd a2bd af37 32be 5d2a f6bd
000002c0: b431 6ebd 61fd 5a3e 52ea 23b8 521e 01be
000002d0: f60a c73d c30a db3d 84c7 dd3d d5b3 363e
000002e0: b40c 0f3e f971 373d 73be 173e 94bf 1ebe
000002f0: 5839 32bd f2da bdbd d3ff 5dbd 0eab 29be
00000300: 8a76 a43d b3ae 79bd ccb4 033d eb69 293e
00000310: c275 173d 1317 7cbd 2d42 5f3e 99b2 22be
00000320: 9632 483e e758 d9bd f9dd 2e3e 28fb 783d
00000330: 5383 24be 1a63 39bc 8fa4 cdbd 0978 4a3e
00000340: 6a01 563d 590c 733e 25dd 0b3d 18d4 263e
00000350: 820a 2ebe 883e 563d 2483 be3d 129f 183d
00000360: 1db4 1b3e dd63 803d 7ceb 993d e6f8 a2bd
00000370: 3398 dfbd 5c50 d8bd 0052 323c 6b60 eabc
00000380: 4a9a 08be 74d6 a23d e720 de3b 89bb f9bd
00000390: f845 2d3e ec0d e63d 84d3 8b3d e6a9 f9bc
000003a0: 5925 d2bd 6951 32be 87bd 483c 7f50 0fbe
000003b0: 3f71 253e d3df 38be a108 0cbe 6117 dcbd
000003c0: 334b 8c3d dd9f 43be bc21 6a3d a2ec c3bd
000003d0: bf9d 273c 680f c53d f99e 5cbe e82b dbbc
000003e0: 76ce 9ebd d4a0 62bd 7ab3 d53d e262 d3bd
000003f0: 385e bf3d 5806 6f3d 6453 003e 4f9a c43c
-0.096837595 0.051219366 -0.14683463 0.0030256587 0.066735074 0.05996321 -0.060091842 -0.09090564
0.047742315 -0.110163204 -0.17135546 -0.013208864 -0.14911053 0.026814463 -0.120520696 0.108647466
0.12275971 0.11343562 -0.08741544 0.036077898 0.16514584 0.0011417632 0.047006823 0.17411967
0.0020597302 -0.077982694 0.064559154 0.04195048 -0.17062087 -0.14327635 -0.13191698 -0.11578386
0.13501117 0.12643695 -0.14936265 -0.18210955 -0.15505189 0.08188322 0.12528592 -0.013085742
-0.06974523 -0.15139507 0.039874807 0.10865071 0.09584093 -0.04668563 -0.061825108 0.15323263
0.06717486 0.15828067 -0.03527712 0.052904263 0.15568005 0.045330428 -0.0076434882 0.025678465
0.019126747 0.16075106 0.10297596 0.043894365 -0.14836352 0.29104096 -0.081405096 -0.058958687
0.072510004 0.036104813 -0.08446112 -0.013920036 -0.14331873 -0.08940306 -0.0575015 0.00805089
-0.05735869 0.10017715 0.053793684 -0.10964234 0.056095384 -0.034427315 0.14382856 0.1339745
0.12074952 0.20765702 0.10499063 -0.018293425 0.17650421 0.072109714 0.101619795 -0.15744637
-0.12904267 -0.10996947 -0.16937849 -0.041138 -0.15147758 0.339488 -0.1935978 0.094042376
0.053586222 -0.120163895 0.113613084 0.04230984 -0.03320798 0.1442778 -0.1743439 0.14639659
-0.02744636 -0.015824795 0.13451168 -0.07751775 0.022675697 0.1498154 0.08824127 0.2281599
0.15580624 -0.08837529 -0.09374958 0.08310116 -0.034577508 0.07365475 0.1064484 -0.24362136
-0.0011624849 0.17015122 -0.0071039307 -0.15688196 -0.137497 0.25611413 -0.067609675 -0.17391542
0.18773724 -0.13522704 -0.120213315 0.1434586 0.18507974 0.0719231 0.15640332 0.010431924
0.11777622 -0.094797686 -0.15196392 0.018985838 -0.1450518 -0.0013349669 -0.012303087 0.1433507
-0.051814053 -0.041273832 -0.26760617 -0.14365007 0.059543706 0.12577555 0.14577994 -0.021439869
-0.049300954 0.07207882 0.079963595 0.004779443 0.026041538 -0.010848246 -0.023434052 -0.20785914
-0.031316854 -0.17637235 0.0037516872 0.0040814155 0.048743483 -0.11708629 0.051732894 -0.050645273
-0.09892576 0.15155825 -0.16847743 0.13515033 -0.07883565 -0.079584405 -0.17404054 -0.12019799
-0.05815287 0.21385719 -3.9080456e-05 -0.12609223 0.097188875 0.10695412 0.1082907 0.17842038
0.1396969 0.044786427 0.14818744 -0.15502769 -0.04351172 -0.09270276 -0.05419905 -0.16569158
0.08030422 -0.06095762 0.032154843 0.16544311 0.036977537 -0.061545443 0.21802588 -0.15888442
0.19550547 -0.1061266 0.17076863 0.060786396 -0.16065721 -0.011315132 -0.10041153 0.19772352
0.052247442 0.23735179 0.034146447 0.16291845 -0.16996196 0.05230573 0.09302357 0.037261076
0.15205427 0.062690474 0.07515618 -0.0795763 -0.109177016 -0.10562202 0.010883808 -0.028610429
-0.13340107 0.0795106 0.0067788246 -0.121939726 0.16921222 0.11233124 0.06827453 -0.030476522
-0.1026103 -0.17413868 0.012252218 -0.1399555 0.16156481 -0.18054132 -0.13675167 -0.10746647
0.068502806 -0.19103952 0.057161078 -0.095666185 0.010230481 0.09622079 -0.21545018 -0.026754335
-0.07754223 -0.05532916 0.10434623 -0.10321595 0.09344143 0.05835566 0.12531811 0.023999361

encoder.blocks.0.mhsa.W_k.bias f4 [32]
00000000: 7dfc bb3c 37e6 d1bc ad59 2bbe 8393 2a3d
00000010: 7980 d4bd 2bfe 053e 8ead a9bd 468c 0abd
00000020: e1a8 0cbe 0b38 263e d50e d33d f53b 1e3e
00000030: b384 d53d cc69 e0bd b7d4 2b3e 6536 c2bc
00000040: 428c 253e f357 d53c f83f e63d 2e8a 8dbd
00000050: 151e 8d3d c249 aaba e930 10be 85d7 0a3e
00000060: 99fd c5bd 669d f6bd 4cd7 103e e52b 27be
00000070: 039a 7f3d 2090 133e b7d5 f0bc 6a5d 2dbe
0.022947544 -0.02562247 -0.16733427 0.041644584 -0.10376067 0.13085239 -0.08285056 -0.03382518
-0.13736297 0.16232316 0.10305563 0.1545256 0.10425701 -0.10957679 0.16780363 -0.023707578
0.16166785 0.026042914 0.1124267 -0.06911121 0.06890503 -0.0012991952 -0.14081158 0.13558777
-0.096675105 -0.1204174 0.14144629 -0.16325338 0.062402736 0.14410448 -0.029398782 -0.16930166

encoder.blocks.0.mhsa.W_v.weight f4 [32, 32]
00000000: 7598 14be d4da 62bc 68a3 efbc 3012 083e
00000010: 86a8 133e f555 11be 0e0d 94bd 788d 05be
00000020: 1ec3 2f3d ce25 053e 638a 83bd fa96 e03b
00000030: e5f3 98bc 8101 1cbe b6af 303e d8c8 2d3d
00000040: 8b7f 2b3e f1d5 1fbe 61ec 50bd d9ef 3fbd
00000050: e0f2 753d 4e07 33bd 6a62 d9bd 4076 153e
00000060: 1b98 0d3e 4d0b 333e 153f e63d 222a ee3d
00000070: e820 f7bd 39f1 583c 96c2 5bbd ab63 83bc
00000080: 1b07 413c aeff 463d be71 ddbd 18bb 1dbd
00000090: aa88 b1bd 44f1 6bbc 2937 d4bd 12e0 95bd
000000a0: 85c6 fdbd f7d3 02be c5b4 ffbb 9638 21be
000000b0: b8dd 29be cb7f 033e 5d21 0bbe 268c eb3d
000000c0: e05b 353c 8e73 bbbc 6be4 0e3e fa55 0bbe
000000d0: 2f8b a43d 52d7 f73d 09e4 093e 02b1 27be
000000e0: 10fe 593b 9c29 aabc b293 07be 9389 fb3d
000000f0: 1411 f8bc 9586 fd3d e996 c3bd b707 9abd
00000100: bd18 863d 4bff 463c 91b8 cf3d a1ef 913d
00000110: 35aa 043e e9eb 05be 7c9f 803d de97 fd3d
00000120: 3d22 b9bd 4ccb e8bd e9c7 393e 5377 1cbe
00000130: d83f 0bbe 6e7d 17be 8515 5a3d 5f7a 5c3d
00000140: a782 25be b886 ee3d 3606 1d3d 6866 823d
00000150: a146 34be 6a61 23be e8ec 15be 6cbb 8cbd
00000160: 8fa7 21be c403 c63d 1ad7 cebc d60b 88bd
00000170: 7f7b 183e 459a d83c 430c 7d3c 4abe c8bd
00000180: a6fb 5abd ebae 28be 370e e5bd d2ce 2e3e
00000190: b945 f1bd 4cbc cd3d 7d13 063e 0d31 023e
000001a0: c680 113e ebcb 173e 93af c93d 99b5 52bc
000001b0: 0f4a 3ebd 89fb 28be 9752 b93d 918a 21bd
000001c0: 5ec6 d73c 0c90 13bd 2ac2 e83d b4ef 113c
000001d0: 1dd6 f93d c851 0a3e f84c 553d 6856 1ebc
000001e0: 9fff a03d 970e cdbd 3491 fa3d dd12 0f3e
000001f0: 7a52 853c eab8 6dbc cfd9 203d 83cb 223e
00000200: 903e 243d 3899 b3bd 6ebd 31bd 12c7 3abe
00000210: 7f15 14b9 3542 1ebe b71d 363d 4f0a 5d3d
00000220: 99e9 293e 3400 73bd a3e8 d8bb c4dc 09bc
00000230: 81ba 3ebd 19d4 74bd ecc6 a7bd 86ee a2bd
00000240: 2d01 a43c 2f23 8c3d 5ce0 243d b761 143e
00000250: 1969 e2bc 9955 653d 0ac1 1bbe 2b95 ea3d
00000260: f038 103e 34f1 8a3d 9113 efbd 6b77 8ebb
00000270: 39d4 18be 619c 20be 3d23 083e a50e b23d
00000280: c379 053e 29ad 013e 8ee0 ecbc 4404 a43d
00000290: 5224 a6bd 557b 0abe 05b8 d6bc dd8c 0bbe
000002a0: 81c0 2f3e 2e86 15be 97d5 253e e7f9 03bd
000002b0: 1e19 833d 11ff 1d3e 5e49 bbbd dcad 9cbd
000002c0: 2d9f 9a3d 1719 46bd 620e f33c b632 e43d
000002d0: cf54 e13b 2bb0 f83d 0c10 a4bd ae16 933d
000002e0: 09ee 6d3c fa4c 0ebe d0d4 b3bc 411f 8d3d
000002f0: 6612 dabd cfe1 193e 6419 c4bd e0d2 c93d
00000300: eae0 8d3c 146d d6bd 5e5c 043e 8220 2ebd
00000310: 5da7 b2bc 9113 5bbd 6d62 34be 616a 613e
00000320: f028 a7bd 16ae d03d f27f a93d a670 bb3d
00000330: 6f94 9d3d e5ab 753d 3adc 1ebe 219b 4fbc
00000340: 0288 98bd 8f3a 093e c914 953d 8fe5 ee3b
00000350: 6f85 27be 0d74 22be 949c 1cbe e977 023e
00000360: b0b4 d93d f28f 1fbe 575b 1ebe f6c1 183e
00000370: de98 883d fc69 debd e9c6 b6bc b499 e63d
00000380: a527 ce3d 3a34 46bc 2cd6 8fbd d209 76bd
00000390: ef04 56bd 0f20 d8bd e830 01be 2016 283e
000003a0: 9d7a ed3c 0021 713d 23fc 03be 035e 023d
000003b0: c546 013e b34e c23d b6ab 66b9 c858 9fbd
000003c0: 15ad 2f3e 02b7 9bbd f91e 5abd 11ca c53b
000003d0: e9ad 43bd 1f0c 1ebc 0d55 27bd 1d08 dcbd
000003e0: 514d 9a3b b7f8 923d 5ed4 2abe 8d0d 743d
000003f0: c95f db3c c4d2 ebbd 2376 053e 210c e53d
-0.14511283 -0.013846118 -0.029252723 0.13288188 0.14419755 -0.14192946 -0.072290525 -0.13042247
0.042910688 0.13002703 -0.064228795 0.0068539353 -0.018670985 -0.15234949 0.17254528 0.042427868
0.16747873 -0.15608956 -0.05100668 -0.046859596 0.060046077 -0.04370814 -0.10614474 0.1459589
0.13827555 0.1748478 0.11242501 0.1162913 -0.12066823 0.013241106 -0.05365237 -0.016038736
0.011781479 0.04858368 -0.1081271 -0.038508505 -0.08668645 -0.014400784 -0.103620835 -0.07318129
-0.1239138 -0.1277617 -0.007803532 -0.15744242 -0.16588485 0.12841718 -0.13586946 0.115013406
0.011069268 -0.02288225 0.13954322 -0.13607016 0.0803436 0.12101616 0.13465895 -0.16376117
0.0033263005 -0.020771794 -0.13239935 0.122820996 -0.030281581 0.12379185 -0.09550268 -0.07521003
0.06547687 0.0121458275 0.10142625 0.07125784 0.12955554 -0.13078274 0.06280419 0.12382482
-0.090397336 -0.11366901 0.18142666 -0.15279894 -0.13598573 -0.14793941 0.05324318 0.05382764
-0.16163121 0.11646789 0.038336 0.06367189 -0.17605068 -0.1595513 -0.14641154 -0.068716854
-0.15786575 0.09668687 -0.025249053 -0.066428825 0.1489086 0.026440749 0.015444818 -0.0980192
-0.053462647 -0.16472976 -0.11184352 0.17071083 -0.11780877 0.100456804 0.13093372 0.12714024
0.1420928 0.14823882 0.09847941 -0.012860679 -0.046457347 -0.16502203 0.09048956 -0.039438788
0.026339706 -0.036026046 0.11365159 0.008907247 0.12199042 0.1350776 0.052075356 -0.009664156
0.07861256 -0.100125484 0.122347265 0.1397204 0.01627468 -0.014509419 0.03927022 0.15897946
0.040098727 -0.087694585 -0.043393545 -0.18240002 -0.00014122388 -0.15454943 0.044461932 0.05396491
0.16593017 -0.059326366 -0.0066195293 -0.008414451 -0.046564583 -0.059772585 -0.08192238 -0.07955651
0.020020092 0.06842648 0.04025303 0.144904 -0.027638005 0.055989835 -0.15210357 0.11454233
0.1408422 0.06784287 -0.11673654 -0.004347732 -0.14924707 -0.15684654 0.13294692 0.086941995
0.1303473 0.12663712 -0.02891567 0.08008626 -0.08112396 -0.1352361 -0.026210794 -0.13627954
0.17163278 -0.14601967 0.1619476 -0.032220747 0.06401275 0.15429331 -0.09144853 -0.076503485
0.075498916 -0.04836377 0.029669944 0.11142485 0.006876565 0.121429764 -0.08010873 0.0718206
0.014522084 -0.13896552 -0.021952063 0.06890727 -0.106480405 0.15027545 -0.095751554 0.09854674
0.017319161 -0.10470024 0.1292586 -0.04251147 -0.02180832 -0.053485457 -0.17615671 0.22013237
-0.08162105 0.10189454 0.08276357 0.09152345 0.07694327 0.059978385 -0.15513697 -0.012671263
-0.074478164 0.13401245 0.07279355 0.007290549 -0.16359495 -0.15864582 -0.15294105 0.12741055
0.106301665 -0.15582255 -0.15464531 0.1491774 0.06669782 -0.10860059 -0.022311645 0.11259785
0.10066155 -0.012097413 -0.07023272 -0.06006796 -0.0522508 -0.1055299 -0.12616313 0.1641469
0.02898913 0.058869362 -0.12889151 0.031827938 0.12624653 0.09487667 -0.00021998477 -0.077806056
0.1715587 -0.07603265 -0.053252194 0.006036051 -0.047773276 -0.009646445 -0.040852595 -0.10743735
0.004708924 0.07176345 -0.16682574 0.059583236 0.026779072 -0.1151481 0.13033347 0.11183954

encoder.blocks.0.mhsa.W_v.bias f4 [32]
00000000: eaea 1d3e 1d1b b03d 0c84 f6bd 893c 22bd
00000010: 7602 0e3e cded 5e3d fb23 273e c1b4 e8bc
00000020: 60f3 36bc a90d 023e 9121 32bc 2957 19be
00000030: 080d 38bd 0fbc e93d 66e5 913d 405c 17bd
00000040: 186d 2dbe 44ef 163e 200f 2ebd ca6a 44bd
00000050: dc1c 2a3e 6cb9 bf3d 236a 3e3d 5e58 513d
00000060: 5213 5e3b fc3c 7c3c 157e d8bd 26c0 913d
00000070: f01d c03d 92f1 ac3d ef06 babd c9aa 503c
0.15421644 0.085989214 -0.12036905 -0.039608512 0.13868126 0.054426003 0.16322319 -0.028406503
-0.011166424 0.12700523 -0.010872261 -0.14974655 -0.044934303 0.114128225 0.071238324 -0.03695321
-0.16936147 0.1473971 -0.042494893 -0.047953404 0.16612571 0.09361538 0.04648794 0.051109664
0.0033886028 0.015395399 -0.10570923 0.071167275 0.0938071 0.084445134 -0.09083354 0.012736031

encoder.blocks.0.mhsa.W_o.weight f4 [32, 32]
00000000: 4fc7 a5bc 0765 b3bd 6e92 a03d 127d 9f3d
00000010: b9ab fd3c 9263 85bd 10fa 203e 4bb2 f6bd
00000020: df75 b53d 8351 8dbc 2ace d03d 43a3 b43d
00000030: 13e4 38be ca7f 773d 7000 8bbc d48e f5bd
00000040: d029 013e 8705 1f3d 1441 bcbd 384e 04bd
00000050: f8b4 113e 27be 56bd abe0 dfbd 1f66 81bd
00000060: 6744 15bc 2aef 703d f669 e6bc be32 973d
00000070: 583e 25be 1c29 eb3c e31c 1e3e d19a 04bd
00000080: 780d 083e 8de3 6a3d ebdf 40be 5150 d0bd
00000090: 6835 133e e095 d0bc 50a8 2e3e f9d7 26be
000000a0: 3b29 c5bd d303 083e 56e7 143e 5e02 2cbe
000000b0: 33a8 5a3d 3c07 30be a5f7 0dbe bb50 9d3d
000000c0: 80ef aebd 5a47 82bc e4d5 64bd cbad 26be
000000d0: 128a 20be f19e 943d 539f bc3d 7269 eebc
000000e0: bb4d c93d c76a 0fbe e7df 27bd 2211 1dbe
000000f0: e74e 293e 83b5 e43c 2ae9 a23b 234b c0bd
00000100: 10bf 2ebe bd05 273e 8861 d13d 6386 2fbd
00000110: 2e5f 913c efd5 6b3d 647b 9cbd d20a 283e
00000120: 6d7f 213d d118 05bb 0846 083e 9e94 d8bd
00000130: 385a c33d 0c6e 87bd 7d27 11be e1c5 15bd
00000140: 4de2 72bd f2c0 1f3e bc34 88bb d423 0bbe
00000150: de38 0ebe bc50 b2bd 9318 41be 781b 34bb
00000160: cfde 0bbc 5846 2bbe 179a 393d df3e 24bd
00000170: 93fb 1dbd 0138 02be 004d e83d ae0e 07bd
00000180: f22a 243d bb08 8e3c 602f 5e3d 0d3a ab3d
00000190: ba4f a0bc 94f1 2bbd 25df 3dbb 2435 20be
000001a0: 490e 3e3d a371 9fbd bae7 e63d 2af1 323e
000001b0: 65f2 213d 6a91 61bd 64bc 37bd ef65 0c3e
000001c0: 38d3 efbc d5b7 b03d d9eb f2bd df73 10bd
000001d0: bd54 cc3d aaf3 103e c8ac 10bc 88d0 af3c
000001e0: 6bf0 a7bc db8e 96bd 82c4 253e 15e3 d3bd
000001f0: 509a 9fbd 145c 163e 1ccd 253e 9891 81bd
00000200: b127 41bd 2918 05be 4f88 be3d 92b4 0dbd
00000210: 48ae 95bd fb30 19be 6d46 58bd 8883 533d
00000220: 3fcf 16be b06f a83d 2d1d 58be 8d9b 3a3e
00000230: 2355 f6bd 0f34 243e 2f78 02bc c3bc c63d
00000240: a24c a7bc f843 b6bd d105 ecbc 1885 863d
00000250: 60f3 e43d 6dac 293e 3827 673c 4ecc 843d
00000260: f532 053e 9bf8 3cbd e8e2 a3bd d013 013d
00000270: a946 4dbd c1f5 0e3d 3110 a63d 033f cbbc
00000280: 147c 5ebd 7c76 293e a6d1 373d 5443 34be
00000290: 46c0 27be d1e6 ccbc 3e8e d2bd c80f 0a3e
000002a0: 1dee 083e 8cfb da3d feee e23d 90cc 143e
000002b0: ff24 113e cdec 333c 1c76 333e ee37 623d
000002c0: cf7a c03d 5fd0 a7bd f030 a23d c89a 14be
000002d0: 2e69 053c 4fd2 c7bd 7f7d 7e3c 68c1 983b
000002e0: c564 37bd fb25 363e 53b6 2bbe 632e 5dbe
000002f0: 446a 563c 45a1 06be 2793 06be 960a e3bd
00000300: 30dc 173e 5dbf e6bd 8430 2bbe 77de 013e
00000310: 4880 e9bd d3de acbc f879 dbbd fa8a 543d
00000320: 47eb 1c3e 9c82 e5bd d3fa 0ebe e69f b93d
00000330: 6767 dcbd b924 8c3d 54e8 f73d e94a 023e
00000340: 6082 9a3c 385e 383e 30d4 2fbd bcce d13d
00000350: 524d 35bd ee42 c2bd e297 813d d744 b63d
00000360: c6cf a53d 4cc6 053e bfb6 aabc ebf0 8e3d
00000370: 6ffb 033e 2a93 31be c55a 63bd 33e0 de3d
00000380: 717e 2abd f753 193e fad8 c93d 21df 93bd
00000390: d73a 113e 1b82 85bd a6e4 ed3d 4132 123e
000003a0: ea12 e33d 06f4 0e3e 775f bd3c bb6a 25be
000003b0: 343d 0b3e c414 913c 1db3 afbd 1508 79bc
000003c0: 3507 c5bd f21a 7d3d da7b 34be 3117 963d
000003d0: febd 31be 0233 a8bd 375b d23d 4d1a bebc
000003e0: 7b7d c03d d83f 0c3e e4ea 2dbd d6e3 9a3c
000003f0: 4a8b 0bbe d81e 3dbd e0af b43d 8a5f 5ebd
-0.02023664 -0.08759504 0.07840429 0.07787527 0.030965673 -0.06513132 0.15720391 -0.120457254
0.08860373 -0.017250782 0.10195573 0.08820202 -0.18055753 0.060424604 -0.016967982 -0.11990133
0.12613606 0.03882363 -0.091921 -0.032301158 0.1422919 -0.052427437 -0.10931524 -0.06318306
-0.009110547 0.058821835 -0.028126698 0.07382725 -0.16137064 0.028706126 0.15440707 -0.032374207
0.13286388 0.057345916 -0.18835418 -0.10171569 0.14375842 -0.025462091 0.17056394 -0.16293325
-0.09627005 0.13282709 0.14541373 -0.16797778 0.053383064 -0.1719026 -0.13864 0.07681414
-0.08541775 -0.015903164 -0.055868044 -0.16277234 -0.1567767 0.07256878 0.09210076 -0.029103015
0.09829279 -0.14005576 -0.040985014 -0.15338567 0.16534005 0.027918583 0.004971643 -0.09389331
-0.17065072 0.16310783 0.10223681 -0.04285277 0.01774558 0.05757707 -0.076407224 0.16410378
0.039428163 -0.0020308981 0.13307965 -0.105752215 0.09538692 -0.06612787 -0.1417522 -0.036565665
-0.05929785 0.15600947 -0.004156677 -0.13587886 -0.1388888 -0.08706805 -0.1885703 -0.0027482193
-0.008537008 -0.16726053 0.045312967 -0.04009902 -0.038569998 -0.12716676 0.113428116 -0.032972984
0.04008002 0.017338147 0.0542444 0.08360682 -0.019569267 -0.041978434 -0.0028972116 -0.15645272
0.046400342 -0.07785346 0.11274667 0.1747481 0.039537806 -0.05507032 -0.044857398 0.1371076
-0.029275522 0.08628813 -0.118613906 -0.035266753 0.099771 0.1415545 -0.008830257 0.02146174
-0.020500382 -0.07351466 0.16188243 -0.10346047 -0.07793105 0.14683563 0.16191524 -0.06326598
-0.047156993 -0.12997498 0.093033426 -0.034596033 -0.07308632 -0.14960091 -0.05280154 0.05163911
-0.14727496 0.08224428 -0.2110488 0.182234 -0.12027957 0.16035484 -0.007963224 0.09703972
-0.020422284 -0.08899683 -0.028811367 0.06568354 0.111792326 0.16569681 0.014108472 0.064842805
0.1300772 -0.046135526 -0.08002263 0.031513035 -0.050116215 0.034902338 0.08108557 -0.02481032
-0.05431755 0.16549104 0.04487767 -0.17603809 -0.1638194 -0.025012406 -0.10281037 0.13482583
0.13372083 0.1069251 0.110807404 0.1453116 0.14174269 0.010981751 0.17525524 0.05522912
0.09398424 -0.081940405 0.0791949 -0.1451217 0.008142753 -0.0975691 0.01553285 0.0046617277
-0.044773836 0.17787926 -0.1676877 -0.21599726 0.013086859 -0.13147457 -0.13142072 -0.110860035
0.14830089 -0.112669684 -0.16717726 0.1268252 -0.11401421 -0.021102345 -0.10716623 0.05189035
0.15324126 -0.112065524 -0.1396287 0.09063701 -0.1076191 0.06842942 0.1210486 0.12723888
0.018860996 0.18004692 -0.042926967 0.102445096 -0.04426319 -0.09485422 0.063277975 0.08899849
0.0809627 0.13063926 -0.020839093 0.06979545 0.12888883 -0.17341295 -0.055506486 0.10882606
-0.04162449 0.14973436 0.09855838 -0.07220293 0.14182602 -0.06518956 0.11615877 0.14276983
0.11087592 0.13960275 0.02311681 -0.16153996 0.13597566 0.017710097 -0.08579085 -0.015199681
-0.09620515 0.061793275 -0.1762537 0.07328642 -0.17357633 -0.08212854 0.10271304 -0.0232059
0.093989335 0.1369623 -0.042460337 0.018907469 -0.13627353 -0.046171993 0.08822608 -0.054290332

encoder.blocks.0.mhsa.W_o.bias f4 [32]
00000000: e0df 223e f2fa 2f3e 056e 693d 3ddc a0bd
00000010: 9189 af3d 418a a23d 0a8a f1bc 6ea3 13be
00000020: fe04 17be d390 173e b8c9 febd 7588 263e
00000030: 5bea 19be 949b aabd 15b5 26bc 49ac 1e3e
00000040: e1b1 f83c da93 f6bd 22fc 083e fa6a 3c3c
00000050: 35f1 f3bd 761b 2b3e e11b 183e 91ff babc
00000060: e400 873b c52c be3d 49ca b13c 921d 17bd
00000070: 9705 673d 4a47 1a3e 0319 cebc 09dc a13d
0.15905714 0.17185572 0.05698969 -0.07854507 0.085711606 0.07936526 -0.029484767 -0.14417812
-0.14747998 0.1480134 -0.124408185 0.16262992 -0.15030806 -0.083304554 -0.010175009 0.15495409
0.030358257 -0.12039919 0.13377431 0.011500115 -0.11911241 0.16709694 0.14854385 -0.022826942
0.004119979 0.09285883 0.021702902 -0.036893435 0.056401815 0.15066257 -0.02515841 0.079032965

encoder.blocks.0.norm2.weight f4 [32]
00000000: ae0d 843f b0ca 843f 47f9 843f 99a7 843f
00000010: 68b1 883f 750f 823f e9d5 823f 3d74 833f
00000020: 6019 7f3f bdb9 833f dce6 833f 06e2 7d3f
00000030: 95eb 813f 4fc6 833f 3553 813f 5153 843f
00000040: b749 873f 8814 813f 5830 7f3f b545 7d3f
00000050: f96d 833f 5b84 7f3f 2906 823f 40e9 7c3f
00000060: a65d 7f3f 72b6 823f 3b4b 823f 4c7e 813f
00000070: 54e6 823f 6b0d 7e3f 84a1 813f 521f 803f
1.0316675 1.0374355 1.0388573 1.0363647 1.067914 1.0160967 1.022153 1.0269848
0.99648094 1.0291058 1.0304828 0.9917301 1.0150019 1.0294894 1.0103518 1.0337926
1.0569371 1.0084391 0.9968314 0.9893449 1.0267936 0.99811333 1.015813 0.9879341
0.9975227 1.0211928 1.0179209 1.0116668 1.022654 0.99239224 1.0127416 1.0009558

encoder.blocks.0.norm2.bias f4 [32]
00000000: bdc3 803c d7f0 44bb 1571 cfb9 21a9 fa3b
00000010: 0941 33bc 8b68 c5ba 5ae3 e23a f61f 873c
00000020: 0dbd 223c a3ab cc3b 7d88 483b f91f 243b
00000030: 48b4 8bbb 96f0 aeba 9b20 b73b 1625 eaba
00000040: 2673 15bb b77c 89bb 9525 333c 7c57 90bc
00000050: 4284 523b 231d d8bb d227 713c 6aaf 62bc
00000060: c127 fa3b f93a 003c d733 103c 6fb4 5a39
00000070: c1df 39bb 29ff fdbb 7a0e 9abb 68d4 c8bb
0.015718335 -0.0030050778 -0.0003956637 0.0076495563 -0.010940799 -0.0015061063 0.0017310188 0.016494732
0.0099327685 0.0062460466 0.0030598931 0.0025043471 -0.0042634346 -0.0013346847 0.0055886037 -0.0017863836
-0.002280423 -0.0041957754 0.010934253 -0.01761984 0.0032122289 -0.0065952702 0.014718967 -0.013835767
0.0076341336 0.00782656 0.008801422 0.00020857317 -0.0028362127 -0.0077513647 -0.004701433 -0.0061288364
