Train0002/60e/weights_1passage.pth (torch, 976870 bytes, 176 tensors)

classifier.weight f4 [10, 784]
00000000: 0030 8cb9 b5f2 9c3c accc f0bc 9350 d7bc
00000010: ce5e 61bc 0ee9 1c3c 257f 39ba 11fa e73c
00000020: 37b6 4fbb 0ed6 1a3c 7cd6 30bc a509 e6bb
00000030: fcc0 0bbd ccc3 c1bc 9c35 71bc 0168 ad3a
00000040: dc53 673c ae8c af3c a158 c6bc d8ce 7ebc
00000050: ae88 543c a3f2 f23c 53d8 f0bb 45ef da3c
00000060: 6ea1 bcbb 5caa 773b 4f75 043d 76b4 07bd
00000070: 512f b8bc 4a23 14bc b316 64bc 2ec8 fc3c
00000080: 8ca3 bdbc 25ae 86bc fa66 ccbc 6801 09bd
00000090: 2ac9 aabc 6c7e fb3c fe8c 823c 25cd 8d3c
000000a0: 4a30 f63a 1eff 95bc 93fe c53b 1296 08bd
000000b0: fa66 d3bc 50d4 96bc 2c98 b83c 758a ab3c
000000c0: 05c1 81bc 25e8 a8ba 011e bb3c 6f6d 113d
000000d0: 983b 683c e518 9e3b 472a c43c 4a44 acbc
000000e0: 6513 da3b 0ed5 e2bc f7c6 cabc 3a23 97bc
000000f0: 7561 843c 4152 6b3c 314e adbc 9cc6 303c
00000100: 109d a03c dcb5 93bb b7bb b23a 9394 073c
00000110: 2581 b53c 7376 0c3d 6376 e1bc ea6f 56bc
00000120: 8af7 653c ee68 f23c 0a99 fe3c 8213 013d
00000130: 65e7 e83b 416a febc a550 573b c508 b7bc
00000140: e354 08bd 48f9 013d a575 de3c 92ec 11bd
00000150: 770b db3b 7725 c5bb 6595 c0bb 35ed 85bc
00000160: 3305 613c 854a adbc 2182 563c acf4 933c
00000170: 8e71 d13c 9cca 5a3c bdc8 10bd 4aca bdbc
00000180: d715 923c 41f1 f43b f53a e4bc e577 a8bc
00000190: 429e 093d ce23 c53c 1323 7fbc 8545 13bc
000001a0: fc59 0bbd 6e47 28ba d352 dcbc 4cad e1bc
000001b0: eef6 00bb 6eb6 af3b 3ca2 6fbc f79a ad3c
000001c0: 8a0a b2bc 3cbc 043d ca7f c83c 73b8 f6bc
000001d0: 05a2 11bc b739 d33a f7be aa3b e5c7 0a3c
000001e0: 6aa0 653c 5c33 0c3b 07c1 8ebc 0c71 8a3c
000001f0: 0d53 0cbd b768 adbc 8e7a 12bc f583 8ebc
00000200: d7b3 4cbc 43cc efbc 01f0 f8bb f827 fa3b
00000210: ac99 bebc b83b f0ba 0170 d13c 819c 70bb
00000220: 6e19 823a 25eb 49bb 13d8 ec3b 4a07 ba3c
00000230: 8f91 0a3d 9acc b93c bae2 0a3d 2546 29bb
00000240: 5f69 03bd 93b3 8abc a336 c73c 6ec3 72b9
00000250: ec6b 91bc 7133 e0bc dce6 08bd c5ee f6bc
00000260: 8160 edbb ac72 a03c 172d 9e3c 2615 0dbd
00000270: 3580 b63c 9ef0 e4bc 1369 f7bb 6a42 6dbc
00000280: 386a e1bb eec6 e5bb fd44 03bd 059e fcbc
00000290: 2e20 b7bb 4a26 f239 6ae8 84bc 416c 5c3c
000002a0: 6baa 03bd 6ef5 1dbb 82a5 003d d3ac 6ebc
000002b0: b218 043d 65e9 533c 6404 04bd f31b b93c
000002c0: 650b 87bb 1c9b 82bc aaf4 e93c f36c ecbc
000002d0: a527 7b3b 6e05 f5bb d1ed d03c e556 233c
000002e0: 0795 8c3c 01a6 4e3c 4ab6 0cbc 131e f6bb
000002f0: 4a1a f1bc 3387 9e3c 9a4b e83c 452f c83c
00000300: a15f cebc 4ac7 d03a 5c3e cebc 530e a1bc
00000310: a57b aabc 3cf8 473c e158 aebc 4a42 4cba
00000320: 4aed c43a 2a99 bc3c 1e29 ddbc 97da c8bc
00000330: 8ee2 a9bc d1c7 cc3c a156 52bc dcc7 f63c
00000340: 9397 533c 4a30 943b dc62 8bb9 0a58 e7bb
00000350: dcd4 923b 409d 05bc 2591 83b9 0052 953b
00000360: d3d9 e4bc 8c58 99bc d33f ec3c 756f edbc
00000370: 4a11 28bb 25b6 103d 1360 533c 9389 843a
00000380: 9a8b fdbc f5ee 903c 9c64 d0bc e519 26bc
00000390: 3353 44bc f74d adbb 93d0 cc39 ac50 f13c
000003a0: dc18 923b ee06 033d 37f8 b23c bef7 b8bc
000003b0: 3038 833c 4ed1 cebc 8eff 77bc 931a 2c3c
000003c0: a535 413c cc7e db3c e55d 3cbc b8cd 6f38
000003d0: 679f 963c c678 0dbd 0386 d33c 13ef f1bc
000003e0: 2509 013a dcf7 c6bb e716 9abc 8aad 9a3b
000003f0: ccee f13c 770c 2bbc acb2 adbc 9768 58bc
-0.00026738644 0.0191587 -0.02939447 -0.026283538 -0.013755513 0.009577049 -0.0007076136 0.028317483
-0.0031694302 0.009450449 -0.010793325 -0.0070201927 -0.03411959 -0.023652934 -0.014722254 0.0013229848
0.014119115 0.021429386 -0.024212183 -0.015552245 0.01297204 0.029656714 -0.0073500066 0.02672542
-0.0057565486 0.003779075 0.032338437 -0.033131085 -0.0224835 -0.009041617 -0.013921428 0.030857172
-0.023149274 -0.01644046 -0.024951447 -0.033448607 -0.020847876 0.030699931 0.015936371 0.017309735
0.0018782702 -0.018310126 0.0060423105 -0.033346243 -0.025805939 -0.018411785 0.022533499 0.020940045
-0.01583911 -0.0012886567 0.022841455 0.035504755 0.0141743645 0.004824745 0.02394594 -0.021028657
0.006655144 -0.027689483 -0.024753077 -0.018449415 0.016159752 0.014362873 -0.021155449 0.01078954
0.019606143 -0.0045077633 0.0013636266 0.008275169 0.022156307 0.03429265 -0.027522271 -0.013088206
0.014036069 0.02959105 0.031078834 0.031512745 0.0071076625 -0.031056525 0.0032854464 -0.022343049
-0.03328408 0.031731874 0.027155707 -0.035626 0.0066847163 -0.006016429 -0.005877184 -0.01634846
0.01373415 -0.021153698 0.013092549 0.018061005 0.025566842 0.01335397 -0.03534769 -0.023167748
0.01783268 0.007475049 -0.027860144 -0.020564983 0.033598192 0.024064925 -0.015572327 -0.008988743
-0.034021363 -0.0006419335 -0.026894962 -0.027548455 -0.0019678432 0.0053623235 -0.014626082 0.021192057
-0.021733541 0.032406077 0.024474997 -0.03011725 -0.008888726 0.0016115223 0.005210753 0.00847051
0.0140152965 0.0021392917 -0.017426027 0.016899608 -0.03425889 -0.021168096 -0.008940352 -0.017396906
-0.012494049 -0.029272204 -0.00759697 0.007634159 -0.023266636 -0.0018328344 0.025566103 -0.0036714377
0.0009925792 -0.0030810323 0.0072279065 0.022708554 0.03383022 0.02268057 0.03390763 -0.0025829163
-0.03208291 -0.01693133 0.024318045 -0.00023151722 -0.017751656 -0.02736828 -0.03342329 -0.030143151
-0.00724417 0.01958593 0.01930861 -0.034443997 0.02227793 -0.027946766 -0.0075503676 -0.014481166
-0.0068791173 -0.0070122397 -0.032048214 -0.030837068 -0.005588553 0.00046186364 -0.016224105 0.013453544
-0.032144945 -0.0024102586 0.03140784 -0.014567572 0.032250114 0.012934064 -0.03223075 0.022596335
-0.0041212314 -0.015943103 0.028559048 -0.028860545 0.003832319 -0.007477454 0.025504025 0.009969448
0.017160906 0.012612821 -0.008588383 -0.0075109093 -0.02943148 0.019351577 0.028356362 0.024436602
-0.025192084 0.0015928533 -0.02517622 -0.01966015 -0.020810911 0.01220518 -0.021282615 -0.000779186
0.0015024331 0.023022253 -0.026997145 -0.024518294 -0.020737913 0.024997624 -0.012838037 0.030124597
0.012914556 0.004522358 -0.00026585802 -0.0070600556 0.004480941 -0.008155167 -0.00025094408 0.0045568943
-0.027935898 -0.01871898 0.028839028 -0.02898381 -0.002564507 0.035329957 0.012901324 0.0010111801
-0.030950356 0.017692069 -0.0254386 -0.01013801 -0.011982727 -0.005288835 0.00039065312 0.029457413
0.00445853 0.03198903 0.021846874 -0.02257907 0.016018003 -0.025246289 -0.015136613 0.010504383
0.011792575 0.02679386 -0.011496996 5.717363e-05 0.018386556 -0.034539007 0.025820738 -0.029532945
0.0004922322 -0.0060720276 -0.018809749 0.0047203945 0.029532813 -0.010439984 -0.021203361 -0.01320853

classifier.bias f4 [10]
00000000: 20fd 15bc fa3d e33c 7c9e 34bc 6c4d 09bd
00000010: 612d e7bc dcc1 44bc 5d5c 0a3d f3e5 753c
00000020: 1544 fc3c a746 943c
-0.009154588 0.027739514 -0.011024114 -0.0335211 -0.02821988 -0.01200911 0.03377949 0.015008437
0.030794183 0.018100096

encoder.linear_mapper.weight f4 [32, 16]
00000000: e8b3 d7bb f4a5 19be 5481 56be 52e5 bebd
00000010: 5d12 d7bd 6154 593e 4b95 7ebd 51e3 e4bc
00000020: 9718 4b3d 6d33 4d3e a33d b1bc d872 103e
00000030: a293 2cbe dc22 6bbe 2343 cfbc 8e01 ea3d
00000040: f8fa 133e a611 a93d 87c5 3c3e 4333 e8bd
00000050: 86eb 873d e634 543e 1d21 fabd ba92 5b3e
00000060: 5a9a 43be e883 1d3e 3706 123e d35b 513e
00000070: 0ed3 8fbc 2db2 2b3c a6fb fdbd f3b0 693e
00000080: ffc9 003c 5273 5bbd c586 c33c 6431 133e
00000090: 0e16 c7bd e87a 29be 2474 53bd b7b3 983d
000000a0: 8f50 4f3d 7677 21bd eb7c 413d 42ba 7b3a
000000b0: 2722 573e 546b 02be a799 713e 4cb5 d13b
000000c0: f1f0 203e 32b6 dc3d 28f0 2fbe 9b53 333e
000000d0: c158 b6bd 7347 29be a315 e23d 22cf 5f3d
000000e0: 27b2 0cbe da4e 06be 9835 4b3e fa2b 7bbe
000000f0: 690c 723b 3e5f 40bc 8e97 52be 7f60 bd3d
00000100: 3d82 6bbe adc2 033b 92f6 88bd 55fa 073e
00000110: 9866 86bd 4990 72be d8a0 27bd ecf3 363e
00000120: 0beb 26be d5f9 433e 7455 ef3d 1a0c 0cbd
00000130: 2b7e 9fbc 7d8e 553e 3a32 a03c 2b89 783d
00000140: f0fc c13c 9ea2 c93c 0696 34be 6208 fbbd
00000150: 24d0 803e 6f03 243e de17 343d d7b9 853e
00000160: e3ad 68bd 9a38 023e aac9 d7bd 3f00 633e
00000170: f066 103e f6de b23d 2f95 8b3a 7e5f 383e
00000180: 5136 1a3e befa 193e 27c0 87bd 8ff8 613d
00000190: c5d2 29bd dad9 0abe 8136 773d 808c 793e
000001a0: 12a6 2e3e a352 36bd 2e92 1b3e 0d5b fabb
000001b0: acf6 663e 14c9 57be f8fa c43d 4dca 79be
000001c0: 0bbb 063e 1b93 2d3e 1db9 293e 98e4 7cbd
000001d0: fc25 7e3d a98c f93d d64b 35bd d928 8f3e
000001e0: b70b 4a3e 56e8 313e d0a3 76bd 0cea 4d3e
000001f0: 1b90 b9bd 6c55 2abe a922 98bd 8d3a 9ebc
00000200: a1f7 133e 38aa ce3d 7f7c d43d 87b4 5dbd
00000210: bf9f 653e c1e3 873e 95ea 40be 2c27 7d3e
00000220: ea28 a13d b6fd d03d 791c d13d aa60 213e
00000230: 6201 053c c41d 88bd 9ce3 c8bd 1e75 32be
00000240: af99 213d 884b f5bd dd94 1e3e 0030 3bbe
00000250: 8311 673e 9f6e 71be ac8b 4c3e 8ae0 3c3d
00000260: 5434 75be 0ec0 683d 911a 1ebe 2931 2bbe
00000270: e13d 1e3c 1666 8dbd ae57 913d 9013 5f3e
00000280: 333a 88be e100 4a3e 6bc4 37be a2da ebbd
00000290: 1f57 d23d ed0d 1cbe 246d 29be 9127 d1bd
000002a0: f858 313d e3ca 4dbd ad3b 433e 7119 b03d
000002b0: 7fed 8abe 2bcb 69be 3473 a9bc 703a 07bd
000002c0: 327c 8ebd 9e0b d53d 791c e73d 5f1b 15be
000002d0: c8ae 6abd 1234 823d f505 8c3d 449d eabc
000002e0: 6cf9 c63d cbd2 6f3d 8c85 81be d89d 7abe
000002f0: b177 9bbc 2728 803d 3bff 44be fbce 16be
00000300: 2b0d 86be ff22 113d e1da 433e 9b5a 8b3e
00000310: b65d 4cbe 92ad 343e e7ab c0bd 0ee0 5bbe
00000320: 6e9e 453e a323 473e 81ee 713c ad6a 82bd
00000330: 7fe4 db3d 7e79 1e3e cd40 423e 327f 95bd
00000340: ca1c 27bc f7b0 333d 5810 e13c d94a ac3d
00000350: 22e2 8f3d e082 9f3d ee14 233e 7232 98bd
00000360: 0a17 4b3e 39c8 7bbd 2d45 40be 81b4 333e
00000370: 9c29 3fbe aa3f 7bbe 111b 7bba 1aca 6d3e
00000380: 70d7 03be 54b3 c33d 8223 40be 154a 863d
00000390: 029a 133e f7a0 5fbd 7e2d 6cbe ac82 4abe
000003a0: 3120 45be 4829 d3bd 90d8 e5bd 73a3 013e
000003b0: 514c 133d 4f30 4abe a124 523d 711c 40be
000003c0: 4db9 643e 942c 8c3c 5f41 823e a4e3 6a3e
000003d0: 5eb0 1cbe da0c 1f3e 4726 6ebe 6d98 4abe
000003e0: 9ca8 f93d 4295 2abe eecd 5dbe 9b8a 51be
000003f0: b121 5dbe c6d9 88be f9d6 10bd 5e36 98be
-0.006582726 -0.15004712 -0.20947772 -0.09321083 -0.105015494 0.21223594 -0.062154096 -0.027940424
0.049583998 0.20039149 -0.021635836 0.1410631 -0.16853192 -0.22962517 -0.025300568 0.11426078
0.14451206 0.08255319 0.18434726 -0.113379024 0.066367194 0.20723304 -0.12213347 0.2144269
-0.19101849 0.1538235 0.14260183 0.20445184 -0.017556693 0.010479492 -0.12401514 0.22821407
0.00786066 -0.053576775 0.023867974 0.1437431 -0.097210035 -0.16550791 -0.051624432 0.07456153
0.050613936 -0.039420567 0.04723827 0.0009602645 0.21009122 -0.12736255 0.2359377 0.006399786
0.15716912 0.107769385 -0.17181456 0.17512362 -0.08903647 -0.16531162 0.11039283 0.054640897
-0.13739835 -0.13116017 0.19844663 -0.24528494 0.0036933667 -0.0117414575 -0.20565626 0.09246921
-0.229989 0.002010505 -0.066876546 0.13279088 -0.06562537 -0.23687853 -0.040924877 0.17866486
-0.163006 0.19138272 0.11686221 -0.03419123 -0.019469341 0.20855136 0.0195552 0.06067769
0.02368018 0.024613675 -0.17635354 -0.12257458 0.251588 0.16016935 0.043968074 0.26118347
-0.056806456 0.12716904 -0.10536511 0.22168063 0.14101768 0.08733933 0.0010649319 0.18005177
0.15059783 0.15037057 -0.06628447 0.055168685 -0.04146077 -0.13559666 0.060354713 0.24370003
0.17055538 -0.044512402 0.15192482 -0.0076402486 0.22555035 -0.21072799 0.09618181 -0.24393578
0.13157289 0.16950648 0.16574521 -0.06174144 0.062047943 0.12185032 -0.044261776 0.27960852
0.19731031 0.17373785 -0.060214818 0.20108813 -0.09060689 -0.16634148 -0.07428486 -0.019315029
0.14449932 0.100910604 0.10375308 -0.054127242 0.2242422 0.2654095 -0.18839486 0.24721974
0.07869132 0.102046415 0.10210509 0.1575953 0.0081180055 -0.06646302 -0.09809038 -0.17427489
0.039453205 -0.11977297 0.15486474 -0.1828003 0.22565274 -0.23577355 0.19975156 0.046112575
-0.23945743 0.056823783 -0.15439822 -0.16717972 0.009658308 -0.06904237 0.07096802 0.21784806
-0.26606902 0.19726898 -0.17946021 -0.1151631 0.10270523 -0.15239687 -0.1654554 -0.10212625
0.043297738 -0.050242316 0.19065733 0.085986026 -0.2713432 -0.22831409 -0.020684816 -0.033014715
-0.06957282 0.104026064 0.112847276 -0.14561222 -0.05729559 0.06357588 0.06837074 -0.028639443
0.09715542 0.058550637 -0.252972 -0.24474275 -0.018977972 0.062576585 -0.19237988 -0.14727394
-0.2618192 0.035433766 0.19126464 0.27217564 -0.19957623 0.17644337 -0.09407788 -0.21472189
0.19298717 0.19447188 0.014766336 -0.06368003 0.107369415 0.15476033 0.18970032 -0.07299651
-0.010199735 0.04386994 0.027473614 0.084127136 0.07025553 0.07788634 0.15925953 -0.07431497
0.19833007 -0.061470244 -0.18776388 0.17549326 -0.18668216 -0.24536005 -0.00095789233 0.23221627
-0.12875152 0.095556885 -0.18763545 0.06557099 0.14414218 -0.054596867 -0.23064229 -0.1977641
-0.19250561 -0.10310608 -0.11222947 0.12660007 0.035961453 -0.19744991 0.051304463 -0.1876085
0.22336312 0.0171111 0.254405 0.229384 -0.15301654 0.15532246 -0.23256789 -0.19784708
0.12190363 -0.166585 -0.21660587 -0.2046303 -0.21594884 -0.26728648 -0.035361264 -0.2972898

encoder.linear_mapper.bias f4 [32]
00000000: 6c53 62be 8e39 ce3d 08e9 49be a940 0d3d
00000010: e083 273e 4739 db3d 8b66 6c3e 7949 773e
00000020: 28ce 62be 6b8c 353c b8d3 923d 3516 4bbd
00000030: bc88 0cbe 5d1d 723e 326e 16be 43c2 6fbe
00000040: c0fa 69be 7905 0cbe ec2d 023d 18cf 103e
00000050: 9e34 4fbc 5c04 4ebe ad97 3e3e d83a 27bd
00000060: 8dec a0bd 4fcb 83bc d2a4 e23d 9352 01bd
00000070: 7cd3 c13d 9cc6 bb3d ba59 26be 7fa6 4b3e
-0.22102135 0.100695714 -0.197178 0.034485493 0.163589 0.10704284 0.23085992 0.24149121
-0.22148955 0.0110808415 0.071692884 -0.049581725 -0.13724035 0.23644014 -0.14690474 -0.23413949
-0.2284956 -0.13673963 0.031782076 0.141415 -0.012646822 -0.2011885 0.18612547 -0.040827602
-0.078576185 -0.016088156 0.11066593 -0.03157289 0.094641656 0.09168741 -0.16245165 0.19887732

encoder.blocks.0.norm1.weight f4 [32]
00000000: 96cc 823f fac6 803f c907 813f 3bab 843f
00000010: 1014 833f d189 803f 24ed 853f dac6 873f
00000020: 9f4c 7f3f 8d7e 803f ec3a 823f 74ba 803f
00000030: f093 7f3f 83fd 7f3f ee73 813f a5eb 813f
00000040: 43f8 803f e4b8 823f 42fa 7f3f 2527 813f
00000050: 130d 7e3f 67cc 813f de3b 803f 0e75 803f
00000060: f2e0 803f eaea 7f3f 09d8 803f 6ec6 823f
00000070: 6e22 813f 4f06 7f3f 80a1 813f eb0a 803f
1.0218685 1.0060723 1.0080501 1.0364755 1.0240498 1.0042058 1.0462995 1.060756
0.9972629 1.003862 1.0174232 1.0056901 0.9983511 0.99996203 1.0113504 1.0150038
1.0075763 1.0212674 0.9999124 1.0090071 0.992387 1.0140504 1.001827 1.0035722
1.0068648 0.99967825 1.0065929 1.0216806 1.0088632 0.99619 1.0127411 1.0003332

encoder.blocks.0.norm1.bias f4 [32]
00000000: cd4f 91bb ac37 0abc 00d9 c7bb 541d 11bc
00000010: 8255 123b 0e15 943a 7766 4dbc da0f 7dba
00000020: 9aaf cc3b 494c 15bb 5860 493b 1335 d1bb
00000030: c7f2 c7bb 45c9 28bb 05cb 1ebb 7d2f 94b7
00000040: 62a3 eeba 2f96 2e3c 3d43 5d3c 30fc 923b
00000050: 12b5 8c3b f776 3b3c 5825 42bb 5a20 0ebb
00000060: 2429 6bbb 1cc1 f0bb 6f4b feba 4c0d a13c
00000070: c082 29bc ba35 9abb 07cc 0cbc 44c4 003a
-0.004434562 -0.008436125 -0.0060988665 -0.00885709 0.0022328799 0.0011297779 -0.012536637 -0.0009653546
0.0062465193 -0.0022781065 0.0030727591 -0.006384501 -0.0061019394 -0.0025754732 -0.0024229896 -1.7665088e-05
-0.0018206651 0.010655924 0.0135048 0.0044856295 0.004294046 0.011441938 -0.002962431 -0.0021686764
-0.0035882676 -0.007347239 -0.0019401143 0.01965966 -0.010346115 -0.0047061117 -0.008593566 0.00049120584

encoder.blocks.0.mhsa.W_q.weight f4 [32, 32]
00000000: a68a d73d e40d 2c3a 555a e53d c814 30bd
00000010: 1a36 68bd 7c79 943d 6005 3abe eb43 46bd
00000020: 086a fabd fd62 68bc 777e 6bbd dcb6 39bd
00000030: 8c94 fbbc 91ca 073e 993c 823d 400b 36be
00000040: cdc0 01be b2d5 1dbc 54d1 803d 490d de3d
00000050: 3c97 2f3e 135e 04be 1c39 463e 7fd8 ea3d
00000060: 710e 04be 1a88 0ebe 6be9 19be 1ed1 123c
00000070: 323d fabc 2a81 35be d77a 5fbd 8c83 de3d
00000080: 02f3 30bc 52bb 15be a080 01be 822f 903d
00000090: 656e 973d c267 86bd 2bc2 83bd 15db 663d
000000a0: 9ca6 dfbd 4653 27be 9359 293e 0444 4b3d
000000b0: 8c81 ebbc 6b06 033d 0c1c 063e e7f8 21be
000000c0: 1702 4cbd 82bb 57bd 85f5 40be 3376 263e
000000d0: 9485 3abe 26fb 74bd 29b5 8e3d 551b 303e
000000e0: e4ae 77bd 0fc3 1f3e 5475 75bc 5745 1cbe
000000f0: 0d4d 33be 4350 93bd 45ac 31bc 302c 1e3e
00000100: bfc9 b1bd 3b65 8cbd 578b e53d 0e72 5ebd
00000110: bb58 8e3d 5118 68bc b805 2cbd 6308 04be
00000120: a8bd 233e e79d eebd 1381 2b3d f6be 073d
00000130: 1608 193d 2c78 473c cbb1 7bbd b40f 2abd
00000140: ee4f 083d f456 babc 8689 0a3c 9f40 e63d
00000150: dd0a 0a3d 2bbb 78bd 4474 21be a3d8 e1bc
00000160: a0f2 ee3c cb05 2b3d 5560 223e c490 0e3e
00000170: 5f9d d5bd cb91 1b3e 9057 01be 25cf 22bd
00000180: 3fea f33d 936a 21be 7fe5 7bbd 2471 2bbe
00000190: 9534 a13d 81fa e73d cea2 533e 4873 28bd
000001a0: d8db 17be 63c4 873d 794b bfbd 374f bdbd
000001b0: 89ca 0cbe 9f16 2a3e 2f7c 4bbd a506 5e3d
000001c0: 69d4 54bc 164b 573d 39a7 fcbd 6afb 4b3e
000001d0: a415 46be 7399 db3b 7c3c 16be b809 c0bd
000001e0: 0b28 813d 52de 1b3e 567e 953d 1163 983d
000001f0: 1985 bc3d 6719 fd3d 85e5 95bd 620b 4ebd
00000200: 9c81 193d 53f1 c73d 5e7e de3d 9bbb a5bc
00000210: 2ce3 223e 86e6 32be e905 903d 5486 613e
00000220: b9f9 d5bc e703 b93d b14c 2f3e c840 2abe
00000230: 7b6f 193e 851b b53d 7f0e c73d 585b e13d
00000240: 37c8 c43d 3aff 903d 0ab0 b73d b61a 1abe
00000250: 4d58 36be e67c db3d 5346 2c3e 2b3f 32bd
00000260: 1c28 033e 8cfd 20bc a3f1 b83d bc41 efba
00000270: e08f a73d c816 84bd 80ce 1dbe 2ba0 d53d
00000280: c1a5 b5bd 96b1 ec3d 0954 943c 0876 b4bd
00000290: 588c 2c3e 0f60 063e c040 99bd dbdc ed3d
000002a0: b49e 1a3d 8ca9 debd cb60 c53c e0d5 20be
000002b0: f089 c13c 760f 1abe 5614 193e 5273 c23d
000002c0: efca 053e 793e 2e3d 30e9 97bd 51e8 c63d
000002d0: 4641 a03d 042f d63d 1537 d9bc 0581 3c3e
000002e0: 13ca e5bd 2d1d 19be 81d0 223d 6dbe 293e
000002f0: 4c73 ac3c f5f4 40bd 01f3 22be 86f7 ff3d
00000300: a69e 3abe c848 a5bd 4820 af3d b0c1 d9bd
00000310: 43ee f3bd 565b bdbd 1577 da3d 008c 5fbd
00000320: 5200 19bd 7d92 5ebd 67be ce3d 9794 103e
00000330: 3984 e33c c457 5a3c 3d16 3abd a9e4 a33d
00000340: 5fa1 fa3d 112e 3d3d 535e e73d eed8 3bbd
00000350: d3a7 a4bc 627d 08be 5aa6 683d 0685 aabd
00000360: 45fb 2dbd 7a0f 2cbe ac57 843b d9fd 843d
00000370: 527c ce3d 84b6 d9bc 9a4e be3b 39a1 363e
00000380: 29ad 113d 0565 1e3e 6c58 493e 4d23 363e
00000390: 14db e33d 1102 083e ef7e 2a3e 9f92 adbd
000003a0: 3e99 153e 60db 55bd 6a9a 90bd de18 c63d
000003b0: 8e84 24be bd00 b6bd 86d0 293d 42c2 873c
000003c0: 43c9 d03c dcf1 23bd 6c8e 3c3d a37f 1a3e
000003d0: f30d 40bd e7b6 933d fb95 813d badc bd3d
000003e0: 71c4 253e f981 0abd dafe 51bc 8c35 b7bd
000003f0: 6625 16bd d7b8 c0bd 971e f9bc 8a50 a53d
0.10524492 0.0006563349 0.1119887 -0.04298857 -0.05669222 0.07249734 -0.18166113 -0.048404615
-0.12227255 -0.014183757 -0.057493653 -0.045340404 -0.030710481 0.13260867 0.06359214 -0.17777729
-0.12671204 -0.009633468 0.06289926 0.10842378 0.17147535 -0.12926511 0.19357723 0.114670746
-0.12896134 -0.13919106 -0.15030448 0.00896099 -0.030546758 -0.17725053 -0.05456051 0.10864934
-0.010800125 -0.14622238 -0.12646723 0.070403114 0.07394103 -0.06562759 -0.06433519 0.056361277
-0.1092045 -0.1634036 0.16538076 0.04962541 -0.028748296 0.031988543 0.13096637 -0.15817605
-0.04980668 -0.052669056 -0.18843658 0.16256027 -0.18215019 -0.059809826 0.06968147 0.17197926
-0.060469523 0.15601753 -0.0149815865 -0.15260826 -0.17509861 -0.07193043 -0.010844295 0.15446544
-0.08681058 -0.06855246 0.112082176 -0.05430799 0.06950518 -0.014165954 -0.04199764 -0.12893824
0.15990317 -0.11651211 0.04187114 0.0331411 0.037361227 0.012174647 -0.061448853 -0.041518882
0.033279352 -0.02274654 0.00845564 0.11242794 0.033701766 -0.060725372 -0.15767008 -0.02756912
0.029168427 0.04175357 0.1585706 0.13922411 -0.10430407 0.15192334 -0.12631059 -0.03974833
0.11909913 -0.15763311 -0.06149816 -0.16742378 0.07871357 0.11327077 0.20667574 -0.041125566
-0.14829957 0.06629255 -0.09340567 -0.09243625 -0.13749136 0.16610192 -0.049678978 0.054205555
-0.012990096 0.052561842 -0.12336583 0.19920126 -0.19344193 0.006701642 -0.1467151 -0.09376854
0.06306466 0.15221527 0.07299487 0.074407704 0.09205074 0.12358361 -0.07319168 -0.050303824
0.03747712 0.09762826 0.108639464 -0.020231059 0.15906972 -0.1747075 0.07032377 0.22023898
-0.026120054 0.090339474 0.17119099 -0.16626275 0.14983933 0.088431396 0.09719562 0.110037506
0.096085005 0.070799306 0.08969124 -0.15049252 -0.17807122 0.10717182 0.16823702 -0.043517273
0.1280827 -0.009826075 0.090304635 -0.0018253843 0.08181739 -0.06449658 -0.15410805 0.1043094
-0.08869506 0.11557309 0.018106477 -0.08811575 0.16850412 0.13122581 -0.07483053 0.116143905
0.037749007 -0.10872182 0.024094006 -0.15706587 0.023625344 -0.1504496 0.14949164 0.09494652
0.13065694 0.042540047 -0.07417524 0.097122796 0.0782495 0.10458186 -0.026515523 0.18408592
-0.11220183 -0.14952536 0.039749626 0.16576548 0.021051072 -0.04710861 -0.15913011 0.12498383
-0.18224582 -0.080705225 0.08551079 -0.10632646 -0.11910679 -0.092459366 0.10667244 -0.054576874
-0.03735382 -0.05433892 0.1009491 0.14119183 0.02777301 0.013326589 -0.045431364 0.08002598
0.1223781 0.04618651 0.11297288 -0.045861177 -0.020099556 -0.1332908 0.05679927 -0.083261535
-0.042475957 -0.16802779 0.0040387716 0.0649373 0.10082306 -0.026576288 0.00580771 0.17834939
0.03556553 0.15468223 0.19662637 0.17786904 0.1112577 0.13282038 0.16649984 -0.084752314
0.14609239 -0.052211165 -0.07060702 0.09672712 -0.1606619 -0.088868596 0.04145863 0.016572122
0.025486594 -0.040025577 0.04603426 0.15087752 -0.046888303 0.0721262 0.06327435 0.09270616
0.16188218 -0.033815358 -0.012817109 -0.0894576 -0.03665676 -0.094102554 -0.030410094 0.08072002

encoder.blocks.0.mhsa.W_q.bias f4 [32]
00000000: fe22 00be f2bf d2bc eadf cc3d 3bcc 053e
00000010: d84b 103e 0bfa b1bd 5ed4 7abd 3bed 9a3d
00000020: b152 423d c67b 2dbd 47e1 93bd cdf3 e5bc
00000030: 7bf6 133e f48c 97bd 645a babb 17e0 a93d
00000040: a341 07be 5924 03be 6055 0cbb 8bec 1abd
00000050: aab8 463e 81fc ae3c 2ee7 a93d b788 c03c
00000060: ea22 733d d2e2 7f3e 7ced 7abd f8d8 1dbe
00000070: ecd3 41bd efb3 133d b6f6 a1bd 570a 7a3d
-0.12513348 -0.025726292 0.10003646 0.13066189 0.14091432 -0.0869027 -0.061237685 0.07564779
0.047442142 -0.042354368 -0.072207026 -0.028070355 0.14449494 -0.073999316 -0.005687045 0.08294695
-0.13208632 -0.12806834 -0.0021413192 -0.03782324 0.19406381 0.021360638 0.08296047 0.02350269
0.05935947 0.24988869 -0.06126164 -0.15414798 -0.047321245 0.03606027 -0.079083845 0.061045017

encoder.blocks.0.mhsa.W_k.weight f4 [32, 32]
00000000: 364f bfbd b0ff 833d 4914 15be d2a4 85ba
00000010: f9e8 a33d 4280 423d c387 89bd 5d3c c7bd
00000020: acc0 3d3d c1e4 dbbd e7bd 2bbe f3ee 4cbc
00000030: 0c90 18be 27b6 dc3c 1396 f1bd e1d8 eb3d
00000040: b598 eb3d 8b15 f23d 97ce c7bd 1de3 223d
00000050: df83 253e 741e f1bb b9db 693d 053a 353e
00000060: f3fc 183a 540a 8abd 1e31 4c3d dcad 563d
00000070: c148 35be c0e7 0abe 149b 10be b1da efbd
00000080: eb37 0a3e 359e f03d 1601 17be 6afa 2fbe
00000090: f691 19be fbcc 983d ed49 033e 3e3e 88bc
000000a0: 97cf 89bd 8191 17be cacb 103d 37a9 e23d
000000b0: 9301 ab3d e37a 49bd 46da 82bd d0b0 003e
000000c0: 3f71 5a3d 0115 323e d839 d9bc 9ba6 b13d
000000d0: ddfe 183e 345a 0f3d 270d 8cbc 8583 513d
000000e0: ca2b e13c a54f 363e ee96 b93d a14e 603d
000000f0: ed13 1cbe 8f76 753e 56ee b8bd 21d2 70bd
00000100: ba9a 953d 4daa 0e3d 4e1d aebd 43d1 cdbb
00000110: 1518 12be 47f1 bdbd 9c44 70bd 6ae4 043c
00000120: e3c8 55bd e75e c83d f45e 4a3d 2f47 ddbd
00000130: 2604 4b3d 0e6e 11bd b548 0d3e 57f0 d53d
00000140: 7a09 f43d 755b 543e f252 ef3d 757d 0a3b
00000150: 9e90 2b3e 9738 823d 27ef aa3d 8860 16be
00000160: da54 01be 780f e2bd ee85 29be 95b2 09bd
00000170: 005b 13be a6bc 973e 008e 3fbe f068 c63d
00000180: af3a 6b3d 839d fdbd 2a3b f23d e8f2 4f3d
00000190: 3951 02bd 6339 103e ccee 32be 9792 163e
000001a0: b931 c1bc fed0 83bc 2052 043e 3209 9dbd
000001b0: 72ed 583c 892d 183e 06d1 a73d a17a 3b3e
000001c0: b51e 163e cdcc a0bd 9073 a3bd cf3f d73d
000001d0: fe65 2cbd d1d9 723d 780a ba3d 6f88 73be
000001e0: f7b7 bc3b d784 313e 428e 62bc 0e7c 21be
000001f0: 5147 04be 4d20 3f3e c59f 8dbd 5c45 33be
00000200: 5270 2b3e ecf7 04be cd3f e8bd 6e04 113e
00000210: 4485 3b3e 7c92 873d e010 2f3e 2d2f 223c
00000220: fff6 eb3d ce85 b6bd 314b 21be 65ba ad3c
00000230: c94c 13be f6f2 eabb 87be 74bc 8fbc f33d
00000240: 75f1 6fbd 18b4 32bd bb23 81be abce f5bd
00000250: f119 8e3d 2904 003e 98c7 163e 69c3 07bb
00000260: e667 42bd 0d44 d13d 3de3 603d 1fab bf3c
00000270: c8ff 9c3c ed16 02bd 34ec f1bc f399 47be
00000280: e252 00bd ddb8 34be f38e 303c c05f 143b
00000290: 4c39 433d 089e eabd a038 013d 3c15 4abd
000002a0: 6627 cabd 9544 183e 1e14 2dbe f51f 0d3e
000002b0: bd77 9ebd c9f6 a8bd a146 31be 8f81 d2bd
000002c0: 66b2 79bd 9d18 4c3e 3c58 81bb b473 f2bd
000002d0: d2c5 c63d deb7 e93d 4eae d33d a476 393e
000002e0: ebe8 0e3e 5afd 253d 3333 173e 3b6e 12be
000002f0: 027a 38bd fb77 b1bd 4638 56bd 9ad5 25be
00000300: 850b b63d ff1a 97bd c0c1 163d 4d01 253e
00000310: b8cb 463d c8c4 28bd 73b7 433e 085c 1ebe
00000320: 4c2a 433e 2900 e4bd c6a7 2a3e af24 573d
00000330: a505 1ebe 30dd a2bc 2250 cdbd 67ab 3f3e
00000340: afd9 8b3d b306 583e 168d 4d3d a65f 203e
00000350: 244a 26be de80 713d eacf 9b3d 7199 233d
00000360: ca29 0c3e 4f0a 183d 6ab4 b53d d1b6 a6bd
00000370: 8f36 e0bd 9559 e2bd bdba 0b3d a8f8 a5bc
00000380: 2af6 05be f052 ab3d a94d 3c3b c7af ecbd
00000390: 95fe 283e de41 d93d dcb7 af3d 7429 04bd
000003a0: 8bc8 d1bd dc73 30be bb9e 803c d1e1 0fbe
000003b0: 786e 203e 5b65 32be 1f7d 0abe 7c62 b9bd
000003c0: 9974 833d f070 1dbe f504 3b3d c8e7 d5bd
000003d0: 7ca5 d23b db40 b43d 3408 5abe a4d8 25bd
000003e0: 427d 99bd e12a 40bd cf41 e03d c2fd e7bd
000003f0: d265 ca3d 4263 8c3d 066b e93d 16ce ac3b
-0.0934128 0.06445253 -0.1455852 -0.0010196215 0.080034204 0.047485597 -0.067153476 -0.0972831
0.046326324 -0.10736991 -0.16771661 -0.012508142 -0.148987 0.026942326 -0.117962025 0.11515976
0.11503736 0.11820515 -0.09756201 0.039767373 0.16163586 -0.0073583666 0.05709431 0.17697914
0.0005836032 -0.06740251 0.04985153 0.0524119 -0.17703535 -0.13564968 -0.14121658 -0.11711634
0.13497894 0.117489256 -0.14746508 -0.17185369 -0.14997086 0.07460972 0.12821169 -0.016631242
-0.06729048 -0.14801599 0.0353506 0.110674314 0.0834991 -0.04918946 -0.063892886 0.12567449
0.053330656 0.17390825 -0.02651684 0.086743556 0.14940973 0.034998134 -0.017096115 0.051150817
0.0274867 0.1780382 0.09061991 0.054762486 -0.15241976 0.23971008 -0.09029834 -0.058794145
0.073049024 0.03483038 -0.08501683 -0.0062810495 -0.14266999 -0.092745356 -0.05865918 0.008111099
-0.052193534 0.09783726 0.04940696 -0.10804593 0.049564503 -0.035505347 0.13797267 0.10446232
0.1191587 0.20738013 0.116857424 0.0021131907 0.16754386 0.0635845 0.08346396 -0.14685261
-0.12630025 -0.11038107 -0.16554996 -0.033617575 -0.14390182 0.29636115 -0.18706512 0.09687984
0.057429012 -0.123835586 0.11827691 0.050768763 -0.03181574 0.14084391 -0.17473906 0.14704357
-0.02358328 -0.016090866 0.12921953 -0.076677695 0.013240205 0.1486112 0.08194165 0.18308498
0.14660151 -0.07851563 -0.07981026 0.105102174 -0.042089455 0.059289757 0.09084028 -0.23782514
0.005759235 0.1733583 -0.013827862 -0.1576998 -0.1291783 0.18664666 -0.06915239 -0.17506927
0.16742066 -0.129852 -0.11340294 0.14161846 0.18312556 0.066197366 0.17096281 0.009898943
0.1152172 -0.0891224 -0.1575134 0.021207044 -0.1438476 -0.0071700765 -0.014938003 0.11901199
-0.05857988 -0.043628782 -0.25222573 -0.120023094 0.06938542 0.12501587 0.14724576 -0.0020715839
-0.047462367 0.10218058 0.05490421 0.023397027 0.019164935 -0.031760145 -0.029531576 -0.1949232
-0.031329043 -0.17648645 0.010776269 0.002264008 0.047662064 -0.11455923 0.031548142 -0.049336657
-0.09870796 0.14869912 -0.16902205 0.13781722 -0.07737682 -0.082501955 -0.17312099 -0.102786176
-0.06096115 0.19931264 -0.003947286 -0.11838475 0.097057 0.11412023 0.1033598 0.18111664
0.13956039 0.040524818 0.14765625 -0.14299862 -0.04503823 -0.086654626 -0.05229976 -0.16194764
0.08888916 -0.07378196 0.03680587 0.16113777 0.048534125 -0.04120329 0.19112949 -0.15464795
0.19059104 -0.11132843 0.16665563 0.05252522 -0.1543184 -0.019880861 -0.1002505 0.18717729
0.06828629 0.21096306 0.05018338 0.15661487 -0.1623922 0.058960788 0.07608016 0.039941255
0.13687816 0.037119206 0.08872302 -0.08140338 -0.10947906 -0.11052243 0.034113634 -0.02026017
-0.13082185 0.083654284 0.0028732812 -0.11556964 0.16503365 0.10608266 0.0857999 -0.032266095
-0.10243329 -0.17231697 0.015700689 -0.14050986 0.1566714 -0.17421477 -0.13524292 -0.090519875
0.064187236 -0.15375113 0.045659024 -0.104445994 0.0064284187 0.08801433 -0.21292192 -0.040489808
-0.07494594 -0.046915893 0.10950052 -0.11327697 0.09882702 0.068548694 0.11397366 0.005273591

encoder.blocks.0.mhsa.W_k.bias f4 [32]
00000000: 2e55 bd3c c474 c4bc 97cb 2abe 79ea 2c3d
00000010: e762 d5bd bd03 053e 9dca a9bd e9d8 07bd
00000020: 26bb 0cbe 7560 263e 3270 d33d 942d 1e3e
00000030: df4c d43d 45ed dfbd d015 2b3e 66bf c2bc
00000040: edc6 253e e98a d13c 62f2 e43d 3473 8cbd
00000050: 2dbf 8d3d f9bd 7cba 6046 10be df5f 0b3e
00000060: e4ad c9bd f82a f4bd 2149 113e 878f 27be
00000070: d884 7b3d dd65 133e 838b ecbc a153 2dbe
0.023111906 -0.02398146 -0.16679226 0.042215798 -0.10419255 0.12989707 -0.082905985 -0.033165846
-0.13743266 0.16247733 0.10324134 0.15447074 0.103662245 -0.109339274 0.1670754 -0.023772907
0.16189165 0.025578933 0.11179043 -0.06857911 0.069212295 -0.0009641345 -0.14089346 0.1361079
-0.0984762 -0.11922258 0.14188053 -0.16363345 0.061405987 0.14394327 -0.028875118 -0.16926433

encoder.blocks.0.mhsa.W_v.weight f4 [32, 32]
00000000: 2789 11be ea77 12bc 3828 d3bc f8ce 043e
00000010: 4a40 153e c7b3 fdbd 386f 65bd cc2c 0cbe
00000020: 22da 2a3d be5d 073e 918c 85bd 6298 083c
00000030: 88f7 94bc d3ec 1ebe bdab 343e e71f 243d
00000040: 62c8 2c3e 8cc3 20be 3842 4fbd 74ec 49bd
00000050: 1752 7e3d 60f8 3ebd 6cab cfbd d882 123e
00000060: 81ea 103e 40e9 313e a638 e43d d0c5 e93d
00000070: 522f f1bd 28ff 313c d447 59bd c04b 98bc
00000080: e92d 4d3c a80d 463d 455a ddbd 4c07 13bd
00000090: 3f20 b1bd 0955 b2bc d7d6 dbbd 96e7 91bd
000000a0: 3010 fcbd c3dc 02be 384e 05bc 946d 20be
000000b0: 7749 2bbe 3fee 023e 9614 0bbe db59 ea3d
000000c0: 047b 3d3c 98d9 bdbc 6f88 0f3e 9af9 0abe
000000d0: 89cd a33d e3b7 f63d d966 0a3e 423e 27be
000000e0: c7ca 5b3b f758 abbc 0cc6 07be b426 fb3d
000000f0: 741c fcbc 5b2a fc3d ffb4 c3bd 0c38 9abd
00000100: 23dd 833d 60c1 5f3c ec9d cb3d bc05 953d
00000110: c45a 053e 7ac7 09be d563 5d3d cc03 033e
00000120: db5a b6bd 5d9d e8bd 765f 383e 9c3e 1cbe
00000130: 93a5 0bbe dba6 16be aa5b 523d cef5 5e3d
00000140: db23 25be 3f57 ec3d db18 213d 7875 823d
00000150: 9a31 34be a34b 22be 8e83 17be 18da 8bbd
00000160: 424b 22be 0bce c43d 2b8f c3bc 25a4 88bd
00000170: f596 173e 925b dc3c 1d74 853c fcef c7bd
00000180: 5d16 59bd 3fa1 25be 13b9 e5bd b12c 313e
00000190: 9cef f4bd 5f64 bf3d ca6e 023e 8f09 073e
000001a0: f1c2 0f3e 18dc 173e 13b9 c83d a560 5fbc
000001b0: 23e5 3dbd e56a 29be 5388 bd3d 0347 19bd
000001c0: 4b75 d13c fce9 13bd cc15 e63d e2e7 113c
000001d0: f7fa fb3d be93 0a3e 9372 533d de08 23bc
000001e0: 145d a13d 1f50 cdbd 1452 fc3d 6f20 0f3e
000001f0: 0761 893c 6a20 6ebc 9665 223d 436f 223e
00000200: 3790 243d e95f b0bd 1b8a 2bbd 6e7a 39be
00000210: cfb9 6039 4526 1ebe 6123 403d 03aa 593d
00000220: 44af 293e 265d 6cbd c329 eebb 4ddf 08bc
00000230: ede2 4cbd 8625 75bd cccd a8bd 8d0c a8bd
00000240: 4879 a33c 7215 8c3d 520f 253d e68d 133e
00000250: b6a1 ddbc 9e9a 603d 9d81 1bbe fc77 e83d
00000260: 1c4e 103e eb83 8a3d 4ede eebd 0eec 8fbb
00000270: f286 17be 3c3b 21be 54dd 083e d4da b03d
00000280: b1f9 063e bc4f fe3d 0ed0 debc 83ae a33d
00000290: c665 a3bd 1860 09be 76e8 f5bc 6dd6 12be
000002a0: 222f 2e3e 6b56 15be 373a 273e a98d 03bd
000002b0: 0e87 723d 61fc 1c3e c384 b6bd ed59 9cbd
000002c0: 591e 9a3d c080 44bd acb3 f43c 9ef1 e33d
000002d0: 3f18 fe3b cdc7 f63d f475 a1bd 5702 923d
000002e0: 38b1 7b3c 5511 0ebe 4b70 b2bc ac17 8d3d
000002f0: 5e36 d8bd 743e 193e 1557 c4bd e33c c83d
00000300: 013a 8b3c 38fb d9bd fad1 033e 5dca 32bd
00000310: cdf2 bbbc 44ab 61bd 4bad 2ebe 8a50 4f3e
00000320: 9012 a7bd 40d0 d23d 5c52 ac3d 5175 bc3d
00000330: 6088 8d3d ba15 7a3d fdc4 1fbe d6cb 48bc
00000340: 7f52 9abd ab97 0a3e 8021 913d 17f7 f83b
00000350: 0a67 28be 8180 22be 1ed1 1cbe 17a6 023e
00000360: fd72 d83d dd8c 1ebe 5fe5 1ebe 3586 193e
00000370: caa6 883d 1337 ddbd 55c4 bbbc 905c e73d
00000380: 8fad ca3d 6a33 26bc 80fd 91bd 642e 6fbd
00000390: fc83 5fbd 8078 e0bd 6d72 f9bd 1a9b 263e
000003a0: 527a f03c e318 743d 32f7 03be ca98 083d
000003b0: 87e0 033e 7bdc c23d 4e08 52ba 64fe 9ebd
000003c0: a909 303e 4066 9bbd 9447 59bd 3951 c63b
000003d0: 4acd 44bd e77f 1cbc 68aa 23bd 6f6a dbbd
000003e0: 308c 993b ab84 933d a2aa 2bbe 7de9 723d
000003f0: c67f d73c 2ef8 ebbd cf36 053e 988c e53d
-0.14212476 -0.008939723 -0.025776014 0.12969577 0.14575306 -0.123878054 -0.05601427 -0.13688964
0.041711934 0.13219354 -0.065209515 0.008337112 -0.018184438 -0.15520029 0.17643638 0.040069487
0.16873315 -0.15699595 -0.05060026 -0.049297765 0.062090006 -0.046623588 -0.10140118 0.14307725
0.14151956 0.17374134 0.11143617 0.11414683 -0.11776604 0.010864057 -0.053047016 -0.018590808
0.012523153 0.048352867 -0.10808233 -0.03589563 -0.086487286 -0.021769064 -0.10734337 -0.0712425
-0.12307775 -0.12779526 -0.008136325 -0.156668 -0.16727243 0.12786196 -0.13582072 0.1144292
0.011564974 -0.023175046 0.14016889 -0.13571778 0.07998187 0.12046792 0.13515796 -0.16332343
0.0033537613 -0.020916445 -0.13259143 0.122632414 -0.030775286 0.12312766 -0.09556007 -0.07530221
0.06438663 0.013656944 0.099422306 0.07276484 0.13022906 -0.13455 0.054050285 0.12794417
-0.08904048 -0.1135814 0.18005165 -0.15258259 -0.1363738 -0.14712088 0.05135695 0.054433636
-0.16126959 0.11540078 0.039330345 0.06370062 -0.17597046 -0.15849166 -0.14796278 -0.068287075
-0.15849021 0.09609612 -0.023871979 -0.06671933 0.1480368 0.026899133 0.016290719 -0.0976257
-0.052999843 -0.16174792 -0.11216941 0.17302205 -0.11959764 0.09345316 0.12737575 0.1318724
0.14039208 0.14830053 0.09800925 -0.013633882 -0.0463611 -0.16544683 0.092545174 -0.037421238
0.025568625 -0.036111817 0.11234626 0.008905383 0.12303727 0.13532922 0.05162294 -0.009950845
0.07879081 -0.100250475 0.12320343 0.13977216 0.016769899 -0.014534095 0.03964766 0.15862755
0.040176596 -0.086120434 -0.041879755 -0.1811311 0.00021431524 -0.15444286 0.04690874 0.05314065
0.16570765 -0.05770602 -0.007268162 -0.00835402 -0.0500211 -0.05985024 -0.08242378 -0.08205519
0.019955292 0.06840028 0.040297814 0.14409599 -0.027054649 0.054834954 -0.15186162 0.1135101
0.14092296 0.067634426 -0.11663495 -0.0043921536 -0.14797571 -0.15745252 0.1336568 0.08635488
0.13181187 0.12417552 -0.027198818 0.0799227 -0.07978396 -0.13415563 -0.030018073 -0.1433961
0.17010167 -0.14583747 0.16330801 -0.03211752 0.05921083 0.1533065 -0.08912041 -0.076343395
0.075253196 -0.047974348 0.02987083 0.11130069 0.007754355 0.12049828 -0.07883826 0.071293525
0.015362076 -0.13873799 -0.021782061 0.06889281 -0.10557245 0.1496523 -0.09586922 0.09777238
0.016995432 -0.10643619 0.12873068 -0.04365002 -0.022942925 -0.055094972 -0.17058294 0.20245567
-0.081578374 0.10293627 0.08414146 0.09202064 0.06910777 0.061055876 -0.15602489 -0.0122556295
-0.07535266 0.13534419 0.07086468 0.007597815 -0.16445556 -0.15869333 -0.15314147 0.12758671
0.10568807 -0.15483423 -0.15517186 0.14992602 0.066724375 -0.1080152 -0.022920767 0.11296952
0.09896385 -0.010144094 -0.071284294 -0.05839385 -0.05456923 -0.109604836 -0.12180028 0.16270104
0.029355202 0.059594046 -0.12887266 0.033348836 0.12878619 0.095147096 -0.0008012102 -0.07763365
0.17191185 -0.07587862 -0.053046778 0.006052163 -0.04804734 -0.009551979 -0.039957434 -0.1071366
0.004685901 0.07203039 -0.1676431 0.059304703 0.026306044 -0.11521946 0.13009189 0.11208457

encoder.blocks.0.mhsa.W_v.bias f4 [32]
00000000: 5780 1b3e 90ca af3d 7d55 f6bd 7b54 23bd
00000010: 1993 0d3e 418b 5c3d 1ac4 273e b1c2 e7bc
00000020: 8c6a 65bc 0fed 023e 517a 20bc 0ab3 19be
00000030: 9c1b 3bbd 8dc1 f33d f2e5 933d 0bff 17bd
00000040: 28cc 2dbe 698c 133e ddfe 29bd bd52 44bd
00000050: 58bf 283e 7eb0 be3d 0054 3f3d 97da 533d
00000060: 5089 353b b457 643c 72cd d0bd 26a5 8f3d
00000070: 2158 c03d facf af3d 9f12 babd cb32 383c
0.15185677 0.085835576 -0.12028024 -0.03987549 0.13825645 0.05384374 0.163834 -0.028291078
-0.014002454 0.12785743 -0.0097947875 -0.15009704 -0.045680627 0.11902151 0.07221593 -0.037108462
-0.1697241 0.14409031 -0.041502822 -0.047930468 0.16479242 0.09311007 0.046710968 0.051722135
0.0027700253 0.013936926 -0.101954356 0.070139214 0.09391809 0.0858459 -0.09085583 0.011242579

encoder.blocks.0.mhsa.W_o.weight f4 [32, 32]
00000000: 0495 aebc e51d b8bd 206b 983d f455 ab3d
00000010: 8172 ed3c 8144 8abd f542 1e3e 6e40 e3bd
00000020: ec4f a73d e940 48bc d318 d93d 99f2 a03d
00000030: 2605 36be 992f 643d 39af c7bc 8ea0 f8bd
00000040: d50a 013e ce1a e13c e44f 9cbd 355a d1bc
00000050: 6dbe 0c3e a249 5ebd c929 dcbd e7cb 85bd
00000060: 9bb6 11bc 4083 4f3d f7a0 b4bc ec16 bb3d
00000070: 6745 21be 16a5 e93c b058 253e 36f1 f6bc
00000080: 3253 073e 3da4 693d de11 40be 31af d0bd
00000090: 55ff 123e f73b d2bc ea47 2f3e 8624 2abe
000000a0: 3b3d c0bd 8fd9 063e 69f7 173e 0351 2bbe
000000b0: 8420 5c3d ced4 30be c8b7 0fbe 0ad0 a63d
000000c0: a4ec adbd 2ebf 87bc b597 7cbd 2ec3 27be
000000d0: f135 22be da8e 973d c9b3 c13d 079b 0abd
000000e0: 525a d23d dac7 0bbe 2720 25bd adbd 1fbe
000000f0: 9c29 293e e8f8 013d 0e37 1938 f217 c0bd
00000100: 1161 2cbe da67 263e cfd7 d43d 798d 2dbd
00000110: 7575 8d3c 6732 6c3d 8540 9fbd 8488 2b3e
00000120: 68a1 153d 103a a23a b98f 0a3e 2e5a dbbd
00000130: 966e c53d 267c 88bd 62f4 12be 9824 2fbd
00000140: 3e0a 7cbd 40b7 243e 59de 223b 6c43 09be
00000150: 44f5 07be 486d adbd c5fc 41be 12bc 84bc
00000160: f6a4 35bc be1b 33be bc92 353d c183 19bd
00000170: 803b 15bd b8d5 09be 082f ec3d b96d 05bd
00000180: 826b 1c3d 1859 883c 5585 593d 9762 ac3d
00000190: fb5a abbc be00 33bd 3158 8bbb 9071 1fbe
000001a0: 0346 343d 69cf 9bbd 636c e53d aadc 333e
000001b0: d1eb 243d 4f25 62bd 6659 33bd 6592 0b3e
000001c0: b903 f3bc 656a b43d 7ee6 fbbd 147b 09bd
000001d0: 1c91 be3d 0d01 093e 0116 8dbb 652a c93c
000001e0: 8491 94bc 678e 9cbd 933a 283e be2d c9bd
000001f0: 44b3 98bd bc73 133e 75e4 213e 88aa 80bd
00000200: 5650 3fbd e955 05be 73fb b73d 0103 0abd
00000210: 7bfc 96bd 42ac 19be 7161 5abd 7d22 573d
00000220: 303e 17be 97b9 a73d 680c 5abe d00a 3b3e
00000230: baec f5bd 42ac 243e 62ec e0bb 8723 c63d
00000240: dd57 a2bc 2837 b6bd f4b6 ebbc af44 8f3d
00000250: 9e44 ce3d 0008 253e 4639 673c fcd9 963d
00000260: a922 063e e4dc 1bbd 7518 a3bd 3dce ee3c
00000270: a2db 4ebd 64f6 293d b9e6 a53d 7715 c6bc
00000280: 1c9d 52bd 0415 293e 77f3 3d3d 5818 33be
00000290: 52df 27be 633e cdbc cb09 d3bd 742d 093e
000002a0: 997c 0a3e a90e dd3d efca da3d d60e 143e
000002b0: 5b10 113e 78dc 313c 26a1 343e e674 683d
000002c0: 48f3 be3d 4fe7 abbd 2e09 9f3d f4d3 17be
000002d0: a4ab 063c 6f94 c0bd 0a34 673c 0157 a33c
000002e0: ff63 39bd 0fed 3f3e 6959 2cbe 29df 5cbe
000002f0: 4d1f 3d3c bc6c 02be b6f2 07be af74 e2bd
00000300: a938 1c3e e2e1 ebbd eb27 2abe a1fd 063e
00000310: 3a66 efbd 3b82 c2bc dbca dfbd 42d1 5a3d
00000320: 3a9b 1a3e 9324 e0bd 6441 0dbe 8af3 ad3d
00000330: 88ba d6bd 4243 863d 5ea3 013e c404 023e
00000340: d23a 823c 042f 303e 05f3 28bd 5089 d83d
00000350: a695 58bd 4725 c4bd e27d 7a3d 60bb d23d
00000360: 25a3 aa3d 8f26 0d3e 9ff1 75bc 04a4 8a3d
00000370: 2380 043e e818 27be e611 59bd 208d e53d
00000380: 32ef 2abd 29a1 173e 38a5 bb3d 4fd0 93bd
00000390: 6b48 0f3e 2418 8abd a7cd ea3d 71f8 133e
000003a0: 485b dd3d f988 103e 45fa d33c 8833 25be
000003b0: ea25 0d3e e4ae 843c dba5 a8bd 414e 9fbc
000003c0: ce1f c9bd 2416 853d 878d 2fbe d93e 9f3d
000003d0: 037c 2ebe 4cdc b0bd 8135 dd3d ab22 08bd
000003e0: 035d c33d 3e9e 043e 2a81 39bd 0415 bc3c
000003f0: 58d9 07be dbca 42bd 2904 ab3d 412d 57bd
-0.02131129 -0.08990077 0.074423075 0.08366004 0.028985264 -0.06751347 0.1545523 -0.11096273
0.08169541 -0.012222507 0.10600438 0.07858772 -0.17775401 0.055709455 -0.024375545 -0.121399984
0.12601788 0.027478602 -0.076324254 -0.02555571 0.13744517 -0.05426944 -0.107501574 -0.06533032
-0.008893634 0.05066228 -0.02204941 0.091352314 -0.15749131 0.028521102 0.16147113 -0.030144315
0.1321533 0.057041395 -0.18756816 -0.10189665 0.14355214 -0.02566336 0.17117277 -0.16615495
-0.09386679 0.1316893 0.14840473 -0.16730122 0.053741947 -0.17268679 -0.1403495 0.08145149
-0.08492401 -0.016570654 -0.061668117 -0.16383049 -0.1584089 0.07400294 0.094581194 -0.03383925
0.102711335 -0.13650456 -0.040313866 -0.155997 0.16519779 0.031731516 3.6529316e-05 -0.09379567
-0.16833903 0.16250554 0.10392725 -0.042371247 0.017267922 0.057665255 -0.07775978 0.16751295
0.036530882 0.0012376923 0.13531388 -0.1071056 0.09640233 -0.066643044 -0.14351037 -0.042759508
-0.061533205 0.1608553 0.0024851768 -0.13404626 -0.13277155 -0.08468109 -0.1894408 -0.01620296
-0.011086693 -0.17491052 0.04432939 -0.037479166 -0.036433697 -0.13460433 0.11532408 -0.032575343
0.038188465 0.016644046 0.05310567 0.08417242 -0.020917406 -0.04370188 -0.0042524566 -0.15570664
0.04401208 -0.0760792 0.11202314 0.17564645 0.040263955 -0.05521136 -0.04378643 0.13630064
-0.029664861 0.08809356 -0.12299822 -0.033564642 0.09305021 0.13379307 -0.0043056016 0.024556348
-0.018135794 -0.076443486 0.16428594 -0.09823178 -0.07456067 0.14399618 0.15809806 -0.06282526
-0.046707474 -0.13021053 0.08983507 -0.03369427 -0.073723756 -0.15007117 -0.053315584 0.052523125
-0.14769816 0.08189695 -0.21293795 0.18265843 -0.12008043 0.16081336 -0.0068641165 0.09674745
-0.019817287 -0.08897239 -0.028773762 0.06995522 0.100716814 0.16116333 0.014112776 0.07365796
0.1309916 -0.038052455 -0.07963649 0.029151076 -0.050502427 0.041494742 0.081006475 -0.024180157
-0.051419362 0.16511923 0.046374764 -0.17489755 -0.16393784 -0.025054162 -0.10304602 0.13396245
0.13524093 0.10793812 0.10683238 0.14458784 0.14166395 0.0108557865 0.17639598 0.056752108
0.09323746 -0.08393728 0.07765423 -0.14826947 0.008219633 -0.094033115 0.014111528 0.019938948
-0.04526138 0.18742774 -0.16830982 -0.21569504 0.011543107 -0.12736791 -0.1327618 -0.11057412
0.15255989 -0.11517693 -0.1661679 0.13182689 -0.1168942 -0.02374374 -0.109273635 0.05342222
0.15098277 -0.10944476 -0.13794476 0.08493717 -0.10484797 0.06555797 0.12659976 0.1269713
0.015897188 0.17205435 -0.041247386 0.10573065 -0.05287709 -0.095774226 0.061155207 0.10289645
0.083318986 0.1378424 -0.01501122 0.06769565 0.12939505 -0.16318095 -0.052995585 0.11208558
-0.04173202 0.14807571 0.09162372 -0.07217466 0.13992469 -0.06742886 0.11465006 0.14450242
0.10808426 0.14114751 0.025876174 -0.16132939 0.13783994 0.016196676 -0.082347594 -0.019446494
-0.098205194 0.064983636 -0.17143832 0.07775659 -0.17039494 -0.08635768 0.10801221 -0.033236187
0.09539225 0.1295099 -0.045289196 0.02295924 -0.13266504 -0.04755674 0.08350403 -0.052533392

encoder.blocks.0.mhsa.W_o.bias f4 [32]
00000000: 1f54 203e e904 303e f94d 663d 36f4 a2bd
00000010: af91 ae3d 0490 a23d d875 03bd 11bf 15be
00000020: 5df5 17be 6850 173e 0e57 00be 9d59 253e
00000030: 81e8 1abe 8015 a8bd ad7a 45bc 7096 203e
00000040: c14b f33c c643 f2bd bf63 053e 94a9 873c
00000050: 5a39 f6bd 15dc 2c3e fb6a 173e 1b65 a7bc
00000060: 261c 833a eb31 c33d dd43 ab3c 21d3 0dbd
00000070: 115b 653d 79ad 1e3e 198f d1bc 50bd a63d
0.1565709 0.17189373 0.056226704 -0.07956736 0.08523881 0.07937625 -0.032094806 -0.14623667
-0.14839692 0.14776766 -0.12533209 0.16147466 -0.15127756 -0.08207226 -0.012053174 0.15682387
0.029699208 -0.11829333 0.13026331 0.016560353 -0.12022658 0.1688083 0.14786904 -0.020433953
0.0010002896 0.095310055 0.020906383 -0.034625176 0.05599505 0.15495862 -0.02558093 0.08141577

encoder.blocks.0.norm2.weight f4 [32]
00000000: c1c2 823f ecf7 833f 2f9a 843f 7630 843f
00000010: 3cff 873f b9b4 813f 7c59 833f 7821 843f
00000020: ee04 803f 5f0a 833f 3980 813f e25d 7f3f
00000030: 8c56 813f 42bd 813f c5e9 803f 97f6 833f
00000040: e7a0 853f fc3c 803f e732 803f 6aed 7d3f
00000050: bdb5 7f3f 5d98 7f3f d008 813f bace 7c3f
00000060: 8641 7f3f 6006 823f 3104 823f d14c 813f
00000070: 4cad 813f 0f8f 7e3f 7c17 813f 5e0f 803f
1.0215684 1.0310035 1.0359553 1.0327289 1.0624766 1.0133277 1.0261683 1.0322714
1.0001504 1.023754 1.0117255 0.9975263 1.0104537 1.0135882 1.0071341 1.0309628
1.0439728 1.0018611 1.0015534 0.9919039 0.99886686 0.9984186 1.0080814 0.9875294
0.99709356 1.0158195 1.0157529 1.0101568 1.0131011 0.9943704 1.0085292 1.000469

encoder.blocks.0.norm2.bias f4 [32]
00000000: 0e0c 663c bdab 35bb 01f8 9eb9 b45e a03b
00000010: 5a5f 0fbc 6223 02ba 304e c039 e361 6b3c
00000020: 7dec e33b 6a7e 4e3b b923 023b 1bd6 b53a
00000030: e348 9abb 356d a4ba badd de3b 69db 9cb8
00000040: a229 4cbb c2c1 83bb 4105 b93b d3e2 3fbc
00000050: b19d cb3b e5c2 a1bb 7ee1 593c 3ad8 19bc
00000060: a421 ba3b 5ae1 db3b 4c5b e33b 1baa 183a
00000070: c70d 00bb 4120 8bbb 0475 9cbb 7e04 23bb
0.01404096 -0.0027720772 -0.00030320886 0.004894102 -0.008750761 -0.0004964379 0.00036679348 0.0143666
0.006955682 0.0031508454 0.0019857718 0.0013873013 -0.004708396 -0.0012544753 0.006801334 -7.479528e-05
-0.0031152745 -0.0040209005 0.0056463783 -0.011711794 0.0062138666 -0.0049365633 0.01329839 -0.009389931
0.00568028 0.0067102136 0.0069383737 0.00058236875 -0.0019539462 -0.0042457883 -0.0047746915 -0.0024874504
