Train0001/20e/weights.pth (torch, 456402 bytes, 176 tensors)

classifier.weight f4 [10, 784]
000000 00 30 8c b9 b5 f2 9c 3c ac cc f0 bc 93 50 d7 bc
       -0.00026738644 0.0191587 -0.02939447 -0.026283538
000010 ce 5e 61 bc 0e e9 1c 3c 25 7f 39 ba 11 fa e7 3c
       -0.013755513 0.009577049 -0.0007076136 0.028317483
000020 37 b6 4f bb 0e d6 1a 3c 7c d6 30 bc a5 09 e6 bb
       -0.0031694302 0.009450449 -0.010793325 -0.0070201927
000030 fc c0 0b bd cc c3 c1 bc 9c 35 71 bc 01 68 ad 3a
       -0.03411959 -0.023652934 -0.014722254 0.0013229848
000040 dc 53 67 3c ae 8c af 3c a1 58 c6 bc d8 ce 7e bc
       0.014119115 0.021429386 -0.024212183 -0.015552245
000050 ae 88 54 3c a3 f2 f2 3c 53 d8 f0 bb 45 ef da 3c
       0.01297204 0.029656714 -0.0073500066 0.02672542
000060 6e a1 bc bb 5c aa 77 3b 4f 75 04 3d 76 b4 07 bd
       -0.0057565486 0.003779075 0.032338437 -0.033131085
000070 51 2f b8 bc 4a 23 14 bc b3 16 64 bc 2e c8 fc 3c
       -0.0224835 -0.009041617 -0.013921428 0.030857172
000080 8c a3 bd bc 25 ae 86 bc fa 66 cc bc 68 01 09 bd
       -0.023149274 -0.01644046 -0.024951447 -0.033448607
000090 2a c9 aa bc 6c 7e fb 3c fe 8c 82 3c 25 cd 8d 3c
       -0.020847876 0.030699931 0.015936371 0.017309735
0000a0 4a 30 f6 3a 1e ff 95 bc 93 fe c5 3b 12 96 08 bd
       0.0018782702 -0.018310126 0.0060423105 -0.033346243
0000b0 fa 66 d3 bc 50 d4 96 bc 2c 98 b8 3c 75 8a ab 3c
       -0.025805939 -0.018411785 0.022533499 0.020940045
0000c0 05 c1 81 bc 25 e8 a8 ba 01 1e bb 3c 6f 6d 11 3d
       -0.01583911 -0.0012886567 0.022841455 0.035504755
0000d0 98 3b 68 3c e5 18 9e 3b 47 2a c4 3c 4a 44 ac bc
       0.0141743645 0.004824745 0.02394594 -0.021028657
0000e0 65 13 da 3b 0e d5 e2 bc f7 c6 ca bc 3a 23 97 bc
       0.006655144 -0.027689483 -0.024753077 -0.018449415
0000f0 75 61 84 3c 41 52 6b 3c 31 4e ad bc 9c c6 30 3c
       0.016159752 0.014362873 -0.021155449 0.01078954
000100 10 9d a0 3c dc b5 93 bb b7 bb b2 3a 93 94 07 3c
       0.019606143 -0.0045077633 0.0013636266 0.008275169
000110 25 81 b5 3c 73 76 0c 3d 63 76 e1 bc ea 6f 56 bc
       0.022156307 0.03429265 -0.027522271 -0.013088206
000120 8a f7 65 3c ee 68 f2 3c 0a 99 fe 3c 82 13 01 3d
       0.014036069 0.02959105 0.031078834 0.031512745
000130 65 e7 e8 3b 41 6a fe bc a5 50 57 3b c5 08 b7 bc
       0.0071076625 -0.031056525 0.0032854464 -0.022343049
000140 e3 54 08 bd 48 f9 01 3d a5 75 de 3c 92 ec 11 bd
       -0.03328408 0.031731874 0.027155707 -0.035626
000150 77 0b db 3b 77 25 c5 bb 65 95 c0 bb 35 ed 85 bc
       0.0066847163 -0.006016429 -0.005877184 -0.01634846
000160 33 05 61 3c 85 4a ad bc 21 82 56 3c ac f4 93 3c
       0.01373415 -0.021153698 0.013092549 0.018061005
000170 8e 71 d1 3c 9c ca 5a 3c bd c8 10 bd 4a ca bd bc
       0.025566842 0.01335397 -0.03534769 -0.023167748
000180 d7 15 92 3c 41 f1 f4 3b f5 3a e4 bc e5 77 a8 bc
       0.01783268 0.007475049 -0.027860144 -0.020564983
000190 42 9e 09 3d ce 23 c5 3c 13 23 7f bc 85 45 13 bc
       0.033598192 0.024064925 -0.015572327 -0.008988743
0001a0 fc 59 0b bd 6e 47 28 ba d3 52 dc bc 4c ad e1 bc
       -0.034021363 -0.0006419335 -0.026894962 -0.027548455
0001b0 ee f6 00 bb 6e b6 af 3b 3c a2 6f bc f7 9a ad 3c
       -0.0019678432 0.0053623235 -0.014626082 0.021192057
0001c0 8a 0a b2 bc 3c bc 04 3d ca 7f c8 3c 73 b8 f6 bc
       -0.021733541 0.032406077 0.024474997 -0.03011725
0001d0 05 a2 11 bc b7 39 d3 3a f7 be aa 3b e5 c7 0a 3c
       -0.008888726 0.0016115223 0.005210753 0.00847051
0001e0 6a a0 65 3c 5c 33 0c 3b 07 c1 8e bc 0c 71 8a 3c
       0.0140152965 0.0021392917 -0.017426027 0.016899608
0001f0 0d 53 0c bd b7 68 ad bc 8e 7a 12 bc f5 83 8e bc
       -0.03425889 -0.021168096 -0.008940352 -0.017396906
000200 d7 b3 4c bc 43 cc ef bc 01 f0 f8 bb f8 27 fa 3b
       -0.012494049 -0.029272204 -0.00759697 0.007634159
000210 ac 99 be bc b8 3b f0 ba 01 70 d1 3c 81 9c 70 bb
       -0.023266636 -0.0018328344 0.025566103 -0.0036714377
000220 6e 19 82 3a 25 eb 49 bb 13 d8 ec 3b 4a 07 ba 3c
       0.0009925792 -0.0030810323 0.0072279065 0.022708554
000230 8f 91 0a 3d 9a cc b9 3c ba e2 0a 3d 25 46 29 bb
       0.03383022 0.02268057 0.03390763 -0.0025829163
000240 5f 69 03 bd 93 b3 8a bc a3 36 c7 3c 6e c3 72 b9
       -0.03208291 -0.01693133 0.024318045 -0.00023151722
000250 ec 6b 91 bc 71 33 e0 bc dc e6 08 bd c5 ee f6 bc
       -0.017751656 -0.02736828 -0.03342329 -0.030143151
000260 81 60 ed bb ac 72 a0 3c 17 2d 9e 3c 26 15 0d bd
       -0.00724417 0.01958593 0.01930861 -0.034443997
000270 35 80 b6 3c 9e f0 e4 bc 13 69 f7 bb 6a 42 6d bc
       0.02227793 -0.027946766 -0.0075503676 -0.014481166
000280 38 6a e1 bb ee c6 e5 bb fd 44 03 bd 05 9e fc bc
       -0.0068791173 -0.0070122397 -0.032048214 -0.030837068
000290 2e 20 b7 bb 4a 26 f2 39 6a e8 84 bc 41 6c 5c 3c
       -0.005588553 0.00046186364 -0.016224105 0.013453544
0002a0 6b aa 03 bd 6e f5 1d bb 82 a5 00 3d d3 ac 6e bc
       -0.032144945 -0.0024102586 0.03140784 -0.014567572
0002b0 b2 18 04 3d 65 e9 53 3c 64 04 04 bd f3 1b b9 3c
       0.032250114 0.012934064 -0.03223075 0.022596335
0002c0 65 0b 87 bb 1c 9b 82 bc aa f4 e9 3c f3 6c ec bc
       -0.0041212314 -0.015943103 0.028559048 -0.028860545
0002d0 a5 27 7b 3b 6e 05 f5 bb d1 ed d0 3c e5 56 23 3c
       0.003832319 -0.007477454 0.025504025 0.009969448
0002e0 07 95 8c 3c 01 a6 4e 3c 4a b6 0c bc 13 1e f6 bb
       0.017160906 0.012612821 -0.008588383 -0.0075109093
0002f0 4a 1a f1 bc 33 87 9e 3c 9a 4b e8 3c 45 2f c8 3c
       -0.02943148 0.019351577 0.028356362 0.024436602
000300 a1 5f ce bc 4a c7 d0 3a 5c 3e ce bc 53 0e a1 bc
       -0.025192084 0.0015928533 -0.02517622 -0.01966015
000310 a5 7b aa bc 3c f8 47 3c e1 58 ae bc 4a 42 4c ba
       -0.020810911 0.01220518 -0.021282615 -0.000779186
000320 4a ed c4 3a 2a 99 bc 3c 1e 29 dd bc 97 da c8 bc
       0.0015024331 0.023022253 -0.026997145 -0.024518294
000330 8e e2 a9 bc d1 c7 cc 3c a1 56 52 bc dc c7 f6 3c
       -0.020737913 0.024997624 -0.012838037 0.030124597
000340 93 97 53 3c 4a 30 94 3b dc 62 8b b9 0a 58 e7 bb
       0.012914556 0.004522358 -0.00026585802 -0.0070600556
000350 dc d4 92 3b 40 9d 05 bc 25 91 83 b9 00 52 95 3b
       0.004480941 -0.008155167 -0.00025094408 0.0045568943
000360 d3 d9 e4 bc 8c 58 99 bc d3 3f ec 3c 75 6f ed bc
       -0.027935898 -0.01871898 0.028839028 -0.02898381
000370 4a 11 28 bb 25 b6 10 3d 13 60 53 3c 93 89 84 3a
       -0.002564507 0.035329957 0.012901324 0.0010111801
000380 9a 8b fd bc f5 ee 90 3c 9c 64 d0 bc e5 19 26 bc
       -0.030950356 0.017692069 -0.0254386 -0.01013801
000390 33 53 44 bc f7 4d ad bb 93 d0 cc 39 ac 50 f1 3c
       -0.011982727 -0.005288835 0.00039065312 0.029457413
0003a0 dc 18 92 3b ee 06 03 3d 37 f8 b2 3c be f7 b8 bc
       0.00445853 0.03198903 0.021846874 -0.02257907
0003b0 30 38 83 3c 4e d1 ce bc 8e ff 77 bc 93 1a 2c 3c
       0.016018003 -0.025246289 -0.015136613 0.010504383
0003c0 a5 35 41 3c cc 7e db 3c e5 5d 3c bc b8 cd 6f 38
       0.011792575 0.02679386 -0.011496996 5.717363e-05
0003d0 67 9f 96 3c c6 78 0d bd 03 86 d3 3c 13 ef f1 bc
       0.018386556 -0.034539007 0.025820738 -0.029532945
0003e0 25 09 01 3a dc f7 c6 bb e7 16 9a bc 8a ad 9a 3b
       0.0004922322 -0.0060720276 -0.018809749 0.0047203945
0003f0 cc ee f1 3c 77 0c 2b bc ac b2 ad bc 97 68 58 bc
       0.029532813 -0.010439984 -0.021203361 -0.01320853

classifier.bias f4 [10]
000000 20 fd 15 bc fa 3d e3 3c 7c 9e 34 bc 6c 4d 09 bd
       -0.009154588 0.027739514 -0.011024114 -0.0335211
000010 61 2d e7 bc dc c1 44 bc 5d 5c 0a 3d f3 e5 75 3c
       -0.02821988 -0.01200911 0.03377949 0.015008437
000020 15 44 fc 3c a7 46 94 3c
       0.030794183 0.018100096

encoder.linear_mapper.weight f4 [16, 16]
000000 cb ba 0e 3d ce 19 06 be ea 80 3a be c2 80 48 3b
       0.03484611 -0.13095781 -0.1821324 0.0030594324
000010 9b 6c e5 bd 41 20 29 3e f8 9e 67 bd 3f 0f 11 bc
       -0.112023555 0.1651621 -0.05654809 -0.008853733
000020 21 d4 f0 3b 2b f4 18 3e f9 09 84 bc 99 61 01 3e
       0.0073495065 0.14936893 -0.016118037 0.12634887
000030 56 5a 47 be d6 0c 67 be 8e 42 15 bd f3 6d 5f 3d
       -0.19468054 -0.2256349 -0.036440425 0.054548215
000040 60 ee 01 3e 12 79 a9 3d 32 4b 80 3e 37 5c a7 bd
       0.12688589 0.082750455 0.2505737 -0.081718855
000050 90 27 08 3d 2b 55 37 3e a4 9e 14 be ba ba 16 3e
       0.033240855 0.17903583 -0.14513642 0.14719668
000060 22 be 19 be ec 3c 00 3e 8e c0 ed 3d 38 3b 62 3e
       -0.15013936 0.1252324 0.116089925 0.22092903
000070 aa 2c 93 3d b8 22 1a 3d 41 15 16 bd fb 56 82 3e
       0.07186253 0.037630767 -0.036641363 0.25456986
000080 56 9a 93 bb 0d ae 98 bc 20 41 ca 3c ad d9 da 3d
       -0.0045044823 -0.018637681 0.024689257 0.106860496
000090 d4 ab 21 be ed f8 43 be 01 fc 9a bd 74 49 b1 3d
       -0.15788203 -0.19137926 -0.07567597 0.08656588
0000a0 b3 5b 2a bd 7c ab 0f bd 51 1b f2 3c d5 ed 1e 3b
       -0.041591357 -0.03507565 0.029554041 0.0024250646
0000b0 1b 8e ee 3d 29 ba ae bd 00 c7 87 3e 6c 06 c2 3d
       0.11648198 -0.08531601 0.26519012 0.09473881
0000c0 52 5f ea 3d 25 eb b9 3d aa fb 12 be 44 29 85 3e
       0.11443962 0.090780534 -0.14353815 0.26008046
0000d0 3e cd 84 bd 91 04 19 be 97 7b df 3d 93 0a a8 3d
       -0.06484459 -0.14943148 0.10912245 0.08205142
0000e0 51 7d f7 bd 1a 0e 41 be 2b 71 24 3e 2f 09 5d be
       -0.12084449 -0.18853036 0.16058795 -0.21585535
0000f0 89 2d 8f bd 10 62 f1 bd 1d e4 55 be 40 cc ef 3b
       -0.06991107 -0.11786282 -0.208878 0.0073180497
000100 f9 4d 87 be 93 f1 79 bc 35 8f cc bd f1 a3 cc 3d
       -0.26426676 -0.01525535 -0.09988252 0.09992207
000110 1b 04 bf bd 5c 93 80 be 2b 25 c2 bd 94 e3 f8 3d
       -0.09326955 -0.25112426 -0.094797455 0.12152782
000120 7a f5 14 be 23 ad 3a 3e df 95 cb 3d 97 b1 6b bd
       -0.14546767 0.18230109 0.09940695 -0.05754241
000130 93 72 94 3c f8 d5 4c 3e a6 bb e4 3c b3 a6 6a 3d
       0.01812104 0.20003498 0.027921509 0.057287883
000140 49 36 69 3c 81 11 20 bd d5 59 38 be 63 2e 19 be
       0.014234134 -0.039079193 -0.18003018 -0.14959101
000150 13 c7 6d 3e f5 3a c9 3d cf a5 af 3b 39 39 3e 3e
       0.23220472 0.09825698 0.005360342 0.18576516
000160 a1 84 6d bc db de 96 3d c2 fa 04 be 91 84 25 3e
       -0.014496953 0.07366725 -0.12986282 0.16163851
000170 de 9a 4f 3e 3e 37 5c 3d 7a 97 f1 3b 2c 13 02 3e
       0.20273921 0.05376362 0.0073727937 0.12702626
000180 80 30 05 3e 22 33 ef 3d a4 78 03 be f0 07 a8 bd
       0.13006783 0.11679675 -0.1283899 -0.08204639
000190 ec 80 9d bd a5 fa 2a be 8d e2 93 3b df 65 3e 3e
       -0.076906055 -0.16697176 0.004513091 0.18593548
0001a0 94 b0 0c 3e c7 fc bb bd b0 98 a8 3d 6e 6e ae bc
       0.13739234 -0.09179073 0.08232248 -0.021292891
0001b0 38 d6 7a 3e 59 4d 82 be 28 c4 43 3d d6 e4 3f be
       0.2449578 -0.25449637 0.04779449 -0.18739638
0001c0 96 21 21 3e 1d 16 8c 3e 7e 6c 9d 3e 9a e8 10 3e
       0.15735468 0.2736062 0.30746835 0.1415123
0001d0 21 0d 1d 3d 61 e3 f6 3d 45 73 34 bb f2 63 aa 3e
       0.0383426 0.12055088 -0.0027534526 0.33279377
0001e0 df de 92 3d 06 29 bf 3d 25 a6 be bd d7 e6 30 3e
       0.071714155 0.093339965 -0.09309033 0.17275558
0001f0 43 07 8d be a6 34 96 be ab 17 0f be 5d e1 d5 bd
       -0.27544603 -0.29337043 -0.13973872 -0.10443375
000200 0b e1 22 3e 2b 83 a6 3d 4e a0 46 3e 89 82 bf 3d
       0.1590616 0.08130487 0.19397089 0.093510695
000210 00 65 64 3e 17 fb 5e 3e 81 a3 e3 bd 77 e1 94 3e
       0.22304153 0.2177547 -0.1111517 0.29078266
000220 30 33 51 3d 1b 0f 5f 3d b9 3c bc 3d a3 92 87 3d
       0.051074207 0.054457765 0.091912694 0.066197656
000230 45 ea d0 3b 87 34 6a bd 72 b4 a6 bd 94 64 84 be
       0.0063755834 -0.057179 -0.08139886 -0.25857985
000240 66 55 24 be 61 8a bd be fe 21 be bd 43 ce a2 be
       -0.16048202 -0.37019637 -0.09283827 -0.3179799
000250 07 bf 8e 3d 56 e7 bd be 5b 06 79 3d bc 24 7b bc
       0.06970029 -0.37090558 0.060797077 -0.015328582
000260 8d fc a4 be 2e 26 05 bd b5 d0 63 be 17 da 1c be
       -0.3222393 -0.032507114 -0.22247584 -0.1531757
000270 77 d2 e4 bd 37 50 32 be fe aa 33 3c 98 e3 37 3e
       -0.111729555 -0.17413412 0.010966061 0.17957914
000280 94 2b 66 be 14 26 5b 3e e1 81 0c be d4 3e 90 bd
       -0.22477561 0.21401244 -0.1372142 -0.070432335
000290 cb a0 21 3e 72 9e c5 bd d4 f4 d1 bd b8 a8 8b bd
       0.15783994 -0.09649362 -0.102517754 -0.0681929
0002a0 fc 75 00 3e f7 cc 48 3b 02 9e 6c 3e 24 5e fd 3d
       0.12545007 0.0030639747 0.2310715 0.123714715
0002b0 21 21 32 be 8e c7 f3 bd 8a ce d0 3d ea 3a e3 3d
       -0.1739545 -0.119032964 0.10195644 0.11095221
0002c0 df f5 fd bc cd e3 83 3d 13 6a ce 3d 69 a8 05 be
       -0.03100103 0.06439934 0.10078826 -0.13052525
0002d0 c4 c7 8a bc ba 6c aa 3d 7b bc fd 3d 83 c2 69 3c
       -0.016940959 0.08321519 0.123894654 0.014267567
0002e0 8a 5f bf 3d 83 d2 72 3d 9d 17 59 be da 65 68 be
       0.093443945 0.05928279 -0.21200414 -0.22695103
0002f0 2e 2b bd bd eb 93 ac bc ff ac 7c be 79 14 7e be
       -0.092367515 -0.021066627 -0.24675368 -0.24812497
000300 01 e5 74 be d7 fd a1 3d 58 0e 67 3e c3 9b 6d 3e
       -0.23915483 0.07909744 0.22564065 0.2320395
000310 af 51 28 be a1 24 76 3e aa 2d 46 bd 1c e9 3d be
       -0.1643741 0.2403741 -0.048383392 -0.18545955
000320 4b 57 49 3e 74 66 7f 3e f8 18 a3 3c 97 26 6a bd
       0.19662206 0.24941427 0.019909367 -0.05716571
000330 0c c9 f0 3d f5 24 39 3e 68 46 36 3e 3e aa 96 bd
       0.11757097 0.18080504 0.17800295 -0.0735669
000340 df db 88 3c 3a a1 23 3d 8b e7 5f bd fe f6 6c bd
       0.016706405 0.03994868 -0.054664176 -0.057852738
000350 7f bf f3 3c 9a 48 17 3d c9 20 bd 3d 2f b3 20 be
       0.029754398 0.036934473 0.09234769 -0.15693353
000360 ea 21 11 3e 79 01 fe bc e0 05 46 be 14 2c f0 3d
       0.14173093 -0.031006562 -0.19338179 0.11727157
000370 88 4d 55 be 8d b1 6d be fd b7 cd bd f3 68 5c 3e
       -0.20830357 -0.23212261 -0.100448586 0.2152441
000380 44 aa 5a be 33 5b 2d 3d 76 75 7c be 64 9d 0b bc
       -0.21354014 0.042323302 -0.24654183 -0.008521412
000390 3d 22 0e 3e 59 a6 4c bd a7 43 77 be 9a 65 58 be
       0.13880248 -0.04996333 -0.24146901 -0.21132508
0003a0 13 3a 50 be fb 17 aa bd f8 9b 0e be e4 70 66 3d
       -0.20334654 -0.08305355 -0.13926685 0.056260005
0003b0 2f a4 31 3c 51 66 4b be 10 5f e3 bc c3 4d 89 be
       0.010842367 -0.1986325 -0.02775529 -0.2681714
0003c0 49 5c 82 3e dd aa 3a 3c 09 8b 0b 3e 30 89 e6 3d
       0.25461033 0.011393276 0.13627256 0.11256635
0003d0 17 85 31 be 9e 02 16 3e be 62 93 be 2c d9 8a be
       -0.17335926 0.14649436 -0.28786272 -0.27118814
0003e0 3c 0a a6 3d ac ed 1c be 44 31 68 be 8e 93 49 be
       0.08107421 -0.1532504 -0.22675043 -0.19685194
0003f0 32 b0 2c be 04 26 69 be a0 b3 48 bd 00 eb 78 be
       -0.16864088 -0.22768408 -0.04899943 -0.24308395

encoder.linear_mapper.bias f4 [16]
000000 ac ba 33 bd 89 8b 28 3e 78 de 24 be dd e2 0e 3e
       -0.043879196 0.16459478 -0.1610049 0.13953729
000010 c9 d9 7f 3e b6 e8 0f bd 9e b3 46 bd 5b b1 70 be
       0.24985422 -0.03513404 -0.04851114 -0.23505156
000020 8c ef 68 3e 0a 55 06 3e d3 87 c9 bc 51 74 f9 3d
       0.2274763 0.13118377 -0.024600899 0.12180389
000030 cf 12 56 be 6b 96 41 be 60 5e 62 3e 5d 62 83 be
       -0.20905612 -0.18905036 0.22106314 -0.25660983

encoder.blocks.0.norm1.weight f4 [16]
000000 c8 68 81 3f 5c 87 8a 3f e9 88 80 3f 1b b5 85 3f
       1.0110102 1.0822558 1.0041782 1.0445894
000010 0d 5a 81 3f 4c 83 81 3f 6b 8c 83 3f b3 1b 89 3f
       1.0105606 1.0118194 1.0277227 1.0711578
000020 45 d9 81 3f 9b 85 83 3f 02 3d 81 3f 78 bb 80 3f
       1.014443 1.0275148 1.0096743 1.0057211
000030 5d 99 81 3f fb 3d 7b 3f b3 5d 84 3f ec 73 7f 3f
       1.0124928 0.9814145 1.0341095 0.9978626

encoder.blocks.0.norm1.bias f4 [16]
000000 95 ac 24 3c 51 eb 82 3c b1 43 89 3c 0a 92 b1 bc
       0.010050912 0.015981348 0.01675591 -0.021676082
000010 42 41 18 3c cb 8c b4 bb f5 30 ef 3b b4 2e 76 bb
       0.009292902 -0.005509948 0.0072995373 -0.0037564458
000020 f0 95 24 3b 31 8a 1b bc 58 36 89 ba 20 38 2a 3b
       0.0025113784 -0.009493397 -0.0010468466 0.0025973395
000030 30 66 f7 3a 79 1a 8a bc bf a0 a5 bc 38 34 ca bb
       0.0018875059 -0.016858326 -0.020218251 -0.0061707757

encoder.blocks.0.mhsa.W_q.weight f4 [16, 16]
000000 c2 99 3f bc 85 a1 08 be 04 9a 9c be ab 2a 60 3d
       -0.011694374 -0.13342865 -0.30586255 0.05472819
000010 d3 e2 ff bd 25 5e c2 bd ee dc b1 3c 6e f9 68 3d
       -0.12494435 -0.09490613 0.021711793 0.0568785
000020 eb 2f 00 3e 35 0d 69 be 14 fb 1c 3e 8f da 36 3e
       0.12518279 -0.22758944 0.15330154 0.17856811
000030 03 c3 54 be 0f b0 d5 3d 91 24 e0 bd db 4f 71 3e
       -0.20777516 0.10433971 -0.109444745 0.23565619
000040 0a b9 f0 bd ba 8c 20 3e 5a 73 09 be a5 77 05 be
       -0.117540434 0.15678683 -0.1342291 -0.13033922
000050 1d 74 f4 3d bc 4f a0 3d 59 65 10 be 3b 79 34 3e
       0.11936209 0.07827708 -0.14101161 0.17624371
000060 4c b6 42 3c 58 a8 bb 3d 4c 48 f5 bd a7 e8 e2 3c
       0.011884283 0.091629684 -0.1197668 0.027698828
000070 23 90 b4 3d ee 47 ef 3d eb 29 89 3e d1 1f 02 3e
       0.088165544 0.116836414 0.26789793 0.1270745
000080 5c c1 66 3e ea 1c e5 bd 13 f2 4d be 0d e2 9c 3d
       0.22534698 -0.111871555 -0.20111875 0.07660303
000090 70 c3 ab bc 4d 3c 9a bc 1e 60 40 be eb c1 13 bd
       -0.020967215 -0.018827582 -0.18786666 -0.036073606
0000a0 13 e2 02 bc e6 cb 11 3e aa d6 04 3e ba 88 18 3d
       -0.007988471 0.14237937 0.12972513 0.037239768
0000b0 1e 37 3c 3e 92 c6 2c bd 13 10 6a 3e 75 5d 68 be
       0.183804 -0.04218156 0.22857694 -0.22691901
0000c0 79 ca dc bd c8 74 f0 bd be 34 ff 3d ef 61 69 bc
       -0.10780806 -0.11741024 0.12461232 -0.014244541
0000d0 67 7f 4c be b9 24 5d bd 6a 46 85 3c 9d f8 61 3e
       -0.19970475 -0.0539901 0.016268928 0.22067495
0000e0 db a5 74 3e 6b 3e 58 be a2 76 ea bd 95 e2 c7 bd
       0.23891394 -0.2111756 -0.11448409 -0.09760014
0000f0 a3 4a e8 bc fe 3e 10 3e 0d 1c a5 bd ed 87 69 3e
       -0.028355902 0.1408653 -0.08061991 0.22805758
000100 f5 d0 d1 3d ba 45 27 3e a9 59 38 bd ba 20 34 3e
       0.102449335 0.16335192 -0.04500738 0.17590609
000110 3d 2e a8 3d 92 ff ed 3c a0 8b 95 bc 84 0b 3e 3d
       0.08211944 0.02905253 -0.018255055 0.0463977
000120 ff 03 28 bd 9f 62 28 be 36 1b 91 bd cf 09 39 be
       -0.041019436 -0.16443871 -0.07085268 -0.18070148
000130 63 bb 8a 3d a7 b2 2d 3e 25 52 df bd f2 e1 89 3d
       0.067740224 0.16962682 -0.1090434 0.06732549
000140 d2 99 8b be d4 29 a0 3d b4 6d 85 be 53 1f dc bd
       -0.27265793 0.07820478 -0.2606026 -0.10748162
000150 21 24 f2 3c 95 c0 86 bd 99 57 17 3e e6 8e ba bc
       0.029558243 -0.06579701 0.1477951 -0.022773217
000160 53 cc 29 3e 0c 53 f3 3d f5 aa 6f 3d fd 23 64 be
       0.1658185 0.11881074 0.058512647 -0.22279353
000170 68 ae 19 be 2b 08 25 bd ad c0 44 bd 14 d2 e4 3d
       -0.15007937 -0.040290993 -0.048035312 0.11172882
000180 5f 81 db 3d e0 b4 2d 3d 2f aa 59 be 7f 11 8b be
       0.10718035 0.042408824 -0.21256326 -0.27161786
000190 ee 29 21 3e c0 f2 c0 bd 66 92 fe bd bf e3 06 3c
       0.15738651 -0.09421301 -0.12430267 0.00823301
0001a0 9f e5 50 3e 11 17 4b 3d 2e a1 e7 3d 5a b0 91 3c
       0.20400093 0.049582545 0.113100395 0.017784286
0001b0 f7 0c 07 bd 22 25 9a 3e 60 32 8f be 3a 6a b7 3d
       -0.03297135 0.30106455 -0.2796812 0.08955808
0001c0 26 d8 2d be 48 6f 19 be ad b6 5b be 88 9a 05 3e
       -0.16976985 -0.14983857 -0.21456404 0.1304723
0001d0 58 fa fe bc 4d 17 07 3e fc 8a 47 bb 41 96 84 3d
       -0.031125233 0.13192482 -0.0030447831 0.06473971
0001e0 6a 69 81 be fd b2 d7 bd 4c 35 86 bd 5c 03 4d be
       -0.25275737 -0.10532186 -0.06553134 -0.20020813
0001f0 03 41 fd 3d fa c7 f6 3d 61 64 a7 bd db df 42 be
       0.123659156 0.12049861 -0.08173443 -0.19030707
000200 7c dd 4c be ba ef e8 bd 73 18 55 be 23 48 2a be
       -0.20006365 -0.11373849 -0.20810108 -0.1662908
000210 e5 68 2f 3e 5f 10 98 bd 88 d9 7a be 98 6a 70 3e
       0.17129858 -0.074249975 -0.24497044 0.23478162
000220 67 cd 6b 3e db 0d 66 3d 82 72 ba bd bd 92 8f bd
       0.23027574 0.056165557 -0.09103872 -0.0701041
000230 79 f2 db 3c 15 90 a3 3d 1d 0c 71 be 3f ff 2a 3e
       0.026849018 0.07986466 -0.23539777 0.16698931
000240 84 98 83 3d 91 da 85 3e 4d 67 39 3e bd 17 64 be
       0.064255744 0.26143315 0.18105812 -0.2227468
000250 89 1b 95 3e a8 3a 11 bd 34 6d 68 be 63 00 71 3e
       0.2912257 -0.03545633 -0.22697908 0.23535304
000260 1d e6 75 bd 3b b3 bf bd 68 d8 0b 3b eb a0 57 3e
       -0.060033906 -0.093603574 0.0021338705 0.21057479
000270 7e 73 be 3b 7b d9 26 be d4 f2 93 be 8b e4 d4 3d
       0.0058121076 -0.162939 -0.288962 0.103951536
000280 b2 71 3c bd d8 c7 2a 3d 68 68 56 3e e0 56 0b be
       -0.046006866 0.041694492 0.20938265 -0.13607359
000290 28 be 1b be 55 ac 8b bd 6e 4a ed bb ec e5 e3 bd
       -0.15209258 -0.06819979 -0.0072415387 -0.111278385
0002a0 e9 70 61 3e 9c 3c 35 be 52 90 26 3e 17 8d 9d 3d
       0.22015728 -0.17698902 0.16265991 0.076929264
0002b0 0f a2 85 3e 0e 18 88 be 2d 3e 54 3e 5e 34 b6 bd
       0.26100203 -0.26580852 0.20726843 -0.08896707
0002c0 f6 52 16 3d e6 3a 9c 3d d2 6b 7b 3e e9 21 8e 3d
       0.03670021 0.076284215 0.24552849 0.069400616
0002d0 f4 6c 47 be e4 4e 36 3e e6 db b1 bd d4 82 27 bd
       -0.19475156 0.17803532 -0.086845204 -0.04089625
0002e0 35 2d dc bd 85 ea 2c be 20 04 4c 3e 43 10 ee 3d
       -0.1075081 -0.16886337 0.19923449 0.116241954
0002f0 7c 43 6b 3e c7 87 47 be f1 9f e8 3d e9 9b d9 bc
       0.22974962 -0.19485389 0.113586314 -0.026563602
000300 d2 2d 8b be 6b ba 37 3e b3 d6 3e 3c 16 10 36 bc
       -0.27183396 0.17942207 0.011647868 -0.011112234
000310 a6 fb 8b 3e 1b 33 cf bd 1a de 85 3e 7c 37 ef 3a
       0.2734043 -0.101171695 0.26146013 0.0018250789
000320 9a 83 93 3e 58 d1 33 bd 65 ca b5 be 0f 6f 72 3e
       0.28811342 -0.043900818 -0.35505977 0.23675178
000330 33 bf ee bb 6f 27 02 be 78 44 46 bd fb 05 16 3d
       -0.0072859763 -0.12710355 -0.04840514 0.036626797
000340 9e e8 db 3b 49 73 f1 3d 52 b4 19 3d b7 d8 3a be
       0.0067110797 0.11789567 0.037525482 -0.18246733
000350 0a 7b c7 3d ba a2 88 be 81 1c ae 3d bd e3 03 3e
       0.09740265 -0.2668665 0.085015304 0.12879844
000360 8e 34 6b 3e 5f de 45 3e aa 0a 83 3d b2 ff fd 3d
       0.22969267 0.19323109 0.063985184 0.12402286
000370 39 e4 7b bb e0 80 10 be 55 a2 7c be a5 68 57 3e
       -0.0038435592 -0.14111662 -0.246713 0.21036012
000380 c9 37 e8 3d de 21 b0 3d 1d 19 e4 3d f3 6b 45 be
       0.11338765 0.0860021 0.111376025 -0.1927946
000390 64 10 b1 3d 8a 95 3f bd 8d 43 92 bd d2 49 92 bd
       0.086457044 -0.04677347 -0.071417905 -0.07142986
0003a0 8a 4b 04 3e 98 1f 42 3e 64 d8 27 3e ae 32 09 be
       0.12919441 0.18957365 0.1639114 -0.13398239
0003b0 4a cf f6 3d 69 6d 30 3d f0 ba 81 3e fc c7 ec bb
       0.12051256 0.04307309 0.25337934 -0.0072259884
0003c0 cd ae 13 be af 71 c2 3d bf bb ec bd 5c 1e b8 3d
       -0.1442215 0.0949434 -0.11559247 0.089901656
0003d0 6d de 7b 3b 6a 32 8a 3e d3 c2 3d 3e 83 cf f3 3d
       0.0038432137 0.26991588 0.18531351 0.11904814
0003e0 eb 7a 9f be 1f 61 97 bd ff f9 26 3e 2c 77 0a be
       -0.31148466 -0.07391571 0.16306303 -0.13522023
0003f0 46 9a 41 bd 49 d9 1f 3e e1 55 6c bd 4b 50 a6 be
       -0.047266267 0.15610231 -0.057699088 -0.32483134

encoder.blocks.0.mhsa.W_q.bias f4 [16]
000000 a3 28 59 be ff 91 26 be f5 e7 95 3c 3d 30 4b 3e
       -0.21206908 -0.1626663 0.018299082 0.1984262
000010 7f d2 13 bd da 1c 30 be f0 e6 7b 3e bc 56 14 bd
       -0.036089417 -0.17198506 0.24599814 -0.03621553
000020 97 0b 02 bd a1 81 2e 3d 00 bf b2 3d 48 25 0f be
       -0.031749334 0.042604093 0.087278366 -0.13979065
000030 8d d3 58 3e ce 23 5a 3e 05 15 50 be ab 01 0f 3e
       0.2117445 0.21302721 -0.20320518 0.1396548

encoder.blocks.0.mhsa.W_k.weight f4 [16, 16]
000000 d4 ef 41 3e 8d cf 27 bd bb 8c 56 3e 5c bb 93 bd
       0.18939143 -0.04096942 0.20952122 -0.0721347
000010 31 18 d0 bd f0 78 96 3d 72 8b 29 be ab e2 c9 bd
       -0.10160864 0.07347286 -0.165571 -0.098576866
000020 79 50 4d be 91 62 43 3d 2e d1 db bd 9b bc 1e bd
       -0.20050229 0.047701422 -0.10733257 -0.038754087
000030 cf 13 d2 bd cb 97 84 3e a7 15 fa 3d a9 6c 22 be
       -0.102576844 0.2589706 0.12211161 -0.15861763
000040 83 ef 22 be 1d 53 8b bc 27 0f 24 3d 55 d1 49 3e
       -0.15911679 -0.017007405 0.040053513 0.1970876
000050 3e c2 5d 3e bc 30 39 be 01 81 80 3e df 18 1f 3e
       0.21656129 -0.18084997 0.25098422 0.15536831
000060 6a 20 50 be 15 58 22 be d6 6a 21 be 5d 4d 94 39
       -0.20324865 -0.15853913 -0.15763411 0.000282864
000070 3c dc da bd 92 0f 33 be a1 7b 2d bd 9b 9a 23 3e
       -0.106865376 -0.17486408 -0.04235423 0.15976946
000080 d2 fa 53 bd 72 64 03 be 04 38 f2 bd 6f 44 a4 3d
       -0.051752873 -0.12831286 -0.118270904 0.08020865
000090 c6 01 b6 3d 60 ec c0 bd f7 40 6e be 1b 70 00 3e
       0.08887057 -0.09420085 -0.2326697 0.12542765
0000a0 4c 0f 30 bd d1 62 b3 be 76 e3 3a 3e 06 16 e5 3d
       -0.04298334 -0.35036328 0.18250832 0.11185841
0000b0 b8 be b1 3c 88 84 b7 bd 27 e3 98 3d 53 60 8b be
       0.021697387 -0.08960825 0.07465201 -0.27221927
0000c0 99 8e 7b bd 88 38 11 be 60 5e bc be d9 e6 7a 3e
       -0.06141529 -0.14181721 -0.36790752 0.24502124
0000d0 48 e4 44 be b0 dc 0a be e3 6f d8 3d 7d 19 66 3e
       -0.19227707 -0.13560748 0.10568216 0.2247066
0000e0 0b 1b b9 bd 94 11 bf 3e da 20 8b 3d 60 1b f2 bd
       -0.09038361 0.373181 0.06793375 -0.118216276
0000f0 3f b8 69 be 78 a6 47 bd 1c dd c8 3d 09 74 56 3e
       -0.2282419 -0.04874274 0.09807798 0.20942701
000100 d7 07 ed bd e4 89 1a bd ef b6 3d 3e eb 00 00 3d
       -0.11573761 -0.03772916 0.18526815 0.031250875
000110 e4 40 4c 3d c6 c7 e9 3c 8d 06 06 be c9 c9 ec bd
       0.049866572 0.028537642 -0.13088436 -0.11561925
000120 95 6c 8f 3e 72 da 35 be bf ef 53 3d 4d 39 18 bc
       0.2801253 -0.17759112 0.05174231 -0.009291005
000130 bc 5c e1 3b 8a 0b 23 bd 3b 04 bc bd b9 e2 13 be
       0.00687751 -0.039805926 -0.091804944 -0.14441957
000140 c7 f7 06 3e 59 5e 13 be 73 c5 a3 3c 69 52 54 3e
       0.13180457 -0.1439146 0.019991612 0.20734562
000150 ff 66 41 3e 8c f0 46 be 49 0c fd bd f4 29 2b be
       0.18886946 -0.19427699 -0.12355859 -0.16715223
000160 34 6b 65 bd b3 af 15 3e 7c 80 0e 3e ab 33 aa 3e
       -0.05601044 0.14617805 0.139162 0.33242545
000170 4d 55 18 be b5 fa 69 3e 20 5c 74 bd 16 52 2a 3c
       -0.1487629 0.22849543 -0.05965817 0.010395547
000180 d2 df 39 3e b9 da 5d be 39 ef e3 3c 80 7a 5b be
       0.18151787 -0.21665467 0.027824031 -0.21433449
000190 8e d8 ec 3d 72 fe 0d 3e f2 52 77 3e 07 a2 01 be
       0.11564742 0.13866594 0.24152735 -0.12659465
0001a0 8a f2 4f be 3c 49 6c 3e b1 50 26 be 31 77 53 3c
       -0.20307365 0.23074812 -0.16241719 0.012906835
0001b0 85 ae 29 be 65 76 ec 3c 8d 64 bd 3d 63 70 a0 3d
       -0.1657048 0.028865049 0.09247694 0.07833936
0001c0 80 62 62 bb 3d cd 94 3d bd c9 67 be 77 e7 85 3e
       -0.0034543574 0.072657086 -0.22635551 0.26153156
0001d0 d4 f0 61 be 2e 90 01 3d 62 84 37 be 4e 91 dc bd
       -0.22064525 0.03163164 -0.17921594 -0.10769902
0001e0 bf f4 1a 3e 1d 56 b5 3d 79 70 ee 3d d3 e2 a7 bc
       0.15132426 0.088543154 0.11642546 -0.0204939
0001f0 4a cf da 3d b3 64 83 3e 5c 03 2c be 15 2e 04 be
       0.106840685 0.25662765 -0.16798156 -0.12908204
000200 3a 82 9c 3d 74 8b 98 3e d8 58 2d 3e 6e 54 d2 bc
       0.07642026 0.29793894 0.16928422 -0.025675025
000210 d0 32 76 3e 1c 29 31 be 03 49 d2 3d 79 0e 50 3e
       0.24042821 -0.17300838 0.10267832 0.20318021
000220 3e 9b a2 3c 7c 5c f2 3c ed e8 5c 3e 36 cc 5a be
       0.019849416 0.029585116 0.21573229 -0.21366963
000230 67 2e ad 3e 60 4b 8d 3d e9 20 98 3d 58 a5 d1 3d
       0.33824465 0.06899142 0.07428152 0.10236615
000240 f8 9c f5 3d 24 0d 86 3e 28 b5 50 3e de 38 aa be
       0.1199283 0.261819 0.20381606 -0.3324651
000250 53 92 7e be ee 05 5a 3d 71 3b 97 3e 30 70 0f be
       -0.24860506 0.05322831 0.29537538 -0.1400764
000260 73 13 62 3e b5 d9 85 bd 91 64 3c 3e c8 fb 97 bd
       0.22077732 -0.06535665 0.18397738 -0.0742107
000270 d2 79 a4 3e 39 56 45 be 9f 84 91 be ea a9 90 3d
       0.32124192 -0.19271173 -0.28421494 0.070636585
000280 28 a8 04 be ca 19 56 3e e5 c0 16 3d a1 a5 cc bd
       -0.12954772 0.20908275 0.036805052 -0.09992529
000290 6a 64 5b 3e 28 01 7d 3e 47 16 ff bd e5 3d 1e 3e
       0.21425024 0.24707472 -0.12455421 0.15453298
0002a0 fc 94 02 3e 46 c5 a1 be 38 95 99 3c 87 c4 84 be
       0.12752146 -0.3159582 0.01874791 -0.25931188
0002b0 04 46 81 3d 3c d8 8e be f8 a5 be 3d bc 24 59 3e
       0.063121825 -0.2789935 0.09309 0.2120542
0002c0 f4 8b 40 3e 8a 71 dd 3d f4 bc d1 bd ea 5a e7 3d
       0.18803388 0.108126715 -0.10241118 0.11296637
0002d0 8a 60 a1 3d 13 4b 0f 3e 87 19 01 bd 46 88 99 3e
       0.078797415 0.13993482 -0.031518485 0.2998678
0002e0 ac 5e c2 bd 4c c4 c5 be b7 c4 52 3d 84 e7 b7 3d
       -0.094907135 -0.38626325 0.051457133 0.08979705
0002f0 5c bd 87 3d e4 2b e2 bd 44 bd c3 be a3 b0 79 3e
       0.06627914 -0.11043528 -0.38230336 0.24383788
000300 e6 50 b7 be 43 61 56 bd 76 96 e9 ba 24 9c c0 bd
       -0.35803908 -0.05233885 -0.001782133 -0.094047815
000310 f5 c5 61 bc 32 58 c7 be 95 24 91 3d 86 f7 bc bc
       -0.013780107 -0.38934475 0.070870556 -0.023067247
000320 3e c8 47 bd 8a a6 95 bd 73 f3 14 3d 91 69 7f 3e
       -0.04877495 -0.073071554 0.036364984 0.24942614
000330 03 ee bb 3d 6d 3f d2 bc e6 c5 aa bd c7 6b aa 3d
       0.091762565 -0.02566501 -0.083385274 0.08321338
000340 d8 3e f0 3d 88 85 a0 3d e2 6a 1f 3b 03 58 32 bd
       0.117307365 0.07837969 0.0024325182 -0.043540966
000350 d9 27 d6 3d 69 2d aa be 7a f2 b6 3d b3 04 5f bd
       0.10456819 -0.3323777 0.089329675 -0.05444784
000360 af d4 71 bd 76 9d 68 be ee 62 07 bc 91 18 ef 3d
       -0.05904072 -0.22716317 -0.008263333 0.116746075
000370 0d ee 36 3e db 42 75 bd fb ff a4 bb 87 9b 6f 3e
       0.17864247 -0.05987821 -0.005035398 0.23399173
000380 50 07 51 3b 96 de 42 3e 5b 0f 71 3e bc 34 5d 3e
       0.0031895228 0.19030222 0.23541014 0.21602148
000390 54 b7 ea 3d 54 3d 53 3e 92 95 67 3e b8 98 ea 3b
       0.11460748 0.20628864 0.2261565 0.007159319
0003a0 82 74 a6 3e 53 49 3e be a5 88 e4 bc c4 2b 2d 3d
       0.32510763 -0.18582658 -0.027897188 0.042278066
0003b0 1e 6e bc bd 1d f9 05 be c6 a8 43 bd 9a ad ff bc
       -0.09200691 -0.1308331 -0.047768377 -0.03121071
0003c0 68 f5 d9 b9 8b 2f 83 bc e0 a0 94 3d 64 c4 68 3e
       -0.00041572307 -0.016013881 0.07257247 0.22731167
0003d0 66 4d 7a bd ba cd b9 3d cc f8 04 3d 54 10 4a 3e
       -0.06110897 0.09072442 0.032463834 0.19732791
0003e0 08 21 63 3e 5d ff 80 3b 74 73 e7 bd f6 27 61 bd
       0.22180569 0.0039366917 -0.11301318 -0.05496975
0003f0 5c c2 dc bd f4 97 f1 bd 2d 92 54 bd 7d e6 1f 3e
       -0.107792586 -0.11796561 -0.051897217 0.15615268

encoder.blocks.0.mhsa.W_k.bias f4 [16]
000000 82 19 9a 3d 4f 63 ee bd 25 a9 12 3e f6 05 ac 3c
       0.075243965 -0.11640035 0.14322336 0.020998936
000010 0b 87 10 3c 5c d4 c3 3d 2e c2 0f be 74 67 d6 bc
       0.008821259 0.09561989 -0.14038917 -0.026172377
000020 66 07 41 3e f9 6a 25 3e e4 05 11 3e 86 96 d5 bc
       0.18850479 0.16154088 0.14162403 -0.026072752
000030 d8 a4 d7 3c a4 10 29 3e 09 be 2d 3d 09 b2 0c 3e
       0.02632372 0.16510254 0.04241756 0.1373979

encoder.blocks.0.mhsa.W_v.weight f4 [16, 16]
000000 38 4f d4 3d 7d 1f cc 3d 38 99 c1 3d a3 56 36 be
       0.10366672 0.099669434 0.09453052 -0.17806487
000010 cb fc 4d be 71 49 89 be e1 74 55 3e 56 9b bf bd
       -0.20115964 -0.26813844 0.20845367 -0.093558
000020 aa f7 26 be c9 d4 55 3d 7a 15 8d bd 88 d8 cc 3d
       -0.16305414 0.05220488 -0.06888862 0.100022376
000030 77 6c b0 bd 8e d5 5b 3e 3f 41 89 be a8 04 70 be
       -0.08614438 0.21468183 -0.2680759 -0.23439276
000040 54 29 60 3e 2d 1d ea bd c7 0f 61 3d fe 42 b6 3d
       0.21890765 -0.11431346 0.054946687 0.088994965
000050 7c 32 cc 3c 28 e5 20 be 37 3c a5 3c 10 54 18 be
       0.024926417 -0.15712416 0.020170314 -0.14875817
000060 49 d0 5f 3e 51 52 26 3d 3f 21 3d 3e 71 73 36 3e
       0.21856798 0.040605847 0.18469714 0.17817475
000070 19 ff d1 3d 29 8a b7 3d 95 d1 0f 3e c3 03 28 be
       0.10253734 0.08961899 0.14044793 -0.16407685
000080 07 48 3c 3e 9e 91 42 bd c7 ad 4f 3e 19 1f c4 bc
       0.18386851 -0.047502153 0.20281135 -0.02394061
000090 e6 03 16 3e 91 af 37 3e 53 c8 62 3d 1a 14 7c bd
       0.14649925 0.17938067 0.055366825 -0.061542608
0000a0 59 3d c9 3d 9d 66 7e be eb d2 0b bd a6 7f 4a bd
       0.09826154 -0.24843831 -0.034136694 -0.04943814
0000b0 43 1a 44 be b7 08 2b bc d3 97 63 3d e9 d8 6f be
       -0.19150643 -0.0104390895 0.055564713 -0.23422588
0000c0 34 55 42 3e f6 ad 18 3e 35 17 64 3e 90 d2 e6 bd
       0.18977815 0.14910111 0.22274478 -0.1127063
0000d0 3a 0d 15 be 6b af 0e 3e 24 25 7d 3e 1e e6 ec bd
       -0.14555827 0.13934104 0.247212 -0.11567329
0000e0 6f 5f fb bd 0e ef 89 bb 06 d7 4e 3e 12 c5 d0 bc
       -0.12274062 -0.0042094057 0.20199212 -0.025484595
0000f0 4b 7e 80 be ce ab b6 bd 64 73 29 be e6 d2 43 3e
       -0.25096354 -0.08919488 -0.16547924 0.1912342
000100 f9 26 35 be 07 0b 4e 3e 75 cf c2 3d f0 61 ab bc
       -0.17690648 0.20121394 0.095122255 -0.020920724
000110 65 86 83 bd ec 8a 10 3e f4 48 17 be aa de ab bd
       -0.06422118 0.14115494 -0.14773923 -0.08392079
000120 08 a5 65 3e c6 d3 cf bd c3 fb e4 3c 6b 9a 4b 3e
       0.22426236 -0.101478145 0.02795208 0.19883125
000130 d2 b5 42 be 97 6f 1d 3d 4b 3d 85 3b 4b 80 09 be
       -0.19014671 0.0384365 0.0040661446 -0.13427846
000140 03 d1 4e 3e 38 30 26 3e 53 ca 84 bc bd 79 f7 bc
       0.20196919 0.16229331 -0.016209757 -0.030209417
000150 4b bf 17 3e 57 8b a8 bd 4a d3 15 3e 32 f6 39 be
       0.14819066 -0.08229702 0.14631382 -0.18160322
000160 60 87 56 be bb d8 2b 3e f7 00 30 3e 82 8f 46 be
       -0.20950079 0.16781895 0.17187868 -0.19390681
000170 72 06 67 bd d7 a2 da 3d 1c 60 0d 3e b3 df 18 3e
       -0.05640263 0.106755905 0.13806194 0.14929084
000180 d9 d6 2d 3e 0b 0b db bd 72 3e 4f 3d 1b 69 51 3e
       0.16976489 -0.10695466 0.050596662 0.20450251
000190 60 d5 43 be 1f 95 25 3e 90 9a 95 3d 53 07 b1 3c
       -0.19124365 0.16170166 0.07304871 0.021609938
0001a0 69 ce 85 3e 40 1c c9 bd 53 48 a1 bd 05 51 39 be
       0.2613404 -0.098198414 -0.07875123 -0.18097313
0001b0 32 39 52 3e 00 ea 30 be 0b e4 4d 3e 87 b7 3c be
       0.20529631 -0.17276764 0.20106523 -0.18429385
0001c0 9a 7e 0e 3e 31 6a 0d be 1b 0d 50 3e f3 5d 3b be
       0.13915482 -0.1381004 0.203175 -0.18297558
0001d0 03 dc 24 be 1c c3 95 bd c6 da 4f be c0 a4 8f 3e
       -0.16099553 -0.07312605 -0.20298299 0.28055382
0001e0 db b4 f4 3d 3d df 02 be da 0b 4a be fb 2b 94 bd
       0.11948558 -0.12780471 -0.19731084 -0.07234951
0001f0 57 79 dd 3c c3 11 d6 bd 7e 8e 06 3e 02 a3 f0 bd
       0.027035398 -0.104526065 0.13140294 -0.11749841
000200 95 7d 78 3d fa a8 27 3e 23 7f 41 be 51 2d 51 be
       0.06066664 0.16373053 -0.18896155 -0.20427443
000210 66 62 81 be 57 e7 0c 3d 9e d7 5b 3e ac e1 24 be
       -0.25270385 0.03440031 0.2146897 -0.16101712
000220 5a 4c c6 bc 94 53 30 3e 28 93 40 3e 42 70 15 3e
       -0.02420633 0.17219383 0.18806136 0.14593604
000230 e3 ee 7f 3d 00 ba 81 3d f9 67 2f 3c e0 89 71 3e
       0.06248368 0.06334305 0.010705941 0.23587751
000240 a7 d4 c5 3c e2 5f 00 3e 80 4a a4 bb e4 b6 52 3e
       0.024149252 0.12536576 -0.005013764 0.2057758
000250 6c 56 8c be 23 94 92 bd 0e f4 82 be 41 33 68 3d
       -0.27409685 -0.07157161 -0.25576824 0.056689505
000260 21 44 82 bd 5b fe 5f be 50 af 3d be 16 dc 83 3d
       -0.06360651 -0.21874373 -0.18523908 0.064384624
000270 aa d4 4c 3e aa b5 49 3e d3 98 37 3e 06 c0 58 be
       0.20003 0.19698206 0.17929392 -0.21167001
000280 b2 2f 67 3e e1 9c 7d 3e 23 66 2c 3d 2c 4c 8b be
       0.22576788 0.24766876 0.042089593 -0.27206552
000290 c7 31 26 be 23 a6 58 be cd 0b df 3c a5 92 05 3e
       -0.16229926 -0.21157126 0.027227307 0.13044222
0002a0 d4 ce 0d 3e be 5d 0a be 97 2a c2 bd d6 1c 3d 3d
       0.1384843 -0.13512322 -0.094807796 0.04617008
0002b0 29 fb f1 bd 73 0b 19 bd 98 8a b9 3d 63 24 d1 bd
       -0.11815483 -0.037364434 0.09059638 -0.10212018
0002c0 08 3d aa 3d d8 a4 49 bd e6 d9 80 3e b2 3e 74 be
       0.08312422 -0.049229473 0.25166243 -0.23852041
0002d0 3b 1f 65 3e 65 f8 21 3e 99 c5 5d be b7 f8 dd bd
       0.22375195 0.15817411 -0.21657409 -0.10838454
0002e0 23 70 30 bd 73 39 fd 3d 2f 0c 31 3e a5 79 03 be
       -0.043075692 0.12364473 0.17289804 -0.12839372
0002f0 8f f0 14 be a3 20 35 be 77 c5 3b 3e 75 76 48 be
       -0.14544891 -0.17688231 0.18337046 -0.19576438
000300 1e d3 4d be bc df 47 3e f7 c7 da 3d aa 17 18 3e
       -0.20100066 0.19518942 0.106826715 0.14852777
000310 60 b1 a3 3e 50 af 7f be 59 2b 25 bd 59 f0 c7 3c
       0.31971264 -0.2496922 -0.040324543 0.024406599
000320 46 3c 82 3e c4 0c 24 bd fc b5 2f bd 52 e4 2b 3e
       0.2543661 -0.040051237 -0.042898163 0.16786316
000330 aa 69 d2 3d 7d 21 09 be dd 0e 79 be 8c 33 83 bd
       0.1027406 -0.13391681 -0.24322076 -0.06406316
000340 e7 90 83 3d 99 fc 70 3e a9 2d bb 3d 21 63 07 3e
       0.06424122 0.23533858 0.09139568 0.13221408
000350 6e 4b f9 3d b3 da 8d bd 09 a2 16 bd 0e 3b 8f 3e
       0.1217259 -0.06926479 -0.036775623 0.27974743
000360 dc 37 a5 3d 67 ca 5d 3d f5 b4 11 3e 39 42 42 3e
       0.08067295 0.054148104 0.14229186 0.18970574
000370 2d 88 95 3d 69 47 86 bc 40 2e 0a be 53 4e 20 be
       0.07301364 -0.016391473 -0.13494205 -0.15654878
000380 d1 51 2a be e4 6d 43 3e 52 90 2c 3e 0b d9 39 be
       -0.16632773 0.19084889 0.16851929 -0.18149202
000390 a8 cd 81 3e 70 10 c2 bd 04 63 be bc 65 04 e9 3d
       0.25352216 -0.094757915 -0.023240574 0.11377791
0003a0 28 f5 22 be c1 93 ed bd 6e c8 92 bd 94 62 3a bd
       -0.15913832 -0.116004474 -0.07167135 -0.045504168
0003b0 c5 41 c7 3d a5 74 aa bc 22 86 84 be b0 a3 40 be
       0.097293414 -0.020807574 -0.25883585 -0.18812442
0003c0 53 85 78 3e 02 cb f0 3d 37 e2 81 be 7a 56 4f be
       0.24269609 0.11757471 -0.253679 -0.20247832
0003d0 dc 4a 17 be 24 98 66 3e d4 05 05 3e 2e ee be 3d
       -0.1477465 0.22518975 0.12990505 0.09322773
0003e0 73 e0 16 3e 1a 23 29 3d ee 7b 39 3e ba e4 4d be
       0.14734058 0.04129324 0.18113682 -0.20106784
0003f0 f0 53 4b 3e 1e 1d e7 3d 4c cc a4 3d 67 d2 1e 3e
       0.19856238 0.112848505 0.08046779 0.1550995

encoder.blocks.0.mhsa.W_v.bias f4 [16]
000000 ad 78 f1 bc 7f f9 f0 bd 02 ff 89 bd ae 52 33 be
       -0.029476488 -0.117663376 -0.06738092 -0.17512009
000010 c6 62 85 bb b2 ae 05 3e 35 1f 5c 3d c7 f3 5c 3a
       -0.0040706126 0.13054922 0.0537407 0.00084286596
000020 b3 a7 d0 3d 38 d2 70 be f9 f8 35 be 5c da 5a be
       0.10188236 -0.23517692 -0.17770757 -0.2137236
000030 89 79 8b 3e 3b 25 61 be a9 ba 1d 3e f4 bd 35 3e
       0.2724116 -0.21986859 0.15403236 0.17748243

encoder.blocks.0.mhsa.W_o.weight f4 [16, 16]
000000 12 72 6f bd 73 92 2d bd db ca 43 3e e1 0a 58 be
       -0.058458395 -0.042375993 0.19120352 -0.210979
000010 83 d0 79 be d5 54 c7 ba cb 3c 41 bd e9 18 ef bd
       -0.24395947 -0.0015207777 -0.047177117 -0.11674673
000020 0b 63 10 3d 6b 3c f2 3d 33 b2 cb 3d ac b8 81 3d
       0.035250705 0.1182793 0.09946098 0.063340515
000030 1d df 3a 3e c9 d0 1d be bc 43 c8 3b 45 b6 82 3d
       0.18249173 -0.15411676 0.00611159 0.063824214
000040 10 9d ab 3d 85 be c3 bd 8d 04 4e 3e fd 79 3f be
       0.08379567 -0.09557823 0.20118923 -0.18698879
000050 0a fc f3 bd 86 87 73 be 18 58 ea 3c 42 1d 46 be
       -0.11913307 -0.23782167 0.02860646 -0.19347098
000060 be b4 38 3e ff 7a 2f be b9 51 37 3d f1 1c 62 3e
       0.18037698 -0.17136763 0.04475567 0.22081353
000070 94 1d 70 3e 1b 0a 9d 3d 9b 81 ed 3d 7a a8 1b 3d
       0.23448783 0.07667943 0.11596986 0.03800247
000080 69 26 16 3e db af 7d bc 22 b5 46 be 9a a9 57 3e
       0.1466309 -0.015483822 -0.19405034 0.21060792
000090 7d 53 3a be 8a b2 62 3e 09 ab 0e 3c 81 40 e0 3d
       -0.18195911 0.2213842 0.00870777 0.10949803
0000a0 aa 54 1d 3c a2 1e db 3d 8f c1 3f 3e cf 18 7b be
       0.009602705 0.10699202 0.1872618 -0.24521182
0000b0 a2 ae 0e 3e 61 a4 c0 bd b4 4d 85 be 56 8a 53 be
       0.13933805 -0.09406353 -0.26035845 -0.2065824
0000c0 5d d2 c5 3c 8b 66 4c 3e c8 d2 70 be 25 66 a1 3d
       0.02414816 0.19960992 -0.23517907 0.07880811
0000d0 66 84 c2 3d 37 33 63 be aa a1 68 3d 00 15 ff bd
       0.09497909 -0.22187506 0.0567948 -0.12455177
0000e0 97 2e 1b 3d d1 f2 d0 bd 29 c7 6a 3e 63 77 67 be
       0.03788623 -0.102025636 0.22927536 -0.22604136
0000f0 1a 5d 09 3e 18 ae cb bd 75 ae 57 3d 43 b9 a0 3c
       0.13414422 -0.09945315 0.05265661 0.01961959
000100 2e ee 71 be bb 3f ed bd 64 cb 85 3c f7 ca 9a 3c
       -0.23626015 -0.11584421 0.016332336 0.01889561
000110 37 9a 0a be 66 54 16 3e 9b 34 f2 bd f0 52 09 be
       -0.13535391 0.14680633 -0.1182644 -0.13410544
000120 35 2d e7 3d 1f af c8 bc 19 3d df 3d d6 c7 28 3e
       0.112879194 -0.024497567 0.10900325 0.16482481
000130 36 15 d7 bd 7e f4 6e 3d 2c 55 89 3e 03 d2 5d 3d
       -0.105020925 0.058338635 0.26822793 0.05415536
000140 b8 c5 62 3e 00 28 cc 3d 0a be 35 3e 02 61 3c 3e
       0.22145736 0.09968567 0.17748275 0.1839638
000150 c6 ac 21 3e d2 5e 47 3d 50 63 fc 3d 0c 85 27 3e
       0.15788564 0.048674412 0.1232363 0.16359347
000160 1c 77 9c 3c d6 ec 1f 3d 8f d3 d1 bd 54 7e 86 bc
       0.019099765 0.039044224 -0.1024543 -0.01641766
000170 98 7b 13 3e f8 0a 10 3b 32 4e d0 bd ce 9b 5d 3d
       0.14402616 0.0021979194 -0.101711646 0.054103665
000180 47 22 e3 bc c8 75 13 3d 5e de 0b bd 57 23 1b 3c
       -0.027726306 0.036000997 -0.034147613 0.009468875
000190 57 4f 89 bd 62 e9 16 3e 76 b5 18 be b9 dc 2b be
       -0.06704586 0.14737466 -0.14912972 -0.16783418
0001a0 d9 21 8d bd c6 19 1f 3d f3 2c 57 3e b4 77 ad 3d
       -0.068912216 0.03884294 0.2101324 0.08470097
0001b0 82 80 d6 bc 45 0f 52 be 95 51 e2 bd b6 5e bc 3d
       -0.026184324 -0.20513637 -0.11050717 0.09197752
0001c0 93 f9 8e bd a7 d2 1d be 30 84 5e 3d 1e 06 34 3e
       -0.06981196 -0.15412389 0.054325283 0.17580459
0001d0 e5 8a fb 3c 66 50 59 3e 2b 20 52 3e ea b7 78 bc
       0.030705879 0.21222076 0.20520084 -0.015180567
0001e0 77 94 8a 3e 95 ba 8f 3d 0d aa 7f 3d 48 d2 ae 3d
       0.27066395 0.070180096 0.062418032 0.08536202
0001f0 96 56 6e be d5 d4 87 3d 2a 92 59 3e 6c 8c 3b 3d
       -0.23275217 0.06632391 0.21247163 0.045788214
000200 ca 29 8d 3b 70 4e 3b bd 2b 7a 3e be 41 81 25 3d
       0.00430796 -0.0457291 -0.18601291 0.04040647
000210 cc c3 e6 3d f8 6b 0c 3d f1 8f 74 3e b1 70 05 be
       0.11267814 0.034282655 0.23883034 -0.1303127
000220 47 07 47 3e 7d 6d 19 bd 02 84 b4 bd 3c 7d f5 bd
       0.1943637 -0.03745793 -0.08814241 -0.11986777
000230 26 74 2d be c3 21 ad 3d cf 9b fd bc 61 f5 92 3d
       -0.16938838 0.08453705 -0.030958084 0.071757086
000240 08 b7 90 be 87 b4 1f bd b2 88 24 3e c7 ef be bd
       -0.28264642 -0.038990524 0.1606777 -0.09323078
000250 0b 83 3d 3e 0c ff 14 be f5 1e db bd b4 ee 53 3e
       0.1850702 -0.14550418 -0.10699264 0.20696527
000260 c6 3c 34 3e 76 12 19 3e ff 38 28 3e d6 b7 16 be
       0.17601308 0.14948449 0.16427992 -0.14718565
000270 aa c7 ee 3b 1b 0c 44 bc 1c 2d 32 be cf 0e 8e 3d
       0.0072869854 -0.011965777 -0.1740002 0.06936418
000280 77 5a d4 3d c3 09 3f be 03 d2 06 bd d0 cf 84 3d
       0.10368817 -0.18656068 -0.032915127 0.064849496
000290 29 1d 7c 3e c7 ac 50 be 2f 6d 60 3e 85 e2 9a bc
       0.24620499 -0.2037841 0.2191665 -0.018906841
0002a0 c0 e1 47 3d c8 db 5c be 04 72 7a be 43 25 07 be
       0.048799276 -0.21568215 -0.24457556 -0.13197808
0002b0 f2 5f 00 bc 7f cc 58 3d 97 b5 69 3e 34 a7 4b bd
       -0.007835375 0.052929398 0.22823177 -0.049720004
0002c0 86 71 09 3e 30 f7 2d be 8b ff 37 3e 57 94 34 be
       0.13422212 -0.16988826 0.17968576 -0.17634712
0002d0 e7 63 91 be 40 34 49 3e 72 d4 ff bd 22 57 df bd
       -0.28396532 0.19648838 -0.124916926 -0.10905291
0002e0 e7 7d 50 be 74 98 f8 bc 83 af 13 3e 4e f9 28 3e
       -0.20360528 -0.030346133 0.14422421 0.16501352
0002f0 df f0 6c be 0b 56 22 3d 77 14 62 be f7 e2 3c be
       -0.2313876 0.03963284 -0.22078119 -0.18445955
000300 13 cb 41 bd a5 f8 46 bd 95 e2 e0 3d 42 8e b5 3d
       -0.047312807 -0.04857697 0.10980717 0.08865024
000310 ec ab b8 3d 98 56 04 3e 83 c5 32 bd 1e 91 d6 bc
       0.090171665 0.12923658 -0.043645393 -0.026192244
000320 0e 54 86 3e ec 04 75 3b c5 f6 30 3e 5c 95 12 be
       0.26236004 0.0037386967 0.17281635 -0.14314789
000330 97 6d 40 3e 3f a1 30 3e 9c e7 56 3e 98 ce 1a be
       0.18791805 0.1724901 0.2098679 -0.15117872
000340 48 ad 7e be b8 da 3f 3d b5 ba cb bc 93 51 75 3e
       -0.24870789 0.046839446 -0.024869302 0.239569
000350 5d f7 bd bd c0 28 99 bd 68 5a 32 3d 1c 51 49 be
       -0.092756964 -0.074784756 0.04354325 -0.19659847
000360 44 ef 5a be 3e e1 2f 3e 67 77 32 3c e6 fe 5c 3d
       -0.21380335 0.17175767 0.010892726 0.053954028
000370 ac 11 48 bd 56 df 0c 3e 5e fa c4 bd 6b fe a2 3d
       -0.04884498 0.13757071 -0.09618066 0.079586826
000380 b9 28 99 3d b3 42 8c 3d ca f6 26 be a2 da 6b be
       0.0747847 0.06848659 -0.1630508 -0.2303262
000390 20 77 f7 bd e7 ec 85 be 66 e3 55 be da 43 9a bd
       -0.12083268 -0.26157305 -0.20887527 -0.07532473
0003a0 9f e4 10 bd 53 23 44 3d a2 b7 c0 bd b4 a2 1f be
       -0.03537428 0.04788525 -0.09410025 -0.1558941
0003b0 bd bd 98 bd cb 04 2c 3e c1 45 09 3e 1c 0c 7e 3e
       -0.07458065 0.16798703 0.13405515 0.24809307
0003c0 08 bd d7 3d ca 16 44 3e 83 fc 74 3c c2 81 10 be
       0.10534102 0.19149318 0.014952782 -0.14111999
0003d0 0f c8 85 3d 2a a9 78 3e 3c fb a3 bd 25 93 57 bc
       0.06532299 0.24283281 -0.080069035 -0.013157641
0003e0 ec 18 6e be a3 04 4f 3e 72 13 47 be 97 37 cf bd
       -0.23251694 0.20216613 -0.19441012 -0.10118025
0003f0 7d a8 9a bc cc 0e 07 be c0 ee e2 3c 98 84 fc bd
       -0.01887917 -0.13189238 0.027701735 -0.12329978

encoder.blocks.0.mhsa.W_o.bias f4 [16]
000000 e2 d9 82 3e 79 d2 14 be 45 47 41 3d 3f b1 78 be
       0.25556856 -0.14533414 0.04718711 -0.24286364
000010 83 2b 04 3d b9 d3 2b 3e aa 82 33 be 62 06 1d bd
       0.03226806 0.16779985 -0.17530313 -0.038336165
000020 6d 4b 9a bc 0d f5 3e bd bb b4 4f 3d 91 c3 26 3e
       -0.018834794 -0.046620417 0.050709467 0.1628554
000030 84 0f 6c bd bb 8a a1 3d 8d 9f 58 be cb 5e 1f be
       -0.057631984 0.07887789 -0.21154614 -0.15563504

encoder.blocks.0.norm2.weight f4 [16]
000000 8b ef 85 3f 14 37 82 3f c8 59 8c 3f af fa 8c 3f
       1.0463728 1.0173059 1.0964899 1.1014003
000010 61 b2 88 3f 35 19 83 3f e9 c1 80 3f 22 5d 82 3f
       1.0679437 1.0242068 1.0059177 1.0184672
000020 33 6c 79 3f 51 b3 80 3f 75 d2 85 3f 1a e2 80 3f
       0.97430724 1.0054723 1.0454851 1.0069001
000030 13 53 7c 3f 39 9f 86 3f b2 f3 86 3f 23 ac 86 3f
       0.9856426 1.0517341 1.054312 1.0521282

encoder.blocks.0.norm2.bias f4 [16]
000000 79 53 aa bc cc 41 02 3c 7d e2 32 3d 19 81 8e bc
       -0.020791756 0.0079502575 0.043673027 -0.017395543
000010 a5 1a 2f 3c ed 84 22 bc 41 bc ac bc 2c 99 87 3c
       0.010687505 -0.009919387 -0.02108586 0.01655253
000020 90 e7 ec 3b a7 93 25 3c f7 cb 88 bb ea 79 a1 bb
       0.007229753 0.010106004 -0.004174705 -0.0049278634
000030 fe 02 dc 3c fb a6 d8 3a b5 65 1f 3b 0c 16 f8 3b
       0.026856896 0.0016529256 0.0024322097 0.0075709876
