Train0001/10e/weights_1passage.pth (torch, 458598 bytes, 176 tensors)

classifier.weight f4 [10, 784]
-0.00026738644 0.0191587 -0.02939447 -0.026283538 -0.013755513 0.009577049 -0.0007076136 0.028317483
-0.0031694302 0.009450449 -0.010793325 -0.0070201927 -0.03411959 -0.023652934 -0.014722254 0.0013229848
0.014119115 0.021429386 -0.024212183 -0.015552245 0.01297204 0.029656714 -0.0073500066 0.02672542
-0.0057565486 0.003779075 0.032338437 -0.033131085 -0.0224835 -0.009041617 -0.013921428 0.030857172
-0.023149274 -0.01644046 -0.024951447 -0.033448607 -0.020847876 0.030699931 0.015936371 0.017309735
0.0018782702 -0.018310126 0.0060423105 -0.033346243 -0.025805939 -0.018411785 0.022533499 0.020940045
-0.01583911 -0.0012886567 0.022841455 0.035504755 0.0141743645 0.004824745 0.02394594 -0.021028657
0.006655144 -0.027689483 -0.024753077 -0.018449415 0.016159752 0.014362873 -0.021155449 0.01078954
0.019606143 -0.0045077633 0.0013636266 0.008275169 0.022156307 0.03429265 -0.027522271 -0.013088206
0.014036069 0.02959105 0.031078834 0.031512745 0.0071076625 -0.031056525 0.0032854464 -0.022343049
-0.03328408 0.031731874 0.027155707 -0.035626 0.0066847163 -0.006016429 -0.005877184 -0.01634846
0.01373415 -0.021153698 0.013092549 0.018061005 0.025566842 0.01335397 -0.03534769 -0.023167748
0.01783268 0.007475049 -0.027860144 -0.020564983 0.033598192 0.024064925 -0.015572327 -0.008988743
-0.034021363 -0.0006419335 -0.026894962 -0.027548455 -0.0019678432 0.0053623235 -0.014626082 0.021192057
-0.021733541 0.032406077 0.024474997 -0.03011725 -0.008888726 0.0016115223 0.005210753 0.00847051
0.0140152965 0.0021392917 -0.017426027 0.016899608 -0.03425889 -0.021168096 -0.008940352 -0.017396906
-0.012494049 -0.029272204 -0.00759697 0.007634159 -0.023266636 -0.0018328344 0.025566103 -0.0036714377
0.0009925792 -0.0030810323 0.0072279065 0.022708554 0.03383022 0.02268057 0.03390763 -0.0025829163
-0.03208291 -0.01693133 0.024318045 -0.00023151722 -0.017751656 -0.02736828 -0.03342329 -0.030143151
-0.00724417 0.01958593 0.01930861 -0.034443997 0.02227793 -0.027946766 -0.0075503676 -0.014481166
-0.0068791173 -0.0070122397 -0.032048214 -0.030837068 -0.005588553 0.00046186364 -0.016224105 0.013453544
-0.032144945 -0.0024102586 0.03140784 -0.014567572 0.032250114 0.012934064 -0.03223075 0.022596335
-0.0041212314 -0.015943103 0.028559048 -0.028860545 0.003832319 -0.007477454 0.025504025 0.009969448
0.017160906 0.012612821 -0.008588383 -0.0075109093 -0.02943148 0.019351577 0.028356362 0.024436602
-0.025192084 0.0015928533 -0.02517622 -0.01966015 -0.020810911 0.01220518 -0.021282615 -0.000779186
0.0015024331 0.023022253 -0.026997145 -0.024518294 -0.020737913 0.024997624 -0.012838037 0.030124597
0.012914556 0.004522358 -0.00026585802 -0.0070600556 0.004480941 -0.008155167 -0.00025094408 0.0045568943
-0.027935898 -0.01871898 0.028839028 -0.02898381 -0.002564507 0.035329957 0.012901324 0.0010111801
-0.030950356 0.017692069 -0.0254386 -0.01013801 -0.011982727 -0.005288835 0.00039065312 0.029457413
0.00445853 0.03198903 0.021846874 -0.02257907 0.016018003 -0.025246289 -0.015136613 0.010504383
0.011792575 0.02679386 -0.011496996 5.717363e-05 0.018386556 -0.034539007 0.025820738 -0.029532945
0.0004922322 -0.0060720276 -0.018809749 0.0047203945 0.029532813 -0.010439984 -0.021203361 -0.01320853
00000000: 0030 8cb9 b5f2 9c3c accc f0bc 9350 d7bc
00000010: ce5e 61bc 0ee9 1c3c 257f 39ba 11fa e73c
00000020: 37b6 4fbb 0ed6 1a3c 7cd6 30bc a509 e6bb
00000030: fcc0 0bbd ccc3 c1bc 9c35 71bc 0168 ad3a
00000040: dc53 673c ae8c af3c a158 c6bc d8ce 7ebc
00000050: ae88 543c a3f2 f23c 53d8 f0bb 45ef da3c
00000060: 6ea1 bcbb 5caa 773b 4f75 043d 76b4 07bd
00000070: 512f b8bc 4a23 14bc b316 64bc 2ec8 fc3c
00000080: 8ca3 bdbc 25ae 86bc fa66 ccbc 6801 09bd
00000090: 2ac9 aabc 6c7e fb3c fe8c 823c 25cd 8d3c
000000a0: 4a30 f63a 1eff 95bc 93fe c53b 1296 08bd
000000b0: fa66 d3bc 50d4 96bc 2c98 b83c 758a ab3c
000000c0: 05c1 81bc 25e8 a8ba 011e bb3c 6f6d 113d
000000d0: 983b 683c e518 9e3b 472a c43c 4a44 acbc
000000e0: 6513 da3b 0ed5 e2bc f7c6 cabc 3a23 97bc
000000f0: 7561 843c 4152 6b3c 314e adbc 9cc6 303c
00000100: 109d a03c dcb5 93bb b7bb b23a 9394 073c
00000110: 2581 b53c 7376 0c3d 6376 e1bc ea6f 56bc
00000120: 8af7 653c ee68 f23c 0a99 fe3c 8213 013d
00000130: 65e7 e83b 416a febc a550 573b c508 b7bc
00000140: e354 08bd 48f9 013d a575 de3c 92ec 11bd
00000150: 770b db3b 7725 c5bb 6595 c0bb 35ed 85bc
00000160: 3305 613c 854a adbc 2182 563c acf4 933c
00000170: 8e71 d13c 9cca 5a3c bdc8 10bd 4aca bdbc
00000180: d715 923c 41f1 f43b f53a e4bc e577 a8bc
00000190: 429e 093d ce23 c53c 1323 7fbc 8545 13bc
000001a0: fc59 0bbd 6e47 28ba d352 dcbc 4cad e1bc
000001b0: eef6 00bb 6eb6 af3b 3ca2 6fbc f79a ad3c
000001c0: 8a0a b2bc 3cbc 043d ca7f c83c 73b8 f6bc
000001d0: 05a2 11bc b739 d33a f7be aa3b e5c7 0a3c
000001e0: 6aa0 653c 5c33 0c3b 07c1 8ebc 0c71 8a3c
000001f0: 0d53 0cbd b768 adbc 8e7a 12bc f583 8ebc
00000200: d7b3 4cbc 43cc efbc 01f0 f8bb f827 fa3b
00000210: ac99 bebc b83b f0ba 0170 d13c 819c 70bb
00000220: 6e19 823a 25eb 49bb 13d8 ec3b 4a07 ba3c
00000230: 8f91 0a3d 9acc b93c bae2 0a3d 2546 29bb
00000240: 5f69 03bd 93b3 8abc a336 c73c 6ec3 72b9
00000250: ec6b 91bc 7133 e0bc dce6 08bd c5ee f6bc
00000260: 8160 edbb ac72 a03c 172d 9e3c 2615 0dbd
00000270: 3580 b63c 9ef0 e4bc 1369 f7bb 6a42 6dbc
00000280: 386a e1bb eec6 e5bb fd44 03bd 059e fcbc
00000290: 2e20 b7bb 4a26 f239 6ae8 84bc 416c 5c3c
000002a0: 6baa 03bd 6ef5 1dbb 82a5 003d d3ac 6ebc
000002b0: b218 043d 65e9 533c 6404 04bd f31b b93c
000002c0: 650b 87bb 1c9b 82bc aaf4 e93c f36c ecbc
000002d0: a527 7b3b 6e05 f5bb d1ed d03c e556 233c
000002e0: 0795 8c3c 01a6 4e3c 4ab6 0cbc 131e f6bb
000002f0: 4a1a f1bc 3387 9e3c 9a4b e83c 452f c83c
00000300: a15f cebc 4ac7 d03a 5c3e cebc 530e a1bc
00000310: a57b aabc 3cf8 473c e158 aebc 4a42 4cba
00000320: 4aed c43a 2a99 bc3c 1e29 ddbc 97da c8bc
00000330: 8ee2 a9bc d1c7 cc3c a156 52bc dcc7 f63c
00000340: 9397 533c 4a30 943b dc62 8bb9 0a58 e7bb
00000350: dcd4 923b 409d 05bc 2591 83b9 0052 953b
00000360: d3d9 e4bc 8c58 99bc d33f ec3c 756f edbc
00000370: 4a11 28bb 25b6 103d 1360 533c 9389 843a
00000380: 9a8b fdbc f5ee 903c 9c64 d0bc e519 26bc
00000390: 3353 44bc f74d adbb 93d0 cc39 ac50 f13c
000003a0: dc18 923b ee06 033d 37f8 b23c bef7 b8bc
000003b0: 3038 833c 4ed1 cebc 8eff 77bc 931a 2c3c
000003c0: a535 413c cc7e db3c e55d 3cbc b8cd 6f38
000003d0: 679f 963c c678 0dbd 0386 d33c 13ef f1bc
000003e0: 2509 013a dcf7 c6bb e716 9abc 8aad 9a3b
000003f0: ccee f13c 770c 2bbc acb2 adbc 9768 58bc

classifier.bias f4 [10]
-0.009154588 0.027739514 -0.011024114 -0.0335211 -0.02821988 -0.01200911 0.03377949 0.015008437
0.030794183 0.018100096
00000000: 20fd 15bc fa3d e33c 7c9e 34bc 6c4d 09bd
00000010: 612d e7bc dcc1 44bc 5d5c 0a3d f3e5 753c
00000020: 1544 fc3c a746 943c

encoder.linear_mapper.weight f4 [16, 16]
0.007096305 -0.16414721 -0.20123303 -0.028749589 -0.13838995 0.1650696 -0.09301191 -0.057040617
0.013453522 0.14914748 -0.05014868 0.09390243 -0.18239342 -0.24992715 -0.06441194 0.0590481
0.14088626 0.08503316 0.23659886 -0.09392668 0.048411213 0.20496896 -0.14046861 0.15274173
-0.15650633 0.16730665 0.13860486 0.21914418 0.049180817 0.041794077 -0.071511514 0.24879476
-0.0022032205 -0.021158662 0.025012814 0.11524727 -0.15355614 -0.19320014 -0.07659136 0.0896908
-0.033337165 -0.039426055 0.040578764 0.017477062 0.12382769 -0.10689146 0.2678532 0.08291285
0.13072203 0.07400681 -0.16516216 0.24498042 -0.06486626 -0.15862471 0.122523546 0.090777814
-0.11717521 -0.1645469 0.1869625 -0.23218997 -0.023280626 -0.06853134 -0.22688238 0.022101136
-0.26929528 -0.020147944 -0.09447843 0.10060854 -0.09607895 -0.26309487 -0.079687595 0.13484618
-0.16089441 0.1828433 0.11420727 -0.052811205 -0.0062463703 0.20373383 0.031248314 0.050910883
-0.006968509 -0.060043693 -0.21822147 -0.14432342 0.23901673 0.12336172 0.010620738 0.21402031
-0.031122087 0.10719531 -0.11783109 0.18336084 0.19632885 0.08213204 -0.0040329937 0.15381867
0.12897661 0.11327839 -0.13955674 -0.08102263 -0.08221588 -0.17302112 0.008440862 0.17029284
0.11919268 -0.09478634 0.076173514 -0.06424599 0.24220198 -0.24501148 0.04196057 -0.22356519
0.14750414 0.27077967 0.30630976 0.093434945 0.033532105 0.108485326 -0.018068653 0.3178471
0.10645032 0.08462449 -0.100198045 0.2020786 -0.24393353 -0.27963278 -0.115327895 -0.054493167
0.15943433 0.0838114 0.18155569 0.058710095 0.21985963 0.23871383 -0.13462923 0.2810651
0.0648052 0.0709746 0.10150539 0.11975429 0.006678375 -0.060931638 -0.08086347 -0.20588298
-0.122258134 -0.35363704 -0.049331237 -0.28804907 0.096665956 -0.36707607 0.079249635 -0.023945801
-0.309528 -0.022560254 -0.2292297 -0.18798813 -0.10708492 -0.17807655 -0.011310642 0.17085348
-0.22812134 0.22766744 -0.12176933 -0.036812313 0.16406687 -0.093463585 -0.10525486 -0.07651446
0.11906311 0.0060648182 0.23997335 0.106801055 -0.16572358 -0.117669724 0.08929002 0.06181359
-0.029243782 0.06263439 0.09786241 -0.13222653 -0.026715936 0.06547274 0.09902694 -0.008891955
0.10702723 0.049949277 -0.23415394 -0.24304704 -0.05755677 -0.0074814805 -0.24439006 -0.21960609
-0.22700636 0.082672335 0.21576573 0.22860351 -0.15682326 0.2557272 -0.042186167 -0.17654285
0.20053603 0.26730198 0.034278303 -0.046072062 0.09625747 0.17815575 0.1645201 -0.091177806
0.012583394 0.059632935 -0.012014596 -0.009101594 0.03438785 0.040957466 0.10830893 -0.1459408
0.15479632 -0.06376961 -0.21386158 0.12496717 -0.19071159 -0.24901825 -0.06611483 0.21444221
-0.21259464 0.043106742 -0.24394935 0.011730269 0.14236557 -0.05618737 -0.24644296 -0.215688
-0.20019844 -0.09808741 -0.14428538 0.05951565 0.015788553 -0.21380699 -0.016170291 -0.27121368
0.2279848 0.016389005 0.17624995 0.13489464 -0.18307245 0.15045738 -0.26910138 -0.25789335
0.10021643 -0.15766308 -0.2221108 -0.18806866 -0.1719965 -0.23411106 -0.020938288 -0.23721093
00000000: 1f88 e83b 3516 28be 0810 4ebe 4284 ebbc
00000010: 18b6 0dbe 0108 293e 077d bebd 6ca3 69bd
00000020: 296c 5c3c 1eba 183e b468 4dbd eb4f c03d
00000030: 57c5 3abe e7ec 7fbe 68ea 83bd 6cdc 713d
00000040: 7d44 103e de25 ae3d f946 723e a25c c0bd
00000050: d64a 463d 62e3 513e 01d7 0fbe 5468 1c3e
00000060: 3243 20be 6f52 2b3e 6fee 0d3e 5567 603e
00000070: d371 493d 4430 2b3d a174 92bd 0ec4 7e3e
00000080: e863 10bb ee54 adbc ace7 cc3c c306 ec3d
00000090: d23d 1dbe 42d6 45be eedb 9cbd cfaf b73d
000000a0: 8d8c 08bd 377d 21bd eb35 263d 0e2c 8f3c
000000b0: 5f99 fd3d e9e9 dabd 0e24 893e 36ce a93d
000000c0: ffdb 053e e290 973d 4520 29be 26dc 7a3e
000000d0: 9ad8 84bd 846e 22be a0ed fa3d b8e9 b93d
000000e0: 8ef9 efbd fc7e 28be 1973 3f3e 35c3 6dbe
000000f0: 03b7 bebc 295a 8cbd db53 68be 710d b53c
00000100: 12e1 89be 4d0d a5bc e87d c1bd da0b ce3d
00000110: 0ac5 c4bd 5fb4 86be 4033 a3bd 1e15 0a3e
00000120: 81c1 24be 463b 3b3e 80e5 e93d 9050 58bd
00000130: 5aae ccbb 9a9f 503e 77fc ff3c ee87 503d
00000140: 1758 e4bb 60f0 75bd 7375 5fbe 85c9 13be
00000150: cdc0 743e 12a5 fc3d 9b02 2e3c 2428 5b3e
00000160: bff3 febc 3789 db3d 6d51 f1bd f2c2 3b3e
00000170: 6e0a 493e d834 a83d 3427 84bb a482 1d3e
00000180: 7212 043e 80fe e73d f6e7 0ebe 31ef a5bd
00000190: cd60 a8bd 732c 31be 8b4b 0a3c 3f61 2e3e
000001a0: 4b1b f43d 571f c2bd dc00 9c3d 6793 83bd
000001b0: cc03 783e 4ae4 7abe d9de 2b3d 46ee 64be
000001c0: 530b 173e a2a3 8a3e a2d4 9c3e d25a bf3d
000001d0: f658 093d 8e2d de3d b604 94bc dbbc a23e
000001e0: a002 da3d 9b4f ad3d a234 cdbd b1ed 4e3e
000001f0: b6c9 79be 072c 8fbe 0831 ecbd 3a34 5fbd
00000200: c142 233e 50a5 ab3d bce9 393e ff79 703d
00000210: e222 613e 6671 743e 3fdc 09be c4e7 8f3e
00000220: 97b8 843d 225b 913d 0fe2 cf3d bd41 f53d
00000230: 45d6 da3b 7493 79bd bf9b a5bd fdd2 52be
00000240: 7962 fabd ea0f b5be 8d0f 4abd 2b7b 93be
00000250: cdf8 c53d 65f1 bbbe a24d a23d fc29 c4bc
00000260: 747a 9ebe 48d0 b8bc 31bb 6abe f67f 40be
00000270: 574f dbbd b359 36be 4550 39bc 37f4 2e3e
00000280: a498 69be a721 693e 3362 f9bd 82c8 16bd
00000290: 2501 283e d669 bfbd dc8f d7bd 9db3 9cbd
000002a0: 5cd7 f33d 62bb c63b 93bb 753e 83ba da3d
000002b0: 71b3 29be d3fc f0bd b0dd b63d 3f30 7d3d
000002c0: a890 efbc 7646 803d 166c c83d 6466 07be
000002d0: 61db dabc 9216 863d a3ce ca3d 90af 11bc
000002e0: 1831 db3d 9d97 4c3d 0dc6 6fbe 53e1 78be
000002f0: a6c0 6bbd 3527 f5bb 6341 7abe 6be0 60be
00000300: 5b74 68be 1d50 a93d b1f1 5c3e 0a17 6a3e
00000310: 4796 20be adee 823e 67cb 2cbd a6c7 34be
00000320: 5159 4d3e cedb 883e 6867 0c3d 0fb6 3cbd
00000330: a322 c53d 766e 363e f577 283e 6ebb babd
00000340: 942a 4e3c aa41 743d ded8 44bc da1e 15bc
00000350: 46da 0c3d 04c3 273d 13d1 dd3d 8171 15be
00000360: ed82 1e3e a499 82bd 88fe 5abe caee ff3d
00000370: e649 43be a4fe 7ebe 3667 87bd bd96 5b3e
00000380: 69b2 59be b290 303d dccd 79be 5030 403c
00000390: 48c8 113e ba24 66bd 8b5b 7cbe 51dd 5cbe
000003a0: d200 4dbe 0de2 c8bd 8cbf 13be afc6 733d
000003b0: ff56 813c 38f0 5abe 8f77 84bc 85dc 8abe
000003c0: d974 693e 3c42 863c de7a 343e d221 0a3e
000003d0: 5877 3bbe 8011 1a3e a8c7 89be 990a 84be
000003e0: 463e cd3d 6e72 21be 0371 63be 1295 40be
000003f0: da1f 30be cfba 6fbe c686 abbc 6ce7 72be

encoder.linear_mapper.bias f4 [16]
-0.053540096 0.16486487 -0.1629473 0.14977808 0.24944808 -0.03586734 -0.05100456 -0.2328478
0.22782367 0.13770373 -0.021313943 0.12373979 -0.21004784 -0.18875483 0.21987295 -0.25498515
00000000: dc4c 5bbd 56d2 283e a8db 26be 6d5f 193e
00000010: 516f 7f3e a2e9 12bd 28ea 50bd a76f 6ebe
00000020: 9c4a 693e 3502 0d3e 949a aebc 496b fd3d
00000030: c816 57be f248 41be 6026 613e 6a8d 82be

encoder.blocks.0.norm1.weight f4 [16]
1.0150919 1.0839812 0.99695235 1.0396177 0.99863666 1.0115644 1.0346422 1.0687296
1.0097939 1.0260482 1.0034716 1.0062034 1.0108354 0.9818854 1.0335172 0.9998991
00000000: 88ee 813f e5bf 8a3f 4538 7f3f 3112 853f
00000010: a7a6 7f3f f17a 813f 286f 843f 22cc 883f
00000020: ed40 813f 8c55 833f c271 803f 46cb 803f
00000030: 0e63 813f d75c 7b3f 4b4a 843f 63f9 7f3f

encoder.blocks.0.norm1.bias f4 [16]
0.0067415955 0.016115949 0.018144779 -0.022014145 0.009468654 -0.005234774 0.0076552234 -0.005572416
0.0015119541 -0.0025666503 0.00080321525 0.0035826052 0.002667601 -0.017181698 -0.020809095 -0.0077621276
00000000: 9ae8 dc3b 9805 843c 5ca4 943c 0257 b4bc
00000010: 6a22 1b3c 7888 abbb abd8 fa3b d098 b6bb
00000020: c32c c63a 3f35 28bb dd8e 523a 24ca 6a3b
00000030: ebd2 2e3b a2c0 8cbc d677 aabc 7259 febb

encoder.blocks.0.mhsa.W_q.weight f4 [16, 16]
0.001206495 -0.1167675 -0.26458403 0.04623443 -0.14217201 -0.054285914 0.004385351 0.03794507
0.108960405 -0.25617704 0.17773676 0.14937028 -0.17921415 0.0746788 -0.09549352 0.18874514
-0.12659115 0.14859997 -0.1450049 -0.13674243 0.12894486 0.073828794 -0.13919038 0.18967137
0.012981164 0.10556147 -0.13184135 0.039751153 0.07487838 0.12928468 0.2576525 0.14291532
0.22488897 -0.13029894 -0.19276884 0.06508748 -0.025918627 -0.015917746 -0.19728155 -0.026878696
-0.009013879 0.1456554 0.12976536 0.039125223 0.183324 -0.036419272 0.22519356 -0.21851787
-0.08259585 -0.11209055 0.13810225 -0.02830339 -0.21159223 -0.049613487 0.01199616 0.20152125
0.21391511 -0.21804099 -0.10985479 -0.10644196 -0.022675972 0.12810525 -0.06333012 0.232307
0.093634844 0.16911075 -0.041170776 0.1671231 0.08724128 0.037555683 -0.027534632 0.053209897
-0.030883323 -0.17086396 -0.06845919 -0.18340681 0.073409766 0.16640645 -0.11767858 0.05689202
-0.2593695 0.071754254 -0.2567897 -0.109156035 0.017286634 -0.071438916 0.15635863 -0.04054745
0.14753303 0.12330823 0.059283745 -0.22345817 -0.15328437 -0.04052745 -0.030480439 0.12246137
0.11137636 0.013433971 -0.21478096 -0.27570048 0.17659238 -0.07622299 -0.14786084 0.0013931906
0.17499924 0.054159798 0.11005328 0.017820328 -0.03484138 0.30011278 -0.27522892 0.089143254
-0.17520103 -0.13386148 -0.21651939 0.12896858 -0.03395064 0.111710325 0.009544563 0.06806177
-0.23592255 -0.10342211 -0.06545904 -0.19675136 0.12141417 0.12558459 -0.08717825 -0.18972576
-0.19509383 -0.13031173 -0.21528658 -0.16475496 0.17446905 -0.09175844 -0.24025825 0.24559519
0.23702334 0.052573625 -0.091765806 -0.07057131 0.031838953 0.07458822 -0.22930129 0.17642932
0.08465362 0.23156811 0.1415665 -0.22713429 0.316614 -0.035967357 -0.23841041 0.25205472
-0.07928352 -0.07357504 -0.01013561 0.22468537 -0.0066280533 -0.15528038 -0.27788013 0.11833183
-0.053893976 0.047960106 0.21610494 -0.1512359 -0.14196433 -0.06882303 -0.012064962 -0.10976295
0.2177974 -0.16852771 0.1582347 0.08099007 0.25476548 -0.26067954 0.20093185 -0.088945866
0.020713743 0.04640894 0.21945012 0.08095195 -0.1782742 0.14485654 -0.058449544 -0.030338345
-0.08945932 -0.13606872 0.17739648 0.14289302 0.20381987 -0.1605778 0.079252206 -0.010693693
-0.2662199 0.18372259 0.011329494 0.006703904 0.26715386 -0.09735534 0.2570266 -0.004647392
0.2872407 -0.057615463 -0.3482091 0.22746886 0.001113975 -0.14236799 -0.028828429 0.028719097
-0.03283599 0.112649135 0.034393128 -0.16961856 0.11564445 -0.2930296 0.10082608 0.14893666
0.2540058 0.21116988 0.045319945 0.1439359 -0.026825793 -0.12153059 -0.25748286 0.23170328
0.1052457 0.08785118 0.1028479 -0.20640908 0.09848295 -0.05312662 -0.062649585 -0.054833367
0.15378201 0.19465488 0.1609631 -0.12785423 0.11661891 0.050090283 0.23795612 -0.009670339
-0.15778035 0.08662592 -0.13728686 0.0739379 0.021821782 0.2391338 0.22185358 0.13840154
-0.28135815 -0.060782515 0.147913 -0.11847791 -0.05967541 0.17317587 -0.06820788 -0.29969755
00000000: 4123 9e3a cd23 efbd 8f77 87be 5060 3d3d
00000010: 8a95 11be e85a 5ebd feb2 8f3b 4a6c 1b3d
00000020: a226 df3d a329 83be a000 363e 86f4 183e
00000030: ea83 37be 33f1 983d 1b92 c3bd 6846 413e
00000040: 1ca1 01be 972a 183e 2a7c 14be 3506 0cbe
00000050: 1f0a 043e 8d33 973d ec87 0ebe 3639 423e
00000060: f3ae 543c 9d30 d83d 6b01 07be 1bd2 223d
00000070: d659 993d 3463 043e 07eb 833e 6558 123e
00000080: 4b49 663e 166d 05be 3265 45be 964c 853d
00000090: 4d53 d4bc ef65 82bc 2d04 4abe b630 dcbc
000000a0: f3ae 13bc b026 153e 36e1 043e c541 203d
000000b0: 49b9 3b3e 602c 15bd 2499 663e 26c3 5fbe
000000c0: 0328 a9bd bb8f e5bd ad6a 0d3e 83dc e7bc
000000d0: a2ab 58be 8337 4bbd 8b8b 443c 965b 4e3e
000000e0: 900c 5b3e 2346 5fbe 8cfb e0bd 3efe d9bd
000000f0: f6c2 b9bc 062e 033e 39b3 81bd e3e1 6d3e
00000100: a0c3 bf3d 5e2b 2d3e b0a2 28bd 5122 2b3e
00000110: 8eab b23d fdd3 193d 4f90 e1bc 9ff2 593d
00000120: 06ff fcbc f6f6 2ebe 5534 8cbd ffce 3bbe
00000130: dc57 963d 7466 2a3e 7801 f1bd 9b07 693d
00000140: 14cc 84be e5f3 923d f179 83be 338d dfbd
00000150: b39c 8d3c 914e 92bd 7a1c 203e 1515 26bd
00000160: e612 173e 0689 fc3d 83d3 723d 38d2 64be
00000170: 94f6 1cbe 1d00 26bd 1db2 f9bc 07cd fa3d
00000180: 4a19 e43d 291a 5c3c 8aef 5bbe 9d28 8dbe
00000190: a2d4 343e cd1a 9cbd d568 17be b89b b63a
000001a0: 0033 333e aad6 5d3d 9d63 e13d f0fb 913c
000001b0: d6b5 0ebd 62a8 993e ceea 8cbe bd90 b63d
000001c0: e667 33be fc12 09be 42b7 5dbe 5710 043e
000001d0: d40f 0bbd 62c8 e43d cc60 1c3c f863 8b3d
000001e0: ae95 71be f9ce d3bd 640f 86bd 3079 49be
000001f0: fea7 f83d 3f99 003e 838a b2bd 7847 42be
00000200: adc6 47be 7070 05be 1674 5cbe 86b5 28be
00000210: 04a8 323e d9eb bbbd 4206 76be 4e7d 7b3e
00000220: 3fb6 723e 7157 573d b6ef bbbd b187 90bd
00000230: 9069 023d b5c1 983d f5cd 6abe e3a9 343e
00000240: e15e ad3d 3120 6d3e cff6 103e e495 68be
00000250: 3b1b a23e 8252 13bd dc21 74be 510d 813e
00000260: 665f a2bd 83ae 96bd d40f 26bc ec13 663e
00000270: 2430 d9bb d201 1fbe 4e46 8ebe f557 f23d
00000280: eebf 5cbd d171 443d 9d4a 5d3e 95dd 1abe
00000290: 195f 11be 17f3 8cbd 1eac 45bc 66cb e0bd
000002a0: 4806 5f3e 8792 2cbe 4708 223e 1fde a53d
000002b0: 9f70 823e ca77 85be 14c1 4d3e 4029 b6bd
000002c0: deaf a93c 4d17 3e3d 88b7 603e 23ca a53d
000002d0: 838d 36be 4655 143e ca68 6fbd 1f88 f8bc
000002e0: 7336 b7bd 9955 0bbe 6ca7 353e 8c52 123e
000002f0: 28b6 503e 826e 24be fb4e a23d 9934 2fbc
00000300: fa4d 88be c621 3c3e 589f 393c 6cac db3b
00000310: 64c8 883e 3d62 c7bd fe98 833e 2649 98bb
00000320: 3711 933e 31fe 6bbd 7748 b2be 99ed 683e
00000330: cc02 923a eac8 11be 9929 ecbc 5044 eb3c
00000340: 087f 06bd 97b4 e63d cfdf 0c3d 7db0 2dbe
00000350: ffd6 ec3d fa07 96be e77d ce3d da82 183e
00000360: 0c0d 823e eb3c 583e 68a1 393d ef63 133e
00000370: c4c1 dbbc 08e5 f8bd cbd4 83be a043 6d3e
00000380: 0f8b d73d 52eb b33d eba1 d23d e75c 53be
00000390: 6eb1 c93d 4c9b 59bd 6d4e 80bd f498 60bd
000003a0: 0879 1d3e 9c53 473e 83d3 243e 38ec 02be
000003b0: e5d5 ee3d 782b 4d3d c5aa 733e 5770 1ebc
000003c0: 2c91 21be ee68 b13d ed94 0cbe c16c 973d
000003d0: 98c3 b23c 7edf 743e 962d 633e 22b9 0d3e
000003e0: 2d0e 90be 16f7 78bd 8176 173e 8ca4 f2bd
000003f0: 346e 74bd 0455 313e 93b0 8bbd f571 99be

encoder.blocks.0.mhsa.W_q.bias f4 [16]
-0.23753719 -0.15202853 0.019690737 0.18643083 -0.036497824 -0.17574067 0.24613342 -0.03254072
-0.035276085 0.051739633 0.092073426 -0.1068214 0.20024873 0.23416871 -0.19482887 0.1553739
00000000: f33c 73be 5ead 1bbe 784e a13c b9e7 3e3e
00000010: be7e 15bd 5df5 33be 660a 7c3e 6b49 05bd
00000020: a87d 10bd f0ec 533d fe90 bc3d 2ec5 dabd
00000030: 010e 4d3e ecc9 6f3e 3881 47be 561a 1f3e

encoder.blocks.0.mhsa.W_k.weight f4 [16, 16]
0.18231715 -0.043804362 0.19664915 -0.06495524 -0.09311291 0.07845917 -0.16799301 -0.09575498
-0.20045029 0.033437945 -0.109062076 -0.034160927 -0.0834995 0.23553504 0.1068847 -0.182538
-0.16357946 -0.013674009 0.038475033 0.20421539 0.22141781 -0.18141909 0.24550411 0.16370289
-0.20444967 -0.16151713 -0.17846596 0.0035880066 -0.113814205 -0.19414344 -0.04576931 0.16685483
-0.0395401 -0.14307779 -0.12764266 0.07540273 0.08737323 -0.09212924 -0.23131226 0.11912649
-0.05324582 -0.31588617 0.19033006 0.11911953 0.0045528654 -0.06840432 0.0873298 -0.2678273
-0.07273793 -0.14009458 -0.3512436 0.24764508 -0.1858216 -0.13126045 0.10001454 0.23571052
-0.08553253 0.3312515 0.060324993 -0.1312273 -0.21084973 -0.06695916 0.08247966 0.19983785
-0.123888716 -0.021488298 0.18566598 -0.007908131 0.07330964 0.028360294 -0.13484813 -0.11754039
0.27959254 -0.18111077 0.07823301 -0.0109713245 0.029422862 -0.03972055 -0.098505974 -0.15334328
0.13805291 -0.1396699 0.022141311 0.19080296 0.16372217 -0.19509135 -0.1094297 -0.1784847
-0.04614925 0.14358759 0.13129973 0.33281985 -0.16038424 0.20432936 -0.04786549 0.014825918
0.18963668 -0.22830012 0.027648117 -0.21293722 0.10478889 0.14734255 0.24043147 -0.121703096
-0.19641608 0.21955156 -0.15539844 0.009362417 -0.17080554 0.12051676 0.09215547 0.10230702
-0.003860306 0.07110706 -0.2145068 0.2573718 -0.21563035 0.01710971 -0.1722886 -0.12916604
0.14234588 0.11052424 0.11303123 -0.026335992 0.12583497 0.20181863 -0.17993245 -0.15548569
0.08319354 0.30448613 0.16996016 -0.025723323 0.24764654 -0.16877413 0.10614307 0.19911098
0.030227 0.023416663 0.22344114 -0.21050234 0.3409809 0.057268046 0.06801758 0.09095201
0.1355989 0.26482475 0.18658775 -0.3314454 -0.23948711 0.06816534 0.3025343 -0.14152096
0.22597702 -0.065144844 0.2087566 -0.08277953 0.31397513 -0.19727008 -0.2888056 0.05489123
-0.12539896 0.20239978 0.033617806 -0.09989739 0.21610467 0.24718618 -0.12484042 0.14608455
0.11891565 -0.2779063 0.02674127 -0.27561274 0.05510239 -0.24217023 0.10607418 0.20236763
0.19149914 0.09768347 -0.10535328 0.11170388 0.08299777 0.14068213 -0.03177249 0.28974718
-0.10250105 -0.36403462 0.06077081 0.08928562 0.06819716 -0.07326335 -0.3719153 0.23109874
-0.34742934 -0.04587495 0.016174788 -0.10950965 -0.03230464 -0.38219577 0.09304992 -0.035344478
-0.041403018 -0.082384445 0.011836138 0.24663661 0.10263094 -0.04366181 -0.083173215 0.08446484
0.13433221 0.07742164 0.013928171 -0.048598338 0.080966555 -0.34488478 0.11246914 -0.071989015
-0.064595595 -0.22655411 -0.04368077 0.12270066 0.17604056 -0.06679068 0.0019695773 0.24408787
0.0040342994 0.18866457 0.22713062 0.21340112 0.110284574 0.21050575 0.23106763 -0.0056236
0.30833593 -0.18386424 -0.034191303 0.0552488 -0.087078705 -0.12616895 -0.036846783 -0.020748492
-0.008953201 -0.013714624 0.08554024 0.2192275 -0.048951842 0.10116433 0.039450053 0.17613773
0.18927987 0.0034479396 -0.08206627 -0.07050876 -0.09035498 -0.1260852 -0.05276814 0.14562912
00000000: 59b1 3a3e 346c 33bd 655e 493e 4107 85bd
00000010: fbb1 bebd 34af a03d 5c06 2cbe 301b c4bd
00000020: d742 4dbe 3af6 083d f05b dfbd 54ec 0bbd
00000030: c901 abbd 1930 713e 5ee6 da3d 3eeb 3abe
00000040: 6081 27be f308 60bc ff97 1d3d d71d 513e
00000050: 5abb 623e edc5 39be 6e65 7b3e bba1 273e
00000060: 415b 51be bf64 25be c8bf 36be c324 6b3b
00000070: 6c17 e9bd 8acd 46be 9a78 3bbd fedb 2a3e
00000080: cdf4 21bd fc82 12be c2b4 02be bf6c 9a3d
00000090: bcf0 b23d 41ae bcbd 1fdd 6cbe 97f8 f33d
000000a0: 4a18 5abd d5bb a1be e2e5 423e f1f4 f33d
000000b0: 3430 953b 9017 8cbd f7d9 b23d a920 89be
000000c0: a0f7 94bd f474 0fbe 33d6 b3be ac96 7d3e
000000d0: 0448 3ebe 2469 06be 6cd4 cc3d 195e 713e
000000e0: ae2b afbd cc99 a93e 5717 773d 7360 06be
000000f0: fee8 57be e221 89bd 19eb a83d 4ba2 4c3e
00000100: 5eb9 fdbd 3a08 b0bc 391f 3e3e 1b91 01bc
00000110: 5d23 963d d953 e83c a115 0abe 04b9 f0bd
00000120: c126 8f3e 1a75 39be a138 a03d 12c1 33bc
00000130: 3708 f13c 04b2 22bd 80bd c9bd 0506 1dbe
00000140: be5d 0d3e a005 0fbe b261 b53c da61 433e
00000150: c9a6 273e 07c6 47be ae1c e0bd b1c4 36be
00000160: ff06 3dbd a008 133e 7073 063e 5d67 aa3e
00000170: c43b 24be b73b 513e 9b0e 44bd 68e8 723c
00000180: 1e30 423e 82c7 69be 4e7e e23c 370c 5abe
00000190: 8f9b d63d f7e0 163e ab33 763e 793f f9bd
000001a0: 4c21 49be 20d2 603e c520 1fbe d364 193c
000001b0: a6e7 2ebe 7ed1 f63d 02bc bc3d 5886 d13d
000001c0: 30fd 7cbb 94a0 913d aca7 5bbe 3dc6 833e
000001d0: 34ce 5cbe aa29 8c3c 6c6c 30be 1a44 04be
000001e0: 1ec3 113e 885a e23d eb7c e73d 94be d7bc
000001f0: e2da 003e 8ba9 4e3e 3640 38be a437 1fbe
00000200: 6061 aa3d 9be5 9b3e 090a 2e3e b8b9 d2bc
00000210: 0e97 7d3e 20d3 2cbe 8a61 d93d c0e3 4b3e
00000220: 9d9e f73c 4dd4 bf3c c1cd 643e ed8d 57be
00000230: 0c95 ae3e e691 6a3d cd4c 8b3d 0c45 ba3d
00000240: 70da 0a3e 1c97 873e dc10 3f3e 36b3 a9be
00000250: 1c3c 75be 459a 8b3d c7e5 9a3e dfea 10be
00000260: 8566 673e a96a 85bd 4ac4 553e 5088 a9bd
00000270: 59c1 a03e 2b01 4abe 54de 93be a0d5 603d
00000280: 9668 00be e341 4f3e d3b2 093d 0197 ccbd
00000290: 8b4a 5d3e 601e 7d3e 56ac ffbd 3097 153e
000002a0: 0c8a f33d bc49 8ebe 8210 db3c 1d1d 8dbe
000002b0: 0bb3 613d 79fb 77be 6b3d d93d 7639 4f3e
000002c0: 5a18 443e 450e c83d 76c3 d7bd 01c5 e43d
000002d0: bcfa a93d fa0e 103e df23 02bd be59 943e
000002e0: 12ec d1bd bf62 babe d0ea 783d 61db b63d
000002f0: f4aa 8b3d 180b 96bd af6b bebe 26a5 6c3e
00000300: 42e2 b1be 5fe7 3bbd fd80 843c 9846 e0bd
00000310: df51 04bd 2aaf c3be f590 be3d 5fc5 10bd
00000320: 3696 29bd 2db9 a8bd 5cec 413c 4f8e 7c3e
00000330: 2c30 d23d bad6 32bd b856 aabd e7fb ac3d
00000340: 628e 093e 3d8f 9e3d fc32 643c 0d0f 47bd
00000350: cbd1 a53d bd94 b0be 3856 e63d fa6e 93bd
00000360: b24a 84bd cdfd 67be 9bea 32bd 7c4a fb3d
00000370: fa43 343e 8dc9 88bd 0614 013b 2cf2 793e
00000380: 2832 843b 4931 413e ee94 683e d385 5a3e
00000390: e1dc e13d d28e 573e fe9c 6c3e 2d46 b8bb
000003a0: 35de 9d3e e846 3cbe 2e0c 0cbd 914c 623d
000003b0: 5256 b2bd 6f32 01be a7ec 16bd bef8 a9bc
000003c0: 72b0 12bc 4db3 60bc b92f af3d 2c7d 603e
000003d0: ba81 48bd 3f2f cf3d 6196 213d 735d 343e
000003e0: 95d2 413e d4f6 613b 5c12 a8bd e666 90bd
000003f0: 080c b9bd 7b1c 01be 6823 58bd cd1f 153e

encoder.blocks.0.mhsa.W_k.bias f4 [16]
0.07480167 -0.11714746 0.14210774 0.021582896 0.008439412 0.095955834 -0.13963313 -0.026446152
0.18942492 0.16316155 0.14169683 -0.033084825 0.028916331 0.16555662 0.043476716 0.13731389
00000000: 9e31 993d 02eb efbd b184 113e 9dce b03c
00000010: 7645 0a3c 7e84 c43d fdfb 0ebe 9aa5 d8bc
00000020: 9bf8 413e d213 273e f918 113e f483 07bd
00000030: f1e1 ec3c ad87 293e a414 323d 039c 0c3e

encoder.blocks.0.mhsa.W_v.weight f4 [16, 16]
0.10074402 0.09618283 0.09356542 -0.18212575 -0.18556736 -0.2689263 0.21399593 -0.10224684
-0.1658247 0.05489327 -0.07029768 0.101497255 -0.08714586 0.21659091 -0.26846892 -0.23295978
0.2181384 -0.120520145 0.054856855 0.088741355 0.026686532 -0.15735061 0.022284048 -0.152818
0.21655314 0.040789288 0.18324451 0.17864773 0.103135295 0.089788415 0.14159977 -0.16079678
0.18572786 -0.04261051 0.20251079 -0.023438536 0.14731283 0.18191373 0.05305545 -0.0591994
0.09933524 -0.24981652 -0.030216731 -0.0513916 -0.18975367 -0.01157335 0.054810047 -0.2397346
0.18777004 0.14992386 0.2258123 -0.11668477 -0.12426357 0.13994493 0.24822907 -0.11423084
-0.122347504 -0.0048978883 0.19953182 -0.025257261 -0.25119218 -0.090015665 -0.16655599 0.19278452
-0.18323202 0.20502585 0.09412596 -0.026876073 -0.044129606 0.14070073 -0.14175317 -0.08800017
0.22611034 -0.097600386 0.025220761 0.20113635 -0.19361688 0.04106048 -0.0011871546 -0.13550162
0.20344178 0.15580928 -0.018165799 -0.025159437 0.1348159 -0.085142545 0.14371896 -0.17325002
-0.20740958 0.16790451 0.17068776 -0.19262049 -0.05738058 0.10727325 0.13933302 0.15330991
0.1668382 -0.10855418 0.049269777 0.2024628 -0.1876271 0.1590054 0.07756617 0.0222497
0.26620126 -0.09591434 -0.080590054 -0.17873397 0.2028307 -0.1720305 0.20015067 -0.1836409
0.13802952 -0.13614152 0.20605047 -0.18232346 -0.15571102 -0.07125277 -0.2015774 0.2723761
0.11286908 -0.12794898 -0.19615754 -0.07383129 0.02819049 -0.10428799 0.12995267 -0.12029252
0.0628706 0.16670457 -0.18511754 -0.20427315 -0.2276635 0.035921235 0.21457815 -0.16766024
-0.026506485 0.17128287 0.18532047 0.14469819 0.06604243 0.05711565 0.010621639 0.23034859
0.022972837 0.11877661 -0.008309223 0.20644005 -0.28070453 -0.069525905 -0.2569043 0.060749505
-0.06380974 -0.21926236 -0.18104659 0.06309215 0.19979754 0.19984525 0.18169653 -0.21141253
0.23040214 0.24932624 0.043901417 -0.26375997 -0.16374227 -0.20539548 0.02241406 0.16322732
0.13754208 -0.13977665 -0.090052925 0.041556887 -0.11513388 -0.041766535 0.0936899 -0.10721917
0.08543767 -0.050147418 0.24381271 -0.23438962 0.21954058 0.15816148 -0.21758215 -0.03961562
-0.04052307 0.12284814 0.17417432 -0.12869006 -0.1454892 -0.17751597 0.18487729 -0.19578548
-0.19675173 0.25121245 0.11279006 0.1453692 0.27789718 -0.24606825 -0.038295943 0.0060446197
0.2545912 -0.045082133 -0.0409303 0.16575676 0.10862397 -0.13795312 -0.24500611 -0.06962472
0.06607816 0.24475367 0.09562187 0.13567548 0.11846657 -0.06780522 -0.03504971 0.26614404
0.07649398 0.055400006 0.14126752 0.18793939 0.070057586 -0.018365353 -0.13150297 -0.15672049
-0.16716439 0.19045739 0.16801077 -0.17891689 0.24905457 -0.09509975 -0.023791086 0.118806206
-0.15571827 -0.115808114 -0.07227208 -0.044824403 0.09591016 -0.02161941 -0.25922242 -0.1884282
0.24528235 0.11941457 -0.24886829 -0.19809853 -0.14694422 0.22937708 0.12985817 0.08324116
0.14155959 0.039265294 0.18302107 -0.20433235 0.20059584 0.109892935 0.08337878 0.15153278
00000000: e152 ce3d 81fb c43d 3a9f bf3d 2c7f 3abe
00000010: 5f05 3ebe b5b0 89be c021 5b3e cb66 d1bd
00000020: f3cd 29be c4d7 603d 3bf8 8fbd cbdd cf3d
00000030: 8779 b2bd 02ca 5d3e c274 89be 028d 6ebe
00000040: ac5f 5f3e 44d3 f6bd 95b1 603d 07be b53d
00000050: b79d da3c 8520 21be 098d b63c 527c 1cbe
00000060: 1bc0 5d3e ab12 273d 73a4 3b3e 6eef 363e
00000070: 9938 d33d fde2 b73d 88ff 103e e9a7 24be
00000080: 722f 3e3e 5c88 2ebd fd5e 4f3e 2c02 c0bc
00000090: 2dd9 163e 9847 3a3e ac50 593d 127b 72bd
000000a0: 4670 cb3d e7cf 7fbe 1489 f7bc 0080 52bd
000000b0: c94e 42be 269e 3dbc 8080 603d fd7c 75be
000000c0: ca46 403e a485 193e 573b 673e 6df8 eebd
000000d0: e67d febd b94d 0f3e c32f 7e3e dcf1 e9bd
000000e0: 5491 fabd 777e a0bb 1252 4c3e 51e8 cebc
000000f0: 439c 80be 225a b8bd a78d 2abe 4e69 453e
00000100: 2da1 3bbe 4cf2 513e 1cc5 c03d 362b dcbc
00000110: 3fc1 34bd da13 103e be27 11be 6f39 b4bd
00000120: 7889 673e b6e2 c7bd c59b ce3c b0f6 4d3e
00000130: 8143 46be 092f 283d 4c9a 9bba f0c0 0abe
00000140: 0b53 503e 788c 1f3e 71d0 94bc 2a1b cebc
00000150: 2e0d 0a3e 375f aebd 102b 133e 7468 31be
00000160: 2d63 54be 29ef 2b3e c6c8 2e3e 4e3e 45be
00000170: e607 6bbd 14b2 db3d 51ad 0e3e 46fd 1c3e
00000180: a2d7 2a3e a751 debd 1bcf 493d 6952 4f3e
00000190: 5221 40be 50d2 223e 03db 9e3d 0145 b63c
000001a0: 884b 883e bd6e c4bd 660c a5bd 0a06 37be
000001b0: dab2 4f3e c328 30be 4cf4 4c3e 5c0c 3cbe
000001c0: 9c57 0d3e af68 0bbe e5fe 523e 00b3 3abe
000001d0: b672 1fbe f9ec 91bd 4e6a 4ebe e174 8b3e
000001e0: e727 e73d 0f05 03be 86dd 48be dc34 97bd
000001f0: beef e63c f194 d5bd 5012 053e ed5b f6bd
00000200: 4dc2 803d 9ab4 2a3e 748f 3dbe fb2c 51be
00000210: 9f20 69be 2522 133d 60ba 5b3e 20af 2bbe
00000220: 2124 d9bc c764 2f3e a6c4 3d3e c32b 143e
00000230: 4141 873d 1af2 693d 6206 2e3c 80e0 6b3e
00000240: 8831 bc3c 2741 f33d 6823 08bc 0565 533e
00000250: 81b8 8fbe 9963 8ebd f688 83be 79d4 783d
00000260: aeae 82bd 5086 60be 4764 39be 7536 813d
00000270: ba97 4c3e 3ca4 4c3e a80e 3a3e 877c 58be
00000280: 8aee 6b3e 614f 7f3e f9d1 333d 8c0b 87be
00000290: 0eac 27be 3153 52be b19d b73c 1025 273e
000002a0: d5d7 0c3e 9c21 0fbe ab6d b8bd 8e37 2a3d
000002b0: 50cb ebbd 6313 2bbd 7ee0 bf3d b995 dbbd
000002c0: f2f9 ae3d 6167 4dbd 0aaa 793e d503 70be
000002d0: 3fcf 603e 15f5 213e dbcd 5ebe fd43 22bd
000002e0: 85fb 25bd ce97 fb3d c15a 323e 54c7 03be
000002f0: 1ffb 14be bfc6 35be 7950 3d3e fd7b 48be
00000300: 4979 49be eb9e 803e 7afe e63d aadb 143e
00000310: 8a48 8e3e 51f9 7bbe 35dc 1cbd f211 c63b
00000320: c759 823e 0ba8 38bd 88a6 27bd 24bc 293e
00000330: 3e76 de3d 9543 0dbe e2e2 7abe 6897 8ebd
00000340: fd53 873d b5a0 7a3e 66d5 c33d 83ee 0a3e
00000350: 9a9e f23d 77dd 8abd 4990 0fbd 0844 883e
00000360: e0a8 9c3d 1eeb 623d 6fa8 103e 2f73 403e
00000370: 5a7a 8f3d f072 96bc b7a8 06be 567b 20be
00000380: 242d 2bbe 4307 433e 040b 2c3e fd35 37be
00000390: 2908 7f3e a8c3 c2bd 86e5 c2bc ab50 f33d
000003a0: 9c74 1fbe ce2c edbd 6203 94bd cb99 37bd
000003b0: 8c6c c43d 301b b1bc cdb8 84be 52f3 40be
000003c0: 4c2b 7b3e a08f f43d 54d7 7ebe 57da 4abe
000003d0: 8c78 16be d3e1 6a3e 8af9 043e 577a aa3d
000003e0: fff4 103e a5d4 203d e069 3b3e 803c 51be
000003f0: ff68 4d3e 8c0f e13d 7ec2 aa3d 692b 1b3e

encoder.blocks.0.mhsa.W_v.bias f4 [16]
-0.02756991 -0.11743611 -0.068400174 -0.17501432 -0.000248641 0.13068554 0.056028426 0.00041653443
0.10150061 -0.23659632 -0.18174104 -0.21412061 0.27138537 -0.22094324 0.1545208 0.17492613
00000000: 4bda e1bc 5882 f0bd 6415 8cbd f436 33be
00000010: 085c 82b9 6ed2 053e 107e 653d 4e62 da39
00000020: 8ddf cf3d 4e46 72be 531a 3abe 6f42 5bbe
00000030: 06f3 8a3e f23e 62be b33a 1e3e d61f 333e

encoder.blocks.0.mhsa.W_o.weight f4 [16, 16]
-0.06237277 -0.03985116 0.19507003 -0.20812373 -0.25121903 -0.007104858 -0.04302045 -0.1106019
0.028914098 0.12318976 0.10912913 0.06701976 0.1792629 -0.14043675 0.012683176 0.07113317
0.084503144 -0.097040206 0.20136124 -0.18831114 -0.11498885 -0.23236881 0.028236719 -0.19464807
0.17937389 -0.17150901 0.04241786 0.22121486 0.23507713 0.079889596 0.120972395 0.038540006
0.1465398 -0.013349623 -0.19395974 0.21157973 -0.18715957 0.24435183 0.008002375 0.1075822
0.01296614 0.104194954 0.1841302 -0.24374087 0.13972577 -0.09286078 -0.2632762 -0.20583759
0.027425561 0.19447355 -0.23725383 0.07537812 0.10558487 -0.22692974 0.05522955 -0.12446499
0.037345678 -0.10177813 0.22837564 -0.2281878 0.13703838 -0.09594999 0.07084186 0.019227227
-0.23707971 -0.115727805 0.017663285 0.018303286 -0.13381031 0.1286767 -0.11651098 -0.12934728
0.110346936 -0.023142189 0.11655881 0.16347685 -0.10616255 0.06518176 0.26696104 0.05621051
0.22103475 0.09988411 0.18045785 0.18671499 0.16209033 0.06172658 0.12427049 0.15718865
0.018138632 0.03911955 -0.10925593 -0.013363781 0.14312671 -0.0015810541 -0.09254716 0.055582486
-0.030243846 0.03910097 -0.032152783 0.013597769 -0.07499497 0.16810787 -0.1480314 -0.17001323
-0.07078312 0.040718 0.1999187 0.08773033 -0.02791712 -0.20771064 -0.120623946 0.09242944
-0.06882034 -0.15577415 0.05314055 0.17424501 0.028748464 0.20607632 0.20494011 -0.010331369
0.2696018 0.06948507 0.06866913 0.08201231 -0.23201913 0.07118298 0.20720653 0.042202935
0.008923896 -0.043367933 -0.18917702 0.038863465 0.10756115 0.07459164 0.23481533 -0.13853382
0.20734106 -0.047185794 -0.09217367 -0.119478144 -0.16779889 0.065107904 -0.04688096 0.05301936
-0.2821311 -0.03866832 0.16283235 -0.09050181 0.1928746 -0.14209719 -0.10658131 0.1999367
0.17293404 0.14752056 0.15467064 -0.14460427 0.0073390445 0.00096642843 -0.16073687 0.07520895
0.106589384 -0.18729879 -0.034655754 0.061986778 0.25503013 -0.20562737 0.2167876 -0.024869058
0.05511681 -0.21954842 -0.2459709 -0.13251211 -0.0059361435 0.045522768 0.23683795 -0.049650416
0.13540423 -0.17092958 0.17737891 -0.17997515 -0.28114268 0.17301454 -0.12572858 -0.10857793
-0.2003652 -0.030992342 0.1426786 0.1627858 -0.23023656 0.042666096 -0.21531431 -0.1803619
-0.04963421 -0.045505196 0.11204918 0.09125027 0.09002415 0.14591897 -0.041137192 -0.029263603
0.25881928 0.0045664855 0.17055249 -0.13951436 0.18429175 0.15859812 0.19803321 -0.15458366
-0.24929471 0.04779044 -0.025593132 0.23990351 -0.093107566 -0.10032558 0.04374602 -0.19645208
-0.21252987 0.17234997 0.012593385 0.053530023 -0.048386168 0.14181753 -0.10470607 0.08212679
0.073783435 0.0706787 -0.16223669 -0.22803502 -0.124968685 -0.24055019 -0.20880197 -0.07704597
-0.033637155 0.047058336 -0.09860523 -0.1543883 -0.075668216 0.1617412 0.12745404 0.24716686
0.10729472 0.1901514 0.010564748 -0.14637077 0.0632024 0.23056643 -0.08270465 -0.009874904
-0.23060632 0.20247999 -0.1912685 -0.10517464 -0.016412314 -0.1311389 0.018529907 -0.12512486
00000000: 977a 7fbd f83a 23bd 70c0 473e 631e 55be
00000010: c89f 80be decf e8bb 3636 30bd 4083 e2bd
00000020: 42dd ec3c ea4a fc3d 187f df3d a841 893d
00000030: b290 373e a7ce 0fbe 19cd 4f3c 44ae 913d
00000040: fc0f ad3d 04bd c6bd a431 4e3e a3d4 40be
00000050: 467f ebbd 17f2 6dbe b150 e73c d351 47be
00000060: caad 373e 0fa0 2fbe 5abe 2d3d 2686 623e
00000070: 0fb8 703e 289d a33d 60c0 f73d 20dc 1d3d
00000080: 880e 163e 61b8 5abc 629d 46be 5ba8 583e
00000090: c2a6 3fbe 5e37 7a3e 651c 033c 0e54 dc3d
000000a0: ef6f 543c 2a64 d53d a18c 3c3e 3597 79be
000000b0: 4614 0f3e cb2d bebd 23cc 86be 17c7 52be
000000c0: 92ab e03c 1324 473e abf2 72be d85f 9a3d
000000d0: e13c d83d 4560 68be 6138 623d 80e7 febd
000000e0: c8f7 183d 0d71 d0bd 4edb 693e 10aa 69be
000000f0: ca53 0c3e 6e81 c4bd 8915 913d 6b82 9d3c
00000100: 06c5 72be b302 edbd 98b2 903c c6f0 953c
00000110: 9205 09be d3c3 033e 4f9d eebd 9d73 04be
00000120: 93fd e13d b094 bdbc 63b6 ee3d 7a66 273e
00000130: c06b d9bd 047e 853d 1eaf 883e fe3c 663d
00000140: ef56 623e 0a90 cc3d f1c9 383e 3732 3f3e
00000150: 02fb 253e 03d5 7c3d 8781 fe3d 10f6 203e
00000160: 7897 943c d23b 203d 93c1 dfbd c3f3 5abc
00000170: cf8f 123e 5f3b cfba 5e89 bdbd 76aa 633d
00000180: f1c1 f7bc 5728 203d a3b2 03bd 2dc9 5e3c
00000190: f696 99bd 7824 2c3e 8b95 17be f317 2ebe
000001a0: bef6 90bd ebc7 263d 7db7 4c3e f6ab b33d
000001b0: 72b2 e4bc 19b2 54be b009 f7bd a54b bd3d
000001c0: aef1 8cbd 4283 1fbe e8a9 593d 496d 323e
000001d0: e681 eb3c ac05 533e d2db 513e e744 29bc
000001e0: 3f09 8a3e 304e 8e3d 67a2 8c3d 12f6 a73d
000001f0: 6c96 6dbe 62c8 913d f32d 543e fcdc 2c3d
00000200: 8835 123c 93a2 31bd 9fb7 41be 4c2f 1f3d
00000210: 0549 dc3d 80c3 983d 6e73 703e cfdb 0dbe
00000220: 3751 543e e445 41bd 8dc5 bcbd f5b0 f4bd
00000230: 79d3 2bbe 4b57 853d 4006 40bd d42a 593d
00000240: 7d73 90be ac62 1ebd 86bd 263e 0359 b9bd
00000250: eb80 453e ed81 11be 4d47 dabd 35bc 4c3e
00000260: 9f15 313e a10f 173e fb61 1e3e 2413 14be
00000270: 5e7c f03b ea57 7d3a 3598 24be 2607 9a3d
00000280: 894b da3d 41cb 3fbe 31f3 0dbd d9e5 7d3d
00000290: 4f93 823e fb8f 52be 92fd 5d3e 32ba cbbc
000002a0: 2ac2 613d 4dd1 60be ccdf 7bbe 41b1 07be
000002b0: fb83 c2bb 1576 3a3d a685 723e 3c5e 4bbd
000002c0: 68a7 0a3e 2a08 2fbe d1a2 353e 684b 38be
000002d0: eff1 8fbe b92a 313e febe 00be 1b5e debd
000002e0: 892c 4dbe a7e3 fdbc 571a 123e 52b1 263e
000002f0: 22c3 6bbe a5c2 2e3d 5b7b 5cbe cab0 38be
00000300: 3e4d 4bbd a863 3abd 0a7a e53d 6ce1 ba3d
00000310: 955e b83d c86b 153e 797f 28bd 39ba efbc
00000320: f683 843e 75a2 953b 50a5 2e3e dadc 0ebe
00000330: fab6 3c3e 8c67 223e 38c9 4a3e 2e4b 1ebe
00000340: 1d47 7fbe e9bf 433d b0a8 d1bc 44a9 753e
00000350: 2eaf bebd 7f77 cdbd 072f 333d bc2a 49be
00000360: 6ea1 59be 837c 303e 7c54 4e3c 4c42 5b3d
00000370: 9330 46bd 9d38 113e 2370 d6bd 1732 a83d
00000380: c51b 973d ffbf 903d 6021 26be 0382 69be
00000390: 95ef ffbd ca52 76be 2fd0 55be 47ca 9dbd
000003a0: 1dc7 09bd 3ec0 403d 8af1 c9bd f717 1ebe
000003b0: f0f7 9abd 7c9f 253e 5083 023e 4f19 7d3e
000003c0: 56bd db3d 0cb7 423e c417 2d3c 38e2 15be
000003d0: 4370 813d 9b19 6c3e 0e61 a9bd 59ca 21bc
000003e0: 1024 6cbe ea56 4f3e e4db 43be cd65 d7bd
000003f0: 1e73 86bc 4749 06be 08cc 973c bb20 00be

encoder.blocks.0.mhsa.W_o.bias f4 [16]
0.2516421 -0.14445166 0.04672362 -0.24021125 0.031587355 0.1670419 -0.17685251 -0.037266582
-0.016830109 -0.04689288 0.05244589 0.16372775 -0.059627622 0.078254074 -0.21240258 -0.15312164
00000000: 3cd7 803e 23eb 13be 4461 3f3d f0f9 75be
00000010: be61 013d 080d 2b3e d318 35be d8a4 18bd
00000020: 4cdf 89bc c012 40bd 80d1 563d 3fa8 273e
00000030: 183c 74bd ac43 a03d 1080 59be ebcb 1cbe

encoder.blocks.0.norm2.weight f4 [16]
1.0461341 1.0094292 1.0875528 1.0967993 1.0470928 1.0266362 1.0016333 1.0032915
0.9828881 1.0068994 1.010876 1.0006702 0.9837643 1.0339404 1.0408406 1.039273
00000000: b9e7 853f fa34 813f ee34 8b3f eb63 8c3f
00000010: 2307 863f d168 833f 8535 803f db6b 803f
00000020: 8e9e 7b3f 14e2 803f 6364 813f f615 803f
00000030: fad7 7b3f 2958 843f 443a 853f e606 853f

encoder.blocks.0.norm2.bias f4 [16]
-0.019810867 -0.0013345995 0.038562622 -0.015873706 0.011133668 -0.0093496 -0.022069925 0.013186877
0.0050404156 0.011537476 -0.005066443 -0.007934461 0.02552919 -0.001299181 0.0023823949 0.008196128
00000000: 664a a2bc baed aeba d7f3 1d3d 9309 82bc
00000010: fd69 363c 112f 19bc fdcb b4bc c50d 583c
00000020: 122a a53b af07 3d3c 6704 a6bb 8bff 01bc
00000030: 9822 d13c 4849 aaba f421 1c3b 0d49 063c

encoder.blocks.0.mlp.0.weight f4 [64, 16]
-0.12163321 0.10967014 0.0032683902 0.33290303 0.019881885 -0.0047043804 -0.13037282 0.057811998
-0.10952433 -0.01162165 -0.07083614 -0.19806613 0.040683076 0.044897832 -0.105093956 -0.04582525
-0.26256934 -0.10436424 -0.29806882 0.2870593 0.24341393 -0.20886599 -0.16630681 -0.21898887
0.15472956 0.052212015 -0.24186976 -0.07298914 0.19143663 -0.03254205 -0.24116996 0.07001316
0.24722841 0.21741357 -0.046446137 -0.06774278 0.019752624 0.22194217 0.1838229 -0.24415673
0.07522718 0.17251958 -0.13992189 -0.18574803 0.18638042 0.15203819 -0.16732003 0.027702214
0.23642832 0.049301613 0.13274212 0.04450548 0.053767473 0.16752967 -0.104945704 -0.0044752285
-0.09022849 -0.044882752 0.088996425 -0.10115463 -0.013990689 0.2094519 0.11598421 0.24167517
0.019195125 -0.07209369 0.17890732 -0.13490424 0.09400361 0.21597672 -0.15805893 -0.03715299
0.20393363 -0.024978723 -0.22936381 -0.1511966 -0.23321447 -0.090969004 0.15060186 -0.06441327
-0.13014983 0.0013200003 0.0038989834 -0.09286101 -0.037226785 0.00816269 0.011464458 -0.06593421
-0.05410244 0.10281226 -0.095971934 0.018585382 -0.008441187 0.11464576 0.06961498 0.110607795
0.024384804 -0.1637525 -0.07288057 -0.19251263 0.028773714 0.31035438 -0.06779142 0.23103496
-0.15613009 0.19976823 0.095996775 -0.11371379 -0.24126524 -0.14809373 0.09539536 0.21803446
-0.20753959 -0.12594336 0.1105904 -0.11088426 -0.39407533 -0.10458109 0.10089896 -0.2644618
-0.043756075 0.17473799 0.12411902 -0.07929334 0.19329369 0.10322235 0.13443027 0.034907613
-0.12577362 0.23025627 -0.19876747 0.109737754 -0.08718411 -0.07650302 0.18393175 -0.2429472
-0.054444656 -0.079251654 0.16009876 -0.19221324 -0.05153637 -0.1821244 0.18584691 0.18962532
0.01013974 0.1317848 0.3001188 -0.25316504 0.02978384 0.21513912 -0.0576977 -0.19766898
0.22551773 0.24240328 0.13371885 0.1915819 -0.019244188 -0.18927932 -0.2377747 0.10675564
-0.12473974 0.28903216 -0.022461744 0.19831167 0.02028564 -0.07537554 -0.07683534 -0.235086
-0.19235021 -0.046419173 -0.1864321 -0.24823235 0.13716713 -0.11943186 -0.019525213 -0.098263875
-0.22069833 -0.12961993 -0.1608374 -0.007721961 0.28494892 -0.07810791 0.034052618 0.15964636
0.11946732 0.028050743 -0.05580209 -0.03529984 -0.027476553 0.26403293 0.036572218 0.18688726
0.10874689 0.17086594 0.024452865 -0.017296512 -0.05486032 0.093983054 0.1828866 0.18835562
-0.23060167 0.031918112 -0.14881115 -0.15717827 -0.222959 -0.07859833 0.3473189 0.1603197
-0.16847064 -0.07517511 0.07207338 0.22847098 0.13180609 -0.1166102 -0.14863604 0.15327084
0.0430351 -0.13235712 -0.18996367 -0.018704029 0.1821725 0.013430685 -0.023150114 0.11987473
-0.25288564 -0.14364794 0.114085734 -0.20396554 0.20122351 -0.10254567 0.18555471 -0.081982434
0.02874327 0.25970435 -0.22223713 -0.13524239 -0.11638134 0.08707875 -0.06390639 0.14267978
-0.09886251 0.12475505 -0.23010716 0.026872203 0.14911903 0.025892723 -0.12942314 -0.10218776
0.046996456 -0.17550817 -0.18582577 -0.013963877 -0.19048253 0.019040603 -0.17873862 0.10526563
00000000: d51a f9bd bd9a e03d 7d32 563b 4472 aa3e
00000010: 56df a23c 3427 9abb 7480 05be 46cc 6c3d
00000020: 4b4e e0bd bc68 3ebc 8a12 91bd d9d1 4abe
00000030: 4ca3 263d cae6 373d 803b d7bd 42b3 3bbd
00000040: 7d6f 86be ebbc d5bd 7a9c 98be 70f9 923e
00000050: 8041 793e f7e0 55be 554c 2abe 9e3e 60be
00000060: 6d71 1e3e 44dc 553d b5ac 77be 557b 95bd
00000070: f707 443e d04a 05bd 42f5 76be 0f63 8f3d
00000080: 7229 7d3e aaa1 5e3e 4e3e 3ebd babc 8abd
00000090: 41d0 a13c cf44 633e 123c 3c3e 3904 7abe
000000a0: b510 9a3d f9a8 303e af47 0fbe bb34 3ebe
000000b0: 82da 3e3e e6af 1b3e f155 2bbe c1ef e23c
000000c0: 441a 723e 7df0 493d 8ded 073e 614b 363d
000000d0: 483b 5c3d e68c 2b3e c6ed d6bd f0a4 92bb
000000e0: b7c9 b8bd fad6 37bd c243 b63d 292a cfbd
000000f0: 3439 65bc 8f7a 563e 2189 ed3d b279 773e
00000100: 183f 9d3c dba5 93bd 7b33 373e 5624 0abe
00000110: f784 c03d 0029 5d3e 33da 21be bc2d 18bd
00000120: fad3 503e 2ea0 ccbc 59de 6abe 48d3 1abe
00000130: c6cf 6ebe f54d babd 6037 1a3e 1beb 83bd
00000140: ff45 05be dc03 ad3a 1686 7f3b ea2d bebd
00000150: 1d7b 18bd cebc 053c 6cd5 3b3c 8408 87bd
00000160: 859a 5dbd 3c8f d23d ef8c c4bd 5f40 983c
00000170: e84c 0abc 65cb ea3d 4c92 8e3d 5786 e23d
00000180: a4c2 c73c bcae 27be 6942 95bd 0822 45be
00000190: dab6 eb3c c5e6 9e3e 3ad6 8abd 6e94 6c3e
000001a0: 91e0 1fbe 0b90 4c3e f599 c43d c7e2 e8bd
000001b0: 3c0e 77be e2a5 17be a45e c33d 6d44 5f3e
000001c0: 4285 54be 4cf7 00be 387d e23d 4917 e3bd
000001d0: 3ec4 c9be 9c2e d6bd 1da4 ce3d 8967 87be
000001e0: 9239 33bd 84ee 323e 1d32 fe3d 8c64 a2bd
000001f0: c8ee 453e 3d66 d33d 17a8 093e 49fb 0e3d
00000200: cdca 00be 4dc8 6b3e b389 4bbe 30be e03d
00000210: 958d b2bd 9ead 9cbd 9b58 3c3e 27c7 78be
00000220: 5c01 5fbd b14e a2bd eef0 233e 8cd3 44be
00000230: cd17 53bd d27e 3abe a74e 3e3e 242d 423e
00000240: 2721 263c 98f2 063e 2ca9 993e d99e 81be
00000250: 3dfd f33c 6e4d 5c3e 6c54 6cbd bd69 4abe
00000260: 1fee 663e 9138 783e 98ed 083e 0c2e 443e
00000270: fda5 9dbc 70d2 41be 367b 73be b3a2 da3d
00000280: 8c77 ffbd 06fc 933e b101 b8bc 3712 4b3e
00000290: 122e a63c 7e5e 9abd d95b 9dbd 62ba 70be
000002a0: 74f7 44be 0822 3ebd 0ee8 3ebe 9f30 7ebe
000002b0: 8a75 0c3e b198 f4bd 57f3 9fbc 923e c9bd
000002c0: befe 61be 16bb 04be 8fb2 24be 8108 fdbb
000002d0: d3e4 913e 0af7 9fbd c27a 0b3d 567a 233e
000002e0: 48ab f43d acca e53c bb90 64bd 9196 10bd
000002f0: 8216 e1bc 532f 873e c0cc 153d 605f 3f3e
00000300: b1b6 de3d 7bf7 2e3e 6051 c83c 6ab1 8dbc
00000310: 37b5 60bd 307a c03d a046 3b3e 4ce0 403e
00000320: d822 6cbe 91bc 023d f361 18be 57f3 20be
00000330: 5d4f 64be 29f8 a0bd c8d3 b13e d92a 243e
00000340: 9183 2cbe 68f5 99bd 359b 933d 4cf4 693e
00000350: 2df8 063e 54d1 eebd 0c34 18be 08f3 1c3e
00000360: 9345 303d a088 07be d685 42be 3139 99bc
00000370: 6e8b 3a3e 600c 5c3c 4fa5 bdbc e280 f53d
00000380: 3a7a 81be 7218 13be c8a5 e93d 58dc 50be
00000390: 890d 4e3e 7703 d2bd 0e02 3e3e 68e6 a7bd
000003a0: 0277 eb3c f8f7 843e 2192 63be fb7c 0abe
000003b0: 5759 eebd 5856 b23d 5ae1 82bd a61a 123e
000003c0: 6d78 cabd 937f ff3d 36a1 6bbe 1823 dc3c
000003d0: a9b2 183e fa1c d43c 8087 04be d147 d1bd
000003e0: 5b7f 403d 6ab8 33be 1c49 3ebe bfc8 64bc
000003f0: da0d 43be 0afb 9b3c 4207 37be 8295 d73d

encoder.blocks.0.mlp.0.bias f4 [64]
0.19468026 -0.058531623 -0.14345364 0.05041428 0.15661912 0.25617334 0.16906267 0.015589976
-0.21114913 -0.14697163 0.16854359 -0.19529289 -0.17589855 -0.15751855 -0.030214185 0.10935746
0.17394328 0.1911876 0.10652323 0.047441445 -0.06103811 -0.14028157 -0.13265224 -0.015308271
0.20928754 -0.1000131 -0.04260519 -0.0046527497 -0.09627071 -0.13565098 0.094057135 -0.17901684
0.0004250619 -0.069641575 0.043246392 -0.03564643 -0.08282521 -0.07197712 -0.074368075 0.11248543
0.06629491 -0.06832478 0.20740952 0.020013941 0.13442767 -0.093177535 -0.14550616 -0.21770278
-0.09030097 0.14812464 0.16753836 0.07658271 0.07234372 -0.14555547 -0.06845535 0.025653765
-0.20512772 -0.22953238 -0.19339482 0.05544356 -0.042713676 -0.048669357 0.11287588 -0.16281717
00000000: 435a 473e dbbe 6fbd 83e5 12be 347f 4e3d
00000010: c360 203e 2729 833e c41e 2d3e 196d 7f3c
00000020: 7a37 58be bb7f 16be b196 2c3e dcfa 47be
00000030: c01e 34be 8b4c 21be bd83 f7bc cef6 df3d
00000040: 301e 323e afc6 433e da28 da3d f651 423d
00000050: 1903 7abd f9a5 0fbe fdd5 07be 8bcf 7abc
00000060: 794f 563e abd3 ccbd c882 2ebd 1876 98bb
00000070: 9429 c5bd 17e8 0abe 07a1 c03d 3150 37be
00000080: d8da de39 3ea0 8ebd 2123 313d fe01 12bd
00000090: 44a0 a9bd be68 93bd 4a4e 98bd c35e e63d
000000a0: a0c5 873d dded 8bbd 2963 543e 47f4 a33c
000000b0: 68a7 093e ddd3 bebd 91ff 14be 7aed 5ebe
000000c0: b7ef b8bd fcad 173e 2d8f 2b3e 65d7 9c3d
000000d0: f228 943d 7e0c 15be 5232 8cbd d827 d23c
000000e0: 000d 52be 890a 6bbe 4b09 46be c918 633d
000000f0: 89f4 2ebd 8559 47bd 782b e73d 8bb9 26be
